Checkpoints/expr3d_forward/best_model.pth (torch, 526562 bytes, 76 tensors)

embedding.weight f4 [48, 16]
00000000: 329e 353e d323 3d3e 9c9d 90bd 06ca 583e
00000010: c9cb 9bbd 3f80 543c 792f 10be 2220 033e
00000020: 470f 673e 7808 6fbe 1285 233e 52a4 813c
00000030: 60c9 203e 39c4 b53c d8c6 043e b46f 65bd
00000040: 967a 5a3e c34b 6c3d cd3c bbbd 1896 a63d
00000050: d37b bdbd 1c20 46bc fdc4 9abd 4c05 423e
00000060: 05fc 2ebe 274d dfbd 9a3a 79bd 7564 05be
00000070: 37a4 153d 9985 68be dbaf 7d3e b9d0 6ebe
00000080: c053 273e 57c6 a23c 242f ccbd 068a 0f3e
00000090: 30cd a03c 9670 363e 65fb 0b3c f180 bbbd
000000a0: 8a4a 773d c6bb efbd 2e4d 873d c3cc 3f3e
000000b0: 5ed9 e93d 3305 01be f9fc 183e 0648 073d
000000c0: 40af 103e 1ccc 15be 2d67 6dbe 1244 bdbd
000000d0: e488 3fbe b688 543e b33a ae3d 1b80 e73d
000000e0: 56de b63d 7f0d 1c3a aab2 4e3e c0ac 2ebe
000000f0: 7685 3d3c d128 2abe 1137 b83d 607e c3bd
00000100: 60f6 ae3d 3925 78bd 348b 583e c68b 21be
00000110: 2443 27be e9d1 20be 6a42 673e d46b b23d
00000120: e224 7f3e b100 4dbe 7d99 73be f6b4 36be
00000130: a763 2cbe 9d9d d83d d668 9f3d 9525 623e
00000140: 579a 1ebe 35a9 2abe aa2d 053e 681f c4bd
00000150: 5dfb 2f3e ac52 4abd f6eb 123e 9a54 42be
00000160: 9afa eabd acc0 ba3d 7db8 4b3d dede 63bd
00000170: 941d 343e c5ec 3e3e 794a 44be b49d 17be
00000180: a628 683e 9aa9 a0bd 3a9b bdbd c1f1 6ebe
00000190: bbe9 0ebe 3cce 953d 9c75 15bd e306 35be
000001a0: a8a1 1c3b 9fba 28be 0f64 50be 8f59 0fbe
000001b0: a958 56be 6470 21be 6c1c 753e 5c45 5c3d
000001c0: cc72 d03d f809 4dbe 63d4 0dbe 612a 62bd
000001d0: da5f 9f3d e08f 2fbe e3a5 aabd 1fde 03be
000001e0: 5efc 193a 5cfd 61bb 03ed 7c3d 245a f4bd
000001f0: 8ea3 fcbd 90f7 eebd ea12 b3bd fa8c 5dbe
00000200: 7502 3e3e 7cac 98bd 1b99 423e fec1 5a3d
00000210: 3fd1 77be babe 143e aa28 cabd 332d 04be
00000220: 4050 78be e42a 85be 430d 503d 9775 a5bd
00000230: c006 a23d 201f 6bbe 745f 1e3e 1a45 34be
00000240: a917 88bd b73a 093d 820b f43d fb0c 393e
00000250: b41a 623e 9832 5cbe 08ad 5e3d 8fdb fbbd
00000260: b2cb 41bd 7eaa 56be bcb1 553e db0c 45be
00000270: 1de7 ec3d 6374 903d 591a 923d 8de8 0dbe
00000280: 4114 663e c216 593d 5010 063d 8195 6abe
00000290: d71c d73d 8558 33bd 0c4c ebbd 0378 593e
000002a0: d535 593d 4a2e 33be b136 1ebe d9bd b9bc
000002b0: 2044 ff3d 59b6 9fbd 5b1d 20be fc35 d1bd
000002c0: 418d 5dbe 86d6 ac3d 9b5f 333e f946 74be
000002d0: 7a70 793d 6304 fe3d b369 163d 9241 b0bd
000002e0: c48b 103e 0e3a c53d ec90 7a3d 987b 8cbd
000002f0: 806e 9ebd 9204 ab3c bd54 2cbd 3586 8ebd
00000300: db7f 203e d995 4f3e 08a2 c4bc 5a92 7cbd
00000310: fa49 d4bb 1dde 1abd 8f10 533d 5b66 6d3d
00000320: c043 85be 3116 03be 028d 353e c0f4 8d3d
00000330: 82d3 3abd 8d01 31be 6a1c 16be d9c9 77be
00000340: 9b12 86bd f97e 633d 971a 1f3e a553 c93d
00000350: f025 8cbe 4f3a 3cbe d16e 14bd f0e2 6a3e
00000360: 4040 d33c 5802 b9bd 2831 c43d 5b61 95bd
00000370: ac83 26be f5e1 3a3e 4d7c 26be 0dc2 20bd
00000380: fc30 7bbe d4ad 2a3e d359 483e 80e4 b83d
00000390: 5e6a 33be 00ea 7dbe 9b8d 47be fd65 453e
000003a0: 0819 fc3d fee1 5d3e 09f5 123e ddfb 993d
000003b0: 3580 59b9 9cd1 3ebe a437 60be dd45 75be
000003c0: 0ed3 e43d bf1b f0bd 32dd 60bd 6ce5 0fbe
000003d0: 4af1 50bd a58b 22be fad5 27be 4a63 af3d
000003e0: fd34 c1bd 58b5 3a3e accd 25bd fada 2ebe
000003f0: 0788 05bd d4e3 ffbd 4222 dbbd de43 55be
0.17736128 0.18470697 -0.070613116 0.21170816 -0.07607228 0.012970029 -0.1408061 0.12805226
0.22564422 -0.23343074 0.15968731 0.015825424 0.15701818 0.022188293 0.12966478 -0.05601473
0.21335825 0.05768944 -0.09142456 0.08134097 -0.09252133 -0.012092616 -0.07557104 0.18947333
-0.17088325 -0.109033875 -0.060846902 -0.13026603 0.03653356 -0.22707213 0.24774115 -0.23321809
0.16340542 0.019869966 -0.09969929 0.14017496 0.019629091 0.17816386 0.008543824 -0.09155453
0.06037382 -0.11705737 0.06606518 0.18730454 0.114184126 -0.1259964 0.14940251 0.03302767
0.14129353 -0.14628643 -0.2318389 -0.09241499 -0.18704563 0.20755276 0.0850729 0.11303731
0.08929126 0.0005952939 0.20185342 -0.17058086 0.011567464 -0.16617133 0.08994878 -0.095455885
0.08543086 -0.060582373 0.21146852 -0.15775976 -0.16334206 -0.15705074 0.22583929 0.08711973
0.24916413 -0.20019795 -0.2378902 -0.17842469 -0.1683489 0.10576937 0.07783668 0.22084649
-0.15488563 -0.1666611 0.130057 -0.09576303 0.17185731 -0.04939525 0.14347824 -0.18977585
-0.1147358 0.091187805 0.04973649 -0.055632465 0.17589408 0.18645008 -0.19169034 -0.14806253
0.22671756 -0.07844849 -0.09258123 -0.2333441 -0.13956349 0.07314727 -0.036489114 -0.17678408
0.0023900066 -0.1647744 -0.2035067 -0.13999008 -0.20932259 -0.1576553 0.23936623 0.053777084
0.10178146 -0.20023334 -0.1385055 -0.055216197 0.07781954 -0.17144728 -0.08332422 -0.12877701
0.00058740925 -0.003448329 0.06174947 -0.119312555 -0.12335883 -0.116683125 -0.08743842 -0.2163581
0.18555625 -0.07454774 0.19003718 0.05340766 -0.24200915 0.14525881 -0.09871037 -0.12907867
-0.24249363 -0.26009285 0.050793897 -0.08079069 0.07911444 -0.22961092 0.154661 -0.17604485
-0.06645138 0.03350326 0.119162574 0.18071358 0.22080499 -0.21503675 0.054364234 -0.12297737
-0.0473134 -0.20963475 0.20868582 -0.19243185 0.11567519 0.07053449 0.07133932 -0.13858242
0.22468664 0.05300022 0.0327304 -0.22908594 0.10503548 -0.04378559 -0.11489114 0.21237187
0.053029854 -0.17498127 -0.1545055 -0.022673534 0.12464166 -0.07798452 -0.15636198 -0.10215375
-0.21635915 0.084393546 0.1751694 -0.23855199 0.06089828 0.124031805 0.036721896 -0.086062565
0.14115816 0.09630214 0.061173365 -0.06859511 -0.0773592 0.020876203 -0.042073 -0.06959192
0.15673773 0.20272006 -0.024003044 -0.06166301 -0.0064785453 -0.03780948 0.051529463 0.057958942
-0.26028252 -0.12801434 0.17729571 0.06931448 -0.045611866 -0.17285748 -0.14659277 -0.24198093
-0.065465175 0.055541012 0.15537487 0.09830407 -0.27372694 -0.18381618 -0.036238495 0.22938132
0.025787473 -0.0903365 0.09579688 -0.0729396 -0.16261166 0.18250258 -0.16258354 -0.03924756
-0.24530405 0.16667873 0.19565515 0.09027958 -0.17521045 -0.24796295 -0.19487612 0.19277187
0.12309462 0.2166824 0.14351286 0.07518742 -0.00020742494 -0.18634647 -0.21896225 -0.23952432
0.11173068 -0.11724042 -0.05489845 -0.14052361 -0.05101136 -0.15873583 -0.1639022 0.0856386
-0.09433935 0.1823324 -0.040479347 -0.1707572 -0.03260043 -0.12494627 -0.106998935 -0.2082667

embedding.bias f4 [48]
00000000: 2093 babd fc91 943e 3196 023e 40dc 193e
00000010: f123 14be b779 f4bd 8bb9 d5bd 4c8f e6bd
00000020: a8d1 44be 3f11 ab3d 2e40 8f3d 6df0 863a
00000030: 39f9 653d a36d 9cbd 5a84 eb3d adfb 7d3d
00000040: 4541 1dbe 7a04 91be 139b 113e 1e57 a63d
00000050: 24f6 12be 0da9 773e 918e 9bbd c09c 0d3e
00000060: 0e9f 1f3e 7b98 6abe 4903 4e3e 756e 89be
00000070: 439b 33be 13a5 4a3c 929b 51be d5d4 893e
00000080: b800 79bd b9b9 033e 7f6c 85be 86c0 233e
00000090: 4213 62bd bd20 80be dca9 923d 6c2c a23d
000000a0: d8b7 883e f5da 3dbe e710 1ebe 1b0e bf3d
000000b0: eb48 ea3d b5d3 e83d bd15 2c3e 52b3 22bc
-0.09110093 0.29017627 0.12752606 0.15025425 -0.14466836 -0.11937278 -0.1043578 -0.112578005
-0.19220603 0.08352899 0.06994663 0.0010295041 0.05614588 -0.07638099 0.114998534 0.062007595
-0.1535693 -0.28323728 0.14219312 0.08122085 -0.14351708 0.24185582 -0.07595552 0.13829327
0.15588018 -0.22909729 0.2011844 -0.26842085 -0.17539696 0.012368458 -0.20469502 0.2692019
-0.0607917 0.12863816 -0.26059338 0.1599141 -0.055194147 -0.25024977 0.07161304 0.07918629
0.26702762 -0.18540557 -0.15436135 0.09328862 0.11439689 0.11368505 0.16805167 -0.009930449

layers.0.self_attn.in_proj_weight f4 [144, 48]
00000000: b97c 0c3e d1d7 a23c d57a 263e b7f2 063e
00000010: f232 233e 4030 38be c617 b2bb c0ff 81bd
00000020: 9538 b13d e90e f1bd baf7 d53d 9856 f8bb
00000030: 9245 67bd d7ac fcbd 8d10 033e fb47 7abd
00000040: 3185 153e 9fa7 4bbb 487d 4f3d f15c f2bc
00000050: 9e5d 8bbc 9ea3 90bd b64c 0bbe 2b81 d13d
00000060: 4084 c8bd 21e6 963d 817c 7cbd 996d 7b3c
00000070: efd0 213e 7c15 0cbe bb3f 093e b743 883d
00000080: 6998 68be b852 883d 4abe be3d 57ac 1d3e
00000090: 38df 89be 4c8e 163e f058 1f3e df80 2b3e
000000a0: 93c6 c23d 70ba 16be f123 143e 7c7b 373e
000000b0: 1c6f dbbc 2e39 2abd cc56 3f3e 0a40 473e
000000c0: 0352 ce3d 0c19 323d ae2a ebbd 6d34 c5bc
000000d0: 23a2 62bd 972c c23d 42e9 863d 1f7a edbd
000000e0: e355 b0bd a099 2dbe 65c3 5dbe 090f 183e
000000f0: ef5b 06be e362 b73c bf44 a6bd 2c6c b6bc
00000100: 749f babc 25cc 223e e646 1dbc 087c 073e
00000110: 5b2b ea3d b967 113e a5c7 39be eeb3 81bd
00000120: b5e3 05be a792 403d 3b60 58bc d6af 1b3e
00000130: 6cb6 1f3e 045c b03d 0a07 f0bd 5c9c 3cbe
00000140: 90ac 7d3e d6c1 3d3b f250 3c3d 08f6 9dbd
00000150: c731 dc3d fd1a 9b3d c168 1ebe adc2 093e
00000160: 1cbb 903d 1b27 d3bc 589f a9bd 7799 8fbd
00000170: fb0f 13bd 1b03 40bd c13f d03d daae 63be
00000180: 0e86 c5bd 4ff7 02bd a360 6b3d 848b fd3b
00000190: a578 93bb c9e7 c43d e29f 1cbe 3d0e 4e3d
000001a0: 07f9 b3bd 92e0 15bd 355e 17be a401 2dbe
000001b0: 7840 1dbe a09f c63d b4d2 c6bd 93aa ad3d
000001c0: 89e0 c8bd 5c10 aa3c 0641 ab3c 447c 0f3e
000001d0: 849f 72bd 2e6b d03d 9834 363d 44fe e63d
000001e0: d369 913d d134 19bd 56ab 6ebd fbd6 d8bd
000001f0: d4b8 843c 145d b93d 56d4 ddbc 04d1 ec3d
00000200: 67a2 58be d46e 183e f67b 00bc 9777 f5bd
00000210: 166b d5bd ad4f 15be 0cf6 473d a99e e0bd
00000220: 1315 643d cfff 57bd 0713 c5bd c40a bc3b
00000230: 2458 c7bb cef5 aa3d d4bc 543e a226 efbd
00000240: 37ca cd3d 1743 7dbd 79f8 d7bd 9c5b d2bd
00000250: 6f70 a83d ba13 1b3b b9b9 7cbb dce4 b9bd
00000260: 1f12 353d 2c24 ae3c 0c3a 38be 54f9 96bd
00000270: 318a b8bd 1a70 99bd 8024 0dbe 1833 1cbe
00000280: 3afd 233e 5b7b ecbd 76dc 283e fc25 12be
00000290: 7662 7fbd 812d 90bd 8bd6 ccbd 7522 933d
000002a0: 1d12 763d 8308 ccbd 544f 94bd 9259 333e
000002b0: 7846 78bd 70d0 7c3d 1db2 d93d 80a8 e0bd
000002c0: 96b3 afbd a143 443d 989f 2abd 82b3 eebd
000002d0: 35f9 de3c 813a a3bd 6ca4 233e 82b9 133d
000002e0: d782 033e 3cf9 df3d c825 b2bd 5f4e ec3d
000002f0: 193e 71bd 05f7 c3bc d518 093e 9392 11be
00000300: a346 9f3c a556 8fbe 975c 753d 8ec3 813d
00000310: 11ad dfbd 6107 c43d c9ec 323d a1ee 8abd
00000320: e310 a63d 2168 483d 1f41 4d3b 1ecb c8bd
00000330: 5737 22be bdfb fabd 3ba7 4e3c 9841 753d
00000340: 5cb0 06be c1e4 4f3e b003 ef3d 8755 b4bd
00000350: 5460 da3d 3727 68bd 70b8 103d ddad 2a3e
00000360: 6c6d 29be 8dc8 313c ab01 453c b0fb 2c3e
00000370: 8c68 32be 7758 e1bd 4dad adbb d184 f2bd
00000380: c01f 083e 6128 88bc 3804 133d 5221 e63c
00000390: d944 443e e5c0 af3c a015 963c ca88 103e
000003a0: 777a bdbd f00e 0d3d b5bf a53d d8c5 22be
000003b0: da57 4f3d e3ba d03d a7ff 39bd 7a41 1abe
000003c0: 4f48 75b9 b403 7dbe 1bb3 3abe 3201 193e
000003d0: f2c9 02be 14e0 1ebe 9bc3 52bd 4c28 cf3c
000003e0: b6cf fa39 8c47 d1bd dee3 8cbd 9ae2 85bd
000003f0: 7933 ce3d 5778 133e 5103 f43c 459d 3dba
0.13719453 0.0198783 0.16257794 0.13178526 0.15937403 -0.17987156 -0.005434963 -0.063476086
0.0865337 -0.11770422 0.10447641 -0.007578682 -0.05646283 -0.12337654 0.12799282 -0.061103802
0.1460159 -0.0031075252 0.050656587 -0.029585334 -0.017012414 -0.070624575 -0.13603482 0.10229715
-0.0979085 0.07368112 -0.061642174 0.015345954 0.15802358 -0.1368007 0.13403217 0.066535406
-0.2271439 0.06656402 0.093136385 0.15397774 -0.26928115 0.1470272 0.1556127 0.16748379
0.09510531 -0.14719558 0.14466836 0.179182 -0.02678638 -0.041558437 0.18685454 0.19458023
0.10074236 0.043480918 -0.1148275 -0.02407285 -0.055330407 0.09481161 0.06587459 -0.115955584
-0.086101316 -0.16953135 -0.21656568 0.14849485 -0.13121007 0.02238602 -0.08118581 -0.022268377
-0.022781111 0.15898187 -0.009599423 0.13230908 0.11434051 0.14199723 -0.18142565 -0.06333147
-0.13075145 0.04701486 -0.013206537 0.15203795 0.15596932 0.086113006 -0.117200926 -0.18419021
0.24772859 0.0028954647 0.045975633 -0.07712942 0.10751682 0.07573507 -0.15469648 0.13453169
0.07066938 -0.025775483 -0.082823455 -0.07011693 -0.035903912 -0.04687796 0.1016841 -0.2223467
-0.096447095 -0.031974133 0.057465207 0.007737579 -0.004500466 0.09614522 -0.15295365 0.050306547
-0.087877326 -0.03659112 -0.14782031 -0.16895157 -0.15356624 0.09698415 -0.09708157 0.084798
-0.09808452 0.020759754 0.020905029 0.14012247 -0.059234157 0.10176693 0.04448375 0.11278966
0.071002625 -0.037403885 -0.058268867 -0.10587879 0.016201414 0.09050956 -0.027078789 0.11563304
-0.21155702 0.14886028 -0.007842055 -0.119857006 -0.10420816 -0.14581175 0.048818633 -0.10967762
0.05568416 -0.052734192 -0.0962277 0.005738588 -0.006083505 0.08347665 0.20775157 -0.116772905
0.10048335 -0.06183156 -0.10545439 -0.10271379 0.0822457 0.002366288 -0.0038562848 -0.090768546
0.044206735 0.021257482 -0.17990893 -0.07371774 -0.09010733 -0.07492085 -0.13783455 -0.15253866
0.16014567 -0.11546966 0.16490349 -0.14272302 -0.06234976 -0.07039929 -0.10001858 0.071843065
0.060075868 -0.09962561 -0.07241693 0.17514637 -0.06061408 0.06172222 0.106296755 -0.10969639
-0.08579175 0.04791606 -0.041656107 -0.11655332 0.02721844 -0.07970143 0.1598069 0.036065586
0.1284288 0.109362096 -0.086986125 0.115383856 -0.05889711 -0.023921499 0.13388379 -0.1421607
0.019442862 -0.27995792 0.059902754 0.06336127 -0.10921682 0.0957172 0.043682847 -0.06783796
0.0810869 0.04892743 0.0031319333 -0.098043665 -0.15841423 -0.122550465 0.012613113 0.05987701
-0.13153213 0.20302106 0.11670625 -0.088053755 0.106629044 -0.056678023 0.035332143 0.16667886
-0.16545647 0.010851038 0.012024323 0.16892886 -0.17422694 -0.110032015 -0.0053002 -0.11841739
0.13293362 -0.016620817 0.035892695 0.02809206 0.19166888 0.021454284 0.018320858 0.14114681
-0.09251874 0.034438074 0.08093206 -0.15895784 0.05062089 0.10191896 -0.045409825 -0.1506404
-0.00023391958 -0.24708444 -0.18232386 0.14941862 -0.12772349 -0.15515167 -0.051456075 0.02528777
0.00047838473 -0.102187246 -0.068794 -0.065373614 0.100684114 0.14401375 0.029786738 -0.0007233213

layers.0.self_attn.in_proj_bias f4 [144]
00000000: 1f95 d33c 0921 e1bc 9926 f93c b6c3 d4bc
00000010: 6e84 14bd 1fb4 23bd 836a 103d 1b80 ee3c
00000020: 4028 fdbc 1bf0 3cbd 2b38 a3bc 25f0 1e3c
00000030: db73 ddbc 790d b8bc 5972 1d3d 2888 033d
00000040: 5ab9 863d d75d ab39 082b 20bc a9fb 8e3d
00000050: 1acf ddba 6112 883d b40a 85bc fb20 88bd
00000060: 9a34 6fbc 937a 51bb 2a9f 37bb a02d 8dbb
00000070: 96df c6bc 42be 41bc 8201 d73c 86fa 9bbc
00000080: 757b 66bc 5659 28bd 23a0 163b cf71 02bd
00000090: 5f54 263d 12a2 3a3d 5e3a 86bc 9b16 09bd
000000a0: ba00 30bc 7354 023d 94fc 453d eee7 30bd
000000b0: 439e 223d 8aa5 1fbd 0b68 323d 9340 3bbd
000000c0: 2a6e 6738 d351 42b8 54fb 88b5 fe6c 0c38
000000d0: a08c 90b9 94d0 22b9 530e a0b8 a2b3 9ab7
000000e0: c9e3 95b8 36a9 26b8 b946 6538 fe38 1f38
000000f0: faef f238 5828 4739 547c d3b7 7f4a 61b9
00000100: d73f d437 712d 7c37 4f67 1439 0fe3 9439
00000110: bbc6 5d38 d335 0039 84a5 8f39 e706 4fb9
00000120: 3ffb cb38 11ac 4739 8672 2d38 aba7 7a37
00000130: 528e 3d38 4d77 8db7 238d 4d3a ec21 21b7
00000140: 5439 d4b7 f95b 0d38 2eee 5e39 8aa2 a238
00000150: 16cf d638 ea38 13b8 5d48 86ba 2cfa 1ab9
00000160: c8ef bab9 b857 9cb7 d3b0 b438 aa3d fcb7
00000170: f739 1cba 9a7a 403a 7abf 48b9 2048 2b39
00000180: cdf0 723d cfc3 903c 81ec c93c 92d5 bebb
00000190: ec9b debc 878d 07ba 3aeb dcbc fffa 1d3d
000001a0: 5985 3dbd 5212 90bc cef4 16bd 7c49 1a3d
000001b0: 97b5 363d e850 383b 0207 843c bd91 1bbd
000001c0: f7b9 a5bc d8d4 f63c acdf 04bd d57b 463d
000001d0: a3ad 8e3b bb1f 393d 389c 4d3b 62e7 3539
000001e0: df91 ecbb c3f2 70bc 5268 5e3b f7f9 39bc
000001f0: e2b0 99bc e4f5 053d c267 16bd c467 933b
00000200: 0414 4d3c be78 37bd 8e31 66bc aa44 2e3c
00000210: 8c0d 603a c483 d13c 125c 4fbd 4918 80bc
00000220: 648a 2dbd 4300 0d3d 2175 ac3c 24a9 1e3d
00000230: 777b 32bd cdf5 5bbd 0c45 3f3d 909c 04bd
0.025827942 -0.027481573 0.030413913 -0.025972228 -0.036259107 -0.0399667 0.035257827 0.02911382
-0.030902982 -0.04612742 -0.019924244 0.00970081 -0.027032783 -0.022467362 0.03843913 0.03211227
0.06578322 0.00032685578 -0.009775884 0.06981594 -0.0016922683 0.066441305 -0.016240455 -0.066469155
-0.0145999435 -0.003196393 -0.0028018453 -0.0043084174 -0.024276536 -0.011825146 0.026245836 -0.019040357
-0.01406752 -0.041100822 0.0022983633 -0.031846818 0.040607806 0.04556472 -0.016385254 -0.033468824
-0.010742361 0.03181882 0.04833658 -0.043189935 0.03970171 -0.03897623 0.043556254 -0.04571588
5.517729e-05 -4.632941e-05 -1.0205936e-06 3.3480108e-05 -0.00027570594 -0.00015527225 -7.6320626e-05 -1.8441879e-05
-7.147302e-05 -3.9735074e-05 5.466372e-05 3.7961632e-05 0.00011584158 0.00018993148 -2.5211055e-05 -0.00021485424
2.5302097e-05 1.5030951e-05 0.00014152865 0.00028397932 5.2875588e-05 0.00012227082 0.00027398404 -0.0001974363
9.7265925e-05 0.00019042219 4.1353072e-05 1.4940199e-05 4.5193658e-05 -1.6864064e-05 0.00078411604 -9.604246e-06
-2.5299065e-05 3.3702676e-05 0.00021260299 7.755037e-05 0.00010242888 -3.5100536e-05 -0.0010244955 -0.00014779781
-0.00035655336 -1.8637496e-05 8.616005e-05 -3.0069456e-05 -0.0005959565 0.0007342488 -0.00019144817 0.000163347
0.059311677 0.017671494 0.024648907 -0.0058237994 -0.027173959 -0.00051709305 -0.026967634 0.038569447
-0.04626975 -0.01758686 -0.036854558 0.037667736 0.04460677 0.0028124396 0.016116623 -0.037980784
-0.020230277 0.030130789 -0.032439873 0.04845794 0.004354195 0.045196276 0.0031373631 0.00017347702
-0.0072195376 -0.014706316 0.0033936691 -0.0113511 -0.018761102 0.032705203 -0.036720045 0.004498454
0.012516979 -0.044792883 -0.014049901 0.010636488 0.00085469405 0.025575526 -0.050624914 -0.01563658
-0.042368308 0.034424078 0.021051945 0.038735524 -0.043574777 -0.05370121 0.046696708 -0.032375872

layers.0.self_attn.out_proj.weight f4 [48, 48]
00000000: 20c8 7f3d f4dd 053e 2378 12bd a207 f93d
00000010: 59a9 823d 24eb f43d 7afa cabd 89be 39bd
00000020: 3088 efbc f5f0 dfbc 300c f53d 2ec6 2fbd
00000030: 7ac1 bf3d 4277 96bc 8ef0 c03d 0989 19bc
00000040: b357 00be bf65 48bd b556 a1bd 5e3d a53d
00000050: 0fe1 f4bd 2f84 00bd 4c42 6d3d 6d21 b0bd
00000060: 327e bd3d bbf9 3bbe e9b9 afbd b956 15be
00000070: 1058 cdbc 5658 03bd 8f15 38bc 3ecd 0c3c
00000080: ccab ce3d 1d79 c93d 83c2 073d 8820 b9bd
00000090: b210 e5bd 0a7f 973d 8507 f8bd c80b 993d
000000a0: d3aa 6c3d 6205 943d 2e87 313e 0388 0a3e
000000b0: 1992 ad3c e2a4 b9bd 471a 2b3e 4d9b f6bd
000000c0: 2f03 6cbd 21f4 ef3d 5d66 093e 08d4 b03d
000000d0: fce9 783c 76dd dabd a2f1 b8bb c775 2d3e
000000e0: e7f8 d33c de7f 173b 21ac bebc ca71 80bc
000000f0: 9e66 a63d 6eb9 363d 31c3 f43d e831 40bd
00000100: b798 8c3d ad32 8a3d 2cef c13c cd84 c63d
00000110: 1db5 ba3d 33bc ed3d 1bf2 dd3d c47f 12bd
00000120: 111b c2bd 05ae 6d3c fe90 0b3d 59bf 05bd
00000130: 1d05 e0bc 379f e2b9 1cbe d03d 21b3 6a3d
00000140: fcec 47bd 4b07 82bd 62d0 12bd 5775 93bd
00000150: 5a3b 223e b8fa 993d bf88 d33d 2068 843c
00000160: 147c 133c cbc7 283d bd5e cfbd 45ad 123d
00000170: 6111 d1bc 7d57 b2bd 5e68 d3bd 195e e33d
00000180: d251 fb3d aa52 8b3d b1ca 0e3e df33 1cbc
00000190: 6c73 cfbc 15fa 693d d32a d1bc 09af 86bc
000001a0: 1708 eebd 8e0c c43c 070c 99bd f237 623c
000001b0: 830b 123e 3ba8 85bc 1bfb 08bd 1def 973d
000001c0: 07bb 89bd eed9 523a 30fe 0e3e bcd1 6fbd
000001d0: 62c7 e0bd 466f fabd 0e2e 2dbd d67f 8fbd
000001e0: c684 81bd c867 413d 57a2 3e3c 9674 9ebc
000001f0: 003c dfbd 232f 4dbd 3112 8dbd 17ed 04bd
00000200: 51ee 00be be4c cc3c 9379 dfbd 68c7 ebbd
00000210: d435 d2bd 67f3 553d d887 d8bd 1b6f 2abd
00000220: cb69 e53d 6f22 9c3d 05f6 a93d 8c48 02be
00000230: ce18 cdbd b585 32bd ab76 eb3d 84d3 943b
00000240: c4ca fabd 2e97 f6bb d22d f1bd 5533 02bd
00000250: 9a7b dabc 9762 f33d 2ae4 1c3d 24e0 e1bb
00000260: 61b7 1e3d fb7a 65bd b552 b33d fcee 733d
00000270: 2bf0 643d 11f9 4bbd 7837 ea3d 0c09 46bb
00000280: 4285 64bc c110 e73d 388c ff3d fcfe 1c3e
00000290: 31b8 b23c e326 abbd 9cb4 7d3d 4a62 f63d
000002a0: 28ac 08be cfa1 e2bc 061b f2bd c2a5 433d
000002b0: 232f a43d 9ee5 46bc 6c29 0cbd 9c0e 8d3d
000002c0: 8c1c e8ba 3558 0fbe d893 e83d 369d 0abe
000002d0: e54d 623c a142 2a3d d58b 4fbd f6e3 07be
000002e0: 80a8 e73c 8649 60bd 6bab 74bd a82c 043d
000002f0: 5659 b8bd 0ec7 76bd e6e6 f3bb d0f1 bdbd
00000300: edc8 37bd 6ae4 713b 0607 7f3c 9c8b e3bd
00000310: a971 45bd 70ef eabb 1460 af3b 7a9b b73d
00000320: 08f4 d2bd 7ec8 993c ef22 493d 7f11 893d
00000330: 64ab 06be fff1 d8bc a1f8 02be 7fda c4bd
00000340: 7eb3 883d f3ad abbc 8130 423d d4d6 c0bd
00000350: 272f a73c f4c1 c1bd d725 d73d f4c3 8ebd
00000360: b9d8 383b 2647 dfbd b82e a83c e396 053e
00000370: b5d7 903d 9492 babd de12 743c 1f9a 763b
00000380: 5128 06be 9d53 083e 18f6 afbc 2719 a53c
00000390: b8a3 9abd 9f24 bbbd 2f50 073d c679 883d
000003a0: fd49 cc3c f4e7 98bd b476 103e ee21 2739
000003b0: 579c c3bd de5b 91bd 184f e63d 8a84 6e3c
000003c0: 2230 35bd e698 22bd 19fc 03bd 83ff 65bd
000003d0: 399d eabd 9fdb ac3d 41a2 fd3d 5e33 143e
000003e0: 82f0 dabd 1882 8a3d 66ef 9fbd 1a58 b83d
000003f0: 35bd ae3d 8153 183e 4a8b 133e 0b23 2c3d
0.062446713 0.1307295 -0.035759103 0.12159659 0.06379957 0.11958912 -0.09911056 -0.045347724
-0.029239744 -0.027336577 0.11965215 -0.04291361 0.093630746 -0.018367413 0.09420882 -0.009371051
-0.12533455 -0.048925158 -0.07877866 0.080683455 -0.11956989 -0.03137606 0.057924554 -0.086001255
0.092525855 -0.18356983 -0.085803814 -0.14583863 -0.025066406 -0.032066666 -0.011235609 0.008593855
0.100913614 0.09837554 0.033144485 -0.09039408 -0.11184825 0.07397278 -0.12110809 0.0747295
0.0577801 0.07227589 0.17336723 0.13528447 0.021187829 -0.09064652 0.16709243 -0.1204134
-0.057620224 0.11716486 0.13417955 0.08634192 0.015192505 -0.106867716 -0.0056440393 0.1693946
0.025875522 0.0023116986 -0.023275437 -0.015679259 0.081250414 0.044610433 0.11951292 -0.046922594
0.068650655 0.06747947 0.023673616 0.096932985 0.09116576 0.11608162 0.108371936 -0.035766378
-0.09477819 0.0145068215 0.034073822 -0.032653186 -0.027346188 -0.00043224703 0.101925105 0.057299737
-0.04880999 -0.06349047 -0.03584326 -0.07200115 0.15842953 0.07518524 0.103288166 0.016162932
0.0090017505 0.041206162 -0.10125492 0.035809774 -0.025520982 -0.08708093 -0.10322641 0.11101932
0.12271465 0.06802876 0.13944508 -0.009533851 -0.025323592 0.057123262 -0.025533115 -0.016440885
-0.11622637 0.023931768 -0.07472997 0.013807284 0.14262204 -0.01631557 -0.033442598 0.07418654
-0.06725126 0.00080433383 0.13964152 -0.058549628 -0.10975529 -0.12228255 -0.04228025 -0.07006805
-0.06324153 0.047218114 0.0116353845 -0.019342702 -0.10900116 -0.05009378 -0.06888235 -0.03245267
-0.1259091 0.024938937 -0.1091186 -0.11512643 -0.10264173 0.05223408 -0.10572785 -0.041609865
0.11201819 0.07623755 0.082988776 -0.12722987 -0.10014497 -0.043584544 0.114972435 0.004541816
-0.12245706 -0.0075253462 -0.11776318 -0.031787235 -0.026670266 0.11884039 0.03830353 -0.0068931747
0.038749103 -0.056025486 0.087560095 0.059554085 0.055893105 -0.049798075 0.11436361 -0.0030217795
-0.013947787 0.112824924 0.124779165 0.15331644 0.021816345 -0.083570264 0.06193982 0.12030466
-0.13346922 -0.027665047 -0.118215606 0.0477655 0.08016803 -0.012139706 -0.03421919 0.06887552
-0.0017708703 -0.13998492 0.11356324 -0.13536534 0.013812517 0.04156745 -0.050670464 -0.13270554
0.02827859 -0.054757617 -0.05973379 0.03226915 -0.090014145 -0.060248427 -0.0074432967 -0.09274638
-0.044869352 0.0036909827 0.015565639 -0.11110613 -0.048204098 -0.0071696565 0.0053520296 0.08965202
-0.103004515 0.01877236 0.04910558 0.0669279 -0.13151318 -0.02648258 -0.12790157 -0.09611987
0.066748604 -0.020956969 0.04740954 -0.09415975 0.020408226 -0.09460822 0.10505264 -0.06970969
0.0028205349 -0.10902242 0.02053009 0.1304584 0.07072393 -0.09109989 0.014897076 0.0037628484
-0.13101317 0.13313146 -0.021479651 0.020153595 -0.07550758 -0.09137844 0.033035453 0.066638514
0.024937624 -0.074661165 0.14107782 0.00015939001 -0.09551304 -0.070976004 0.11245555 0.014557967
-0.044235356 -0.039696597 -0.03222284 -0.056151878 -0.11455769 0.08440327 0.12384463 0.1447272
-0.106904045 0.06763095 -0.078093335 0.09001179 0.08532182 0.14875604 0.14408603 0.042025607

layers.0.self_attn.out_proj.bias f4 [48]
00000000: c40d 823d 52c5 193d 5ea1 0d3d 606e 3a3d
00000010: ddd5 c1bc f9bb 113c c8a7 81bd 3151 32bd
00000020: c8c1 b4bc 5294 2f3d 294a 3f3c 17d2 9f3b
00000030: 6a98 c83c d32d dbbb dafc 3b3d 9ae5 0dbd
00000040: 02b5 04bd 912e 48bc c372 c83c 576c 823c
00000050: 7b98 9d3c c86c aebb dee9 533d 50a9 0fbd
00000060: 1238 bb3c 64c9 b1bc 8743 153d 26b9 24bd
00000070: 6699 0fbd a6ba 523d 0119 2fbd e078 ed3b
00000080: 3378 353c 757f 1b3d 5da7 28bd 612e 063c
00000090: 2b9f 163d d14f 66bd 7621 3dbc ff38 36bd
000000a0: 3039 5b3d 39b7 98bc b3bd 19bd 99e5 473c
000000b0: 369c 0b3d 3e67 b73c bfdd 663c 5a55 ea3c
0.06350282 0.037541695 0.03457772 0.045515418 -0.023661548 0.008894914 -0.0633083 -0.04353446
-0.022065058 0.04286606 0.011675396 0.0048773396 0.02448674 -0.0066888123 0.045895435 -0.034642793
-0.032399185 -0.012218134 0.024468785 0.015920801 0.019237747 -0.0053230263 0.051736705 -0.03507358
0.022853885 -0.021702476 0.036441352 -0.040215634 -0.0350584 0.051447533 -0.042748455 0.0072470754
0.011076021 0.03796335 -0.041175235 0.0081897685 0.03677289 -0.056228463 -0.011543622 -0.04448795
0.053521335 -0.018642055 -0.037534427 0.012200736 0.03408452 0.022388097 0.014090954 0.028605152

layers.0.norm1.weight f4 [48]
00000000: 542b 7c3f 1306 873f 7b4c 763f 8df2 833f
00000010: 6a31 813f 65c6 803f f0a0 863f 0c94 7b3f
00000020: 62b4 7d3f 880f 813f c23f 813f 058e 7e3f
00000030: eb1d 803f fc8b 7b3f b6ae 813f 9ff9 7a3f
00000040: 4b1f 7c3f 914d 873f 8bd0 7d3f fbca 7a3f
00000050: 5c76 6f3f 7d9a 783f 19b2 7a3f 9a17 803f
00000060: 7402 843f 2728 833f 00b7 823f 8106 8d3f
00000070: 9e88 7e3f a9c7 813f eb90 813f b2e6 803f
00000080: aace 7d3f 5f8b 803f 4302 803f dad2 793f
00000090: d771 833f bf47 813f 2e49 763f 1290 7d3f
000000a0: 6960 843f 85d2 7f3f e24b 833f b35a 843f
000000b0: d049 813f 9057 7e3f 074e 7f3f b840 803f
0.98503613 1.0548729 0.9621045 1.0308396 1.0093205 1.0060545 1.0517864 0.98272777
0.9910337 1.0082865 1.0097582 0.99435455 1.000913 0.98260474 1.0131443 0.9803714
0.9848525 1.0570546 0.99146336 0.97965974 0.9353998 0.9711073 0.97928005 1.0007203
1.0313249 1.0246629 1.0212097 1.101761 0.9942721 1.0139056 1.012235 1.0070403
0.9914347 1.0042533 1.000069 0.9758736 1.0269116 1.010002 0.96205413 0.9904796
1.0341922 0.999306 1.0257533 1.0340179 1.0100651 0.9935236 0.99728435 1.001975

layers.0.norm1.bias f4 [48]
00000000: 7ab1 bc3c 560e 0ebc 4755 493c 5a26 68ba
00000010: 74ce 893c 4800 733c 9c3c 63bb 8948 a0bc
00000020: 457a 9a3c 412b 783c 2abe 0b3d 1284 f93c
00000030: e0a3 ce3b 3e20 303b 652c 3f3a 28a9 3abc
00000040: 4868 613c df46 3d3c 6876 bdbc 6353 3dba
00000050: cc9a 3fbc 6c7e 30bd a3cd 4c3c 7657 c039
00000060: cca4 cb3b b976 9a3b 6c31 8cbc 4fa7 ba3a
00000070: 1fb1 ee3b 312c 9e3b 2f49 213b 911a 223c
00000080: 1c49 b6bc 4ff2 c73b 7468 423c ac01 87bc
00000090: b212 d2bc 981e 80ba 5f49 1e3c aae6 39bc
000000a0: 87e6 edbb b246 9bbc 64da 913c 4f94 1c3c
000000b0: e004 843c dc17 3ebc 14b9 a8bb 0186 80bc
0.023033846 -0.00867041 0.012288398 -0.00088558125 0.016822077 0.01483161 -0.0034673577 -0.019565837
0.01885713 0.015147031 0.0341169 0.030458484 0.0063061565 0.0026874687 0.0007292687 -0.011392869
0.013757773 0.0115525415 -0.02312775 -0.00072222034 -0.011694621 -0.043089315 0.0125001995 0.00036686257
0.0062147137 0.00471386 -0.01711341 0.0014240536 0.007284298 0.0048270454 0.0024610271 0.009894029
-0.022251658 0.0061018835 0.011865724 -0.01648029 -0.02564368 -0.0009774743 0.009661048 -0.0113464985
-0.007260147 -0.018954609 0.017804332 0.009556844 0.016115606 -0.011602368 -0.005149016 -0.015688898

layers.0.graph_attn.gat.att_src f4 [1, 4, 12]
00000000: 0c09 abbe 1b96 c83e 38bb 793d 3067 52bd
00000010: 2c7d 19bd e02c 0a3e a363 c43c 48ce 083f
00000020: f207 fd3e cfcd 1c3f 346a bf3e 01b4 093b
00000030: fec8 67be 3a28 63be 4a2f bb3e 0858 1dbd
00000040: 4e7f 0abf b186 9a3c c87e 15be 9885 ddbe
00000050: e75f edbe b2e3 5cbd ade2 603e 7a1d ae3e
00000060: f94b e4be 1fae 04bf e3a0 eabe 5d66 03bd
00000070: b231 5cbd 5a34 953e 58a3 03bf 0017 103f
00000080: 03f6 38be 7e95 0fbf 2a84 cebe 4c05 1e3e
00000090: ba01 93bd 819c e93e 2c9a 6d3b 984f ab3e
000000a0: a79b 013f b7c2 6ebe 7d4f 8e3c 2ad5 53bd
000000b0: 95e2 91be d772 17bf 2551 a7be 09e2 b93e
-0.3340534 0.3917702 0.06096956 -0.05136794 -0.03747289 0.13493681 0.023973292 0.5343976
0.49420124 0.6125154 0.37385714 0.0021011832 -0.22635266 -0.22183314 0.36559516 -0.03841403
-0.541005 0.018863054 -0.14599144 -0.43265986 -0.4636223 -0.053928085 0.2196147 0.34006864
-0.44589213 -0.5182819 -0.45825872 -0.032080043 -0.05375833 0.29141504 -0.5142112 0.56285095
-0.18062596 -0.5608748 -0.40335208 0.15431708 -0.07178064 0.45627216 0.0036255224 0.33459163
0.5062813 -0.23316465 0.017371887 -0.05171696 -0.2849318 -0.59159607 -0.32679096 0.36305264

layers.0.graph_attn.gat.att_dst f4 [1, 4, 12]
00000000: 0f65 efbd 38d2 09bf e022 263e 727e 643e
00000010: b30d e63d c9b5 fe3e 6bad f0be f562 77be
00000020: 0293 11bd a409 cebe 517a 523e c926 1ebe
00000030: 78a2 143f df9b 4abe 01b7 dfbe 876d f53e
00000040: 13d8 1b3f c607 e73e 97e0 f3be 0ac0 97be
00000050: 904f 953e 1b65 103f 3052 d53e e079 02bf
00000060: 35f8 52be 6542 11bd 5dd0 993e a220 d9be
00000070: f9f7 773e 85e5 12be 61a7 413e 9a0d c8bd
00000080: b5b3 173f e2d7 83bd 3beb 71be ae9f cbbd
00000090: 5d69 9dbe f3e7 febe ae1c c63e 942c c0be
000000a0: 83c9 86be ddb9 a2be 344a efba a3d5 b13e
000000b0: cb4e 26be 4a65 8b3b 1911 62be 1c95 f53e
-0.11689197 -0.53836393 0.16224241 0.2231386 0.11233082 0.49748066 -0.47007307 -0.24158843
-0.03554059 -0.4024173 0.20554473 -0.15444483 0.5806041 -0.19786023 -0.43694308 0.47935125
0.6087658 0.45123118 -0.47632286 -0.29638702 0.29162264 0.56404275 0.41664267 -0.50967216
-0.20602496 -0.03546371 0.3004178 -0.4240771 0.24215688 -0.14345367 0.18911506 -0.09768219
0.59258586 -0.06437661 -0.2362489 -0.09942566 -0.30744448 -0.49786338 0.38693756 -0.3753401
-0.26325616 -0.31782427 -0.0018256367 0.34733304 -0.16240995 0.004254018 -0.22076835 0.47965324

layers.0.graph_attn.gat.bias f4 [48]
00000000: 578f 1f3c e735 9fbc 55bd 0a3c 6e33 1e3b
00000010: 4f0d b73b afe9 813a 9527 e1bb 11a5 cbb9
00000020: b58f af3c df02 de3b 21b4 ad3c 6082 d73b
00000030: e220 b43c 330b 0f3b ad34 06bc 7d74 40bc
00000040: 5901 193c d032 2e3c c64c 1abc f35a 893b
00000050: cd27 83bb d7ad 8ebc 7176 e43b 38fa 89bb
00000060: 90bb 153c 331e d9bb 683a 1bbc f8c9 bf3a
00000070: 13a9 feb8 0a20 583b 759d 28b9 286b 043b
00000080: 2a02 84bb c1bc a83b f5f3 783c 8374 743a
00000090: b7a7 8cbb 3e63 d3bb 5de0 2fbc 2120 29bc
000000a0: 452f 47bc 9de9 e0ba 42b9 5c3a 66cb b63a
000000b0: 33c2 0a3c 16e9 b0bc f8a1 c1bb cda9 07bd
0.009738765 -0.019434882 0.008467992 0.0024139541 0.0055863033 0.0009911562 -0.0068711736 -0.0003884216
0.02143083 0.0067752446 0.021204056 0.006576821 0.021988336 0.0021826744 -0.00819127 -0.011746523
0.0093387 0.010632232 -0.009417718 0.00419175 -0.0040025474 -0.017416878 0.006972127 -0.0042107366
0.009138957 -0.0066259145 -0.009474374 0.0014632335 -0.00012143156 0.003297808 -0.00016080386 0.0020205472
-0.0040285783 0.0051494543 0.015194883 0.0009325223 -0.004292454 -0.0064510396 -0.010734645 -0.010322602
-0.012157266 -0.0017159466 0.00084199395 0.0013946116 0.008469152 -0.021595519 -0.0059092008 -0.03312092

layers.0.graph_attn.gat.lin.weight f4 [48, 48]
00000000: 20dc 79bd 3152 a03e 9620 763e 241c 893d
00000010: 2b95 44be cfa5 15bd 1b9c 2c3e 0114 1fbe
00000020: a26a debd 5f55 d63d fb27 8c3d 92a5 633e
00000030: ae18 123d c69a c9bb 00ad 823d c153 93bc
00000040: 130f 67be 7ae4 0cbe b200 56be f0cf 203e
00000050: 815c a23c dec1 ec3c 3116 143d 3b00 27be
00000060: 90cd ecbd 69a6 44bd a659 063e db3d 7abe
00000070: 210a 28be f977 223e c75d febd e42d 3c3e
00000080: 1063 743e a307 553e de6f 68be 995d c13c
00000090: f6ae 6ebe 732b e2bb b053 283d 8ad1 cdbd
000000a0: 3075 ba3d 9c8e aebd 11c7 0e3e da43 323c
000000b0: b320 313e eb79 193e 1b6a 843d 6dd0 913d
000000c0: ed96 aebd af28 01be 86d6 583e cd5e 2f3e
000000d0: 70e6 873d abc2 333e f755 923d bf98 043e
000000e0: 414f 36bd 8c02 763d a570 4cbe 2966 6fbe
000000f0: db52 ce3d 3ab2 09be 6946 453e 2f7d 64be
00000100: 2763 3abe 40bd 6ebe 9242 173e f4c9 15be
00000110: bbe2 83be 1909 af3d 641e 4ebc fc43 89be
00000120: 59f4 533e 0d73 2d3e 8da8 633e ea4d ab3d
00000130: 6c7a 3ebe ce40 cfbd e622 a2bd 8c07 4bbe
00000140: 2fae 303e 1b6c 08be 083c cf3d 5b75 15be
00000150: cc46 4f3e 4be6 ee3d 61dc 4c3e a0ea ce3d
00000160: c21a 853e 7fbf 923d 8b27 923d e421 e2bc
00000170: dbe0 743e 5bab 88be 412e 383e 9909 21bd
00000180: 3b7e 0dbd 2702 0dbe 2ec1 0fbe 32f6 843d
00000190: 7a2c dcbd b1c8 843d f53c 883d e21a 46be
000001a0: 4480 fe3d 4402 f8bd c154 d5bd c745 9ebd
000001b0: 18c9 bf3d 3d76 81be 60a3 3abe 810b 0a3e
000001c0: b977 a7bd 4d98 9fbd cb95 60be df20 4f3b
000001d0: f4ce 0d3e 359c a4bd 2744 513c e40f b83c
000001e0: df7d 13bd c321 513e 617a a43d ac03 873b
000001f0: a29b 02bc e25b 6cbc 9f2b f13d 8657 ae3c
00000200: 63bb 563d f3eb 453e 470d 213e 5f8e a1bd
00000210: a791 5dbe f9b2 b23d 2969 2abe 35c5 6ebe
00000220: 196b 283e b192 54be c25f 6a3e 2a50 74be
00000230: 80fd 6cbe 5213 0f3e b442 fb3c 51fc a9bd
00000240: c126 b63d 019a 2ebe 0136 0abe ffcf 4dbe
00000250: 6c3e 20be 8ae7 73be b057 423e d063 d5bd
00000260: dfeb a73d c650 febd aad4 80bd 2e6d 143e
00000270: e35e b23d 6613 043e e976 943d 0ece 4cbe
00000280: 2805 0f3e 87e4 703e b990 cf3d 1c60 5f3e
00000290: 3cd7 abbd 72a2 19be 02f7 81be 29d5 b9bc
000002a0: d0ef 2fbd 10cb 44be cf76 e6bd 8176 a7bd
000002b0: 9b85 7b3e 2bf0 67bd 1ae8 473e 6114 38bc
000002c0: 6709 cf3d 565b 323e d12f 71be aa1f d8bd
000002d0: 4887 71be 6cac 693e e98e 943d fa5e aebd
000002e0: db7d 1dbe 4dd2 233e 5f96 243d 1c9d 23be
000002f0: b9a5 15be f706 b6bd cf89 483d 7bda 77be
00000300: a832 1abd 1ff0 2a3e 1680 003e 273a b53c
00000310: 5347 e83c 9bd0 993d e4a3 fa3d 7380 573e
00000320: 1eed 653d 59b4 e43d 5537 1e3e 4291 44be
00000330: 0076 b7bd bcbf f13d f9e0 5e3d 88d0 f9bd
00000340: 6567 9b3d e53c 5ebe 7dcd 9bbd bfc4 a63d
00000350: b477 2e3c bf1c 27be b6c7 bc3d 8409 2cba
00000360: c3f4 bebc 5459 89be c5ad b2bd efa7 3bbd
00000370: bc38 06be dfd1 963d bf73 3cbe e4e4 443e
00000380: 8095 503e d44e 213e 0a30 2fbd b242 6ebe
00000390: 4bc7 03be b8ea 43bc bfd8 53be c1e4 543e
000003a0: 8210 ba3d 9d6b 263e d6df 76be 2e96 11be
000003b0: 87b2 853d cb61 a5bc 32ea 20be 1c9c 353e
000003c0: 958b ed3d 2fda b43b e5da 7c3e 10c8 8cbe
000003d0: f9e9 77be 2f8d c73d 67ab 403e 6bf5 023e
000003e0: 7ec7 3bbe 4941 533e 749d 3a3e 17e6 673d
000003f0: 1d71 213e 744c 643d a237 613d 0aad 91bd
-0.061000943 0.31312707 0.24035868 0.066948205 -0.19197528 -0.03653508 0.16856425 -0.15534975
-0.10860182 0.10465502 0.06843563 0.22231129 0.035668068 -0.0061524836 0.063806534 -0.017984273
-0.22564344 -0.13759032 -0.20898703 0.15704322 0.0198195 0.028901037 0.036153976 -0.16308682
-0.115626454 -0.048010264 0.13120136 -0.24437658 -0.16410114 0.15866078 -0.1242023 0.18376881
0.23865914 0.20803694 -0.22698924 0.023604201 -0.2330893 -0.006902152 0.041095436 -0.10049732
0.09104383 -0.08523294 0.13943125 0.010880435 0.1729763 0.14987914 0.064655505 0.07119832
-0.085248806 -0.12613176 0.21175584 0.17126007 0.06635749 0.17554729 0.07145303 0.12948893
-0.044509176 0.060061023 -0.19964845 -0.23378815 0.10074397 -0.13446894 0.1926514 -0.22313379
-0.18201886 -0.2331438 0.14771488 -0.1462782 -0.2575892 0.08546657 -0.012580488 -0.2680968
0.2069868 0.1693842 0.22232266 0.0836447 -0.18601388 -0.101197824 -0.079168126 -0.19827098
0.17253946 -0.13322489 0.10118872 -0.14595549 0.2024185 0.11665019 0.20005943 0.10103345
0.25996977 0.07165431 0.071364485 -0.027604051 0.239139 -0.26693234 0.17986394 -0.039315794
-0.03454421 -0.13770352 -0.14038536 0.064922705 -0.10750671 0.06483591 0.06652252 -0.19346192
0.124268085 -0.12109807 -0.10416556 -0.07728153 0.093645275 -0.2528552 -0.18226385 0.13480951
-0.08177132 -0.07792721 -0.21932141 0.0031605286 0.13848478 -0.080376066 0.012772596 0.022468515
-0.036008712 0.20423035 0.080311544 0.004120311 -0.007971676 -0.014426203 0.11775898 0.021281969
0.0524248 0.19328289 0.15727721 -0.07888483 -0.21637593 0.087255426 -0.16641678 -0.23317416
0.16447105 -0.20759083 0.22888091 -0.23858705 -0.23143578 0.13972214 0.030671455 -0.08300079
0.088941105 -0.17050935 -0.13497163 -0.20098875 -0.15648812 -0.23818794 0.18978763 -0.10419428
0.08199286 -0.1241775 -0.062905625 0.14494774 0.087095045 0.12898025 0.07249243 -0.20000479
0.1396681 0.23524676 0.101350255 0.21814007 -0.08390662 -0.15003374 -0.25383765 -0.02268465
-0.042953312 -0.19218087 -0.1125313 -0.081769 0.24562685 -0.056625526 0.19522133 -0.011235327
0.10109215 0.17417654 -0.23553397 -0.105529144 -0.23586762 0.2281968 0.072538204 -0.08514209
-0.15380041 0.15998192 0.040182468 -0.15977901 -0.14614 -0.08888047 0.04895955 -0.24204437
-0.037645966 0.16693161 0.12548861 0.022122456 0.028354323 0.075104915 0.12238291 0.21045093
0.056134336 0.11167211 0.15450795 -0.19196036 -0.089580536 0.118041486 0.05441377 -0.12197977
0.0758808 -0.21702917 -0.07607553 0.08142995 0.010648657 -0.1631956 0.09217779 -0.0006562697
-0.02331007 -0.26825964 -0.0872455 -0.04581445 -0.1310758 0.073642485 -0.18403529 0.1922794
0.2036953 0.15752727 -0.042770423 -0.2326763 -0.12868993 -0.011957817 -0.20688151 0.20790388
0.0908518 0.16251989 -0.24108824 -0.14217445 0.06528192 -0.020188233 -0.15714338 0.17735332
0.11598889 0.0055191736 0.24692877 -0.27496386 -0.24210347 0.097437255 0.18815385 0.12788932
-0.18337819 0.20630373 0.18224126 0.056615915 0.15765806 0.055736974 0.054984696 -0.07113083

layers.0.norm2.weight f4 [48]
00000000: d496 833f 1da8 803f ae30 7f3f 6ed4 843f
00000010: 9b8d 803f 25aa 893f 38d0 863f 1c7a 823f
00000020: 4ff6 833f 45b0 873f bdc2 813f b038 823f
00000030: 4580 853f 897f 833f c1a9 833f e114 833f
00000040: 6d92 823f 9ae6 863f e11f 833f e9da 823f
00000050: acd4 7b3f 948a 7f3f 91f7 7c3f 9e0c 7f3f
00000060: 854a 803f 78c6 833f 4bde 823f 26e3 863f
00000070: 9ded 813f ca60 823f a0ff 813f fb37 823f
00000080: fb06 823f 4161 823f 1775 833f 7df5 823f
00000090: 4234 873f 9410 803f fe9b 843f 22f9 833f
000000a0: 47f2 863f 64cd 823f 5170 863f 2f03 873f
000000b0: 9c27 803f d93a 823f c214 823f 1d3c 853f
1.0280404 1.0051304 0.99683654 1.0377328 1.0043215 1.0755049 1.0532293 1.0193515
1.0309542 1.0600668 1.0137554 1.017355 1.042977 1.0273296 1.028618 1.0240747
1.0200936 1.0539124 1.0244104 1.0223056 0.98371387 0.9982083 0.98815256 0.9962863
1.0022742 1.0294943 1.0224088 1.053807 1.0150639 1.0185788 1.0156136 1.0173334
1.015838 1.018593 1.0270108 1.0231167 1.0562823 1.0005059 1.0360105 1.0310404
1.0542687 1.021893 1.0503026 1.0547847 1.0012088 1.0174209 1.0162585 1.040897

layers.0.norm2.bias f4 [48]
00000000: c39a aabb 0053 f0bb 2797 1ebc 3f63 9c39
00000010: 5ccb 973c 32c6 5b39 0270 2bbc 0d20 dc3b
00000020: da10 6f3b 8f2e 3c3c 189f a3bb 640c da3a
00000030: 1f1e ebbb d45c dd3b 8110 27bb c5b1 303c
00000040: d060 acbb 294e c7bb f4cf 283c 1f67 22bc
00000050: a39c 323c 8405 53bb 0ccf 573c 162e bbbb
00000060: 6522 193c ea54 0a3c 790a 18bb 1758 da3b
00000070: 8b60 26bc 4fe5 963b 3584 db3a 3a9b 38bb
00000080: 41b7 fdbb 04ea 3abb 289b d03a 6a34 3a3c
00000090: 8be9 b03b b6bb ccba c3d7 e9bb 0f50 bc3b
000000a0: 4ea5 5dbc cae3 063c 23a9 113c 3de2 52bc
000000b0: cc2d 3ebb f82d c2bc 23fe c2bb 6790 9bbc
-0.0052064373 -0.007334113 -0.009679592 0.00029828583 0.018529586 0.00020959301 -0.010463716 0.006717688
0.003647855 0.01148571 -0.0049933307 0.0016635773 -0.0071752216 0.0067554507 -0.0025492015 0.010784571
-0.0052605644 -0.0060823155 0.010303486 -0.009912281 0.010901603 -0.0032199332 0.013171922 -0.005712281
0.009346579 0.008443097 -0.0023199602 0.006663333 -0.010154854 0.0046049724 0.0016747775 -0.0028168694
-0.007742793 -0.0028520832 0.0015915381 0.011365036 0.0053989342 -0.0015619907 -0.0071363165 0.0057468484
-0.013528181 0.00823302 0.008890423 -0.012871322 -0.0029018996 -0.02370356 -0.0059507056 -0.018989755

layers.0.ffn.0.weight f4 [192, 49]
00000000: 4d54 5c3d a052 ba3d 2e49 13bd 0c41 95bc
00000010: 87b0 5abd f4f2 42be 7ba5 683d 61db 1fbe
00000020: 3843 a03d c453 e23d d271 95bd c65c 823d
00000030: c4a5 d9bc 0629 1e3d d248 4a3e 64f4 0dbe
00000040: 57aa e23d 46ee f1bc de2d 863d 745f 7a3d
00000050: 9e50 f1bb e9fa 24be c7c4 8e3d 4fad 00be
00000060: 72d9 c0bd 5dda c43d 579a 89bc ba10 babd
00000070: aabc 933b 9e5e f13d bc14 89bd 78bd afbc
00000080: acae 5b3d f0d7 aebd 6a24 e63d 81a0 f43d
00000090: 1dd2 073d b085 2abe 5417 d0bd d556 3abe
000000a0: 035e 0fbe 93e3 95bd 2869 83bd 43ea d2bd
000000b0: 5d4e 043c e990 12be 4844 09be f4be a4bd
000000c0: 7dd9 14be 4a59 d53c 94c3 4f3d f8d3 a63c
000000d0: 4df4 ab3d 4755 dd3d 4c49 263e 1344 263e
000000e0: 035f e2bd e7de b73c b24f 2fbd d9c3 c1bd
000000f0: 0550 323e fe2c 01be 5863 d8bd d87a 74be
00000100: dd8a d5bd 7d18 063e b1bd 38bd 2ad9 b43d
00000110: 2ff6 dd3c 1094 1f3e 809b aebd e227 0bbe
00000120: b38e 653e 3785 cf3d 54df a8bd 5bc7 f73d
00000130: c6fb e4bd 2f70 4a3c a695 573c 8dff a83d
00000140: 9951 893d a251 4bbb 30d0 e33d f2ae 9abd
00000150: 059f b03c aa0c 893d c622 d03c 5fc2 d1bd
00000160: 3255 c23d c949 2cba c0fa 32be e2bb 213d
00000170: ed5e 933d eecd 14be b2e0 993c 8364 30bd
00000180: d740 f8bc dabd 043b 26ad cdbd e879 33bd
00000190: d821 d9bb 8f48 c93d 521a dabd e537 23bd
000001a0: 3a30 783e 3bc4 b23c db3a bebd 070a 80bd
000001b0: 6d57 653d 2513 ae3d 7d6d cdbc 7e8f 1bbe
000001c0: 5757 3cbd f102 6dbc eeb4 953d 1e2a 093e
000001d0: fb1f a5bd caae 38bd 2605 df3d d1b4 bebc
000001e0: 700f 003d aa47 103c b1bc de3d 11b8 cfbd
000001f0: e0e6 0abe e9e6 cfbd 7b64 933d a34a a0bc
00000200: 5b3d 953d 35f4 a73d 72a1 c93c 052a 053e
00000210: dcc1 093e fb34 51be 05ea 8d3d cf38 fcbd
00000220: 09b4 743d d51c 823a 6677 f7bd d492 a8bd
00000230: a2d7 353e e23f a6bd 8eea c6bd bbcb 9d3d
00000240: 08a5 2c3d 7a91 ec3c 8cd4 f1bd dda5 22bd
00000250: e61f dbbd d062 6c3d 69a6 ed3c 1c22 a0bd
00000260: 0547 89bd 6343 ca3d 98e3 05bc 70f5 e83c
00000270: 1de4 b8bd 2e3f d8bd d8be ea3d 92d5 173e
00000280: 25a5 db3d ae58 06be db4d 9dbd 1cc8 c3bd
00000290: 5ade 0e3e 96e7 c63d 9653 2abd 06fe 94ba
000002a0: f925 c33d 38dd f53d 0cdf 3ebd 5267 0fbc
000002b0: 2bfa 01be bac2 15be 1734 babc 606c f9bc
000002c0: 2688 8b3d 9865 fe3d a4d4 ebbc ac4a 603d
000002d0: c56f 143b 8102 d13d 9112 1fbe b8e5 1abd
000002e0: 80b7 37bd 7419 b73d d91e 603d b425 363d
000002f0: a2af 463d a4c6 81bd 68e2 cdbd 3200 a8bd
00000300: f697 0abd 707e 9cbd 3649 e23c 90c8 c03d
00000310: 7df6 c33d 66ae 723d 1846 c23d 32c6 0a3b
00000320: 84f2 d4bc 93a8 93bd 8e21 333e 5292 283b
00000330: 10fc 68bc abd0 d5bd 81df cfbd 9fe5 443d
00000340: 7ec2 b73c 01dc df3d 9b5e 32bd 5c79 233e
00000350: 4a09 763c da1d 103e 7667 0cbe be49 303c
00000360: 892a 0a3e fc28 c33c c4bd b5bd 26de fe3d
00000370: 701d afbd 5137 793c 49fa e1bd 9daf 1b3e
00000380: 5371 2f3d 18eb 5c3c c0fa e23b e228 92bc
00000390: 230a 05be b659 f93d cd7b 143e 3249 0abe
000003a0: 8587 d6bd 055c be3d 65b1 ebbd 38f0 063d
000003b0: fafe 91bd f68d 60bd 8f21 173e 6c76 a6bc
000003c0: 5fd4 313d 5c73 dbbd ecfe e33d 2461 2dbe
000003d0: 7415 09be e953 07be e3e5 07be 2492 6bbc
000003e0: 03ed e3bd fd46 153d 3f55 4cbd 5dab 153d
000003f0: f58a 00bc 863d ba3d 0324 f3bc 3b27 bcbd
0.053791333 0.09097791 -0.03595846 -0.018219493 -0.053391006 -0.19037992 0.05679844 -0.1561103
0.07825321 0.11051133 -0.072971 0.063653514 -0.026568301 0.03861334 0.19754341 -0.13862759
0.11067646 -0.029532563 0.06551717 0.061126187 -0.0073643466 -0.1611134 0.06971126 -0.12566112
-0.094164744 0.09611962 -0.016797228 -0.090852216 0.0045085745 0.11785625 -0.06693408 -0.02145265
0.053633377 -0.085372806 0.11237414 0.11944676 0.033159364 -0.1665256 -0.101606995 -0.18197186
-0.14000706 -0.07318797 -0.06416541 -0.10298588 0.008075324 -0.14313091 -0.13404953 -0.08044234
-0.1453609 0.026043553 0.050723627 0.020364746 0.08396206 0.10807281 0.16238898 0.16236906
-0.11053278 0.022445155 -0.042800613 -0.09461183 0.17413338 -0.1261482 -0.10565823 -0.23874986
-0.10426877 0.13095279 -0.04510278 0.08830483 0.027094929 0.15583825 -0.08525753 -0.13589433
0.22417717 0.101328306 -0.082457215 0.12098571 -0.111808345 0.012355848 0.013158238 0.082518674
0.06705017 -0.0031023999 0.11123693 -0.075528994 0.021560201 0.066918686 0.025407206 -0.102421515
0.09488906 -0.0006572274 -0.17478466 0.03948582 0.0719584 -0.14531681 0.0187839 -0.043064605
-0.030304356 0.0020254762 -0.10042791 -0.04381743 -0.006626349 0.098282926 -0.106495515 -0.039848227
0.24237147 0.021822086 -0.092885695 -0.062519126 0.05599158 0.08499745 -0.025076622 -0.15191457
-0.04598173 -0.014466033 0.073099 0.13394973 -0.080627404 -0.045088567 0.10889654 -0.02327958
0.031264722 0.008806149 0.10875834 -0.1014253 -0.13564634 -0.101514645 0.071968995 -0.01956684
0.07287093 0.08200876 0.024613116 0.1300431 0.13452858 -0.20430367 0.06929401 -0.12315523
0.059742007 0.0009926806 -0.1208332 -0.0823113 0.17758039 -0.081176534 -0.097127065 0.07704874
0.042149574 0.028877962 -0.11808118 -0.03970896 -0.106994435 0.057711422 0.029010015 -0.07819006
-0.06702999 0.09876134 -0.008171938 0.028437346 -0.09027884 -0.105589256 0.11462182 0.14827564
0.10724858 -0.13119766 -0.076808654 -0.09559652 0.13952008 0.0971214 -0.04158362 -0.0011367209
0.09528727 0.12005085 -0.046599433 -0.008752661 -0.12693088 -0.14625064 -0.022729916 -0.030447185
0.06813078 0.12421721 -0.028787918 0.054758713 0.0022649628 0.10205556 -0.15534426 -0.037816733
-0.044852734 0.08940402 0.05471692 0.04446955 0.04850734 -0.06336716 -0.10052949 -0.08203162
-0.033836327 -0.076413035 0.0276228 0.09413254 0.09568498 0.05924835 0.094860256 0.0021175263
-0.025994547 -0.07209887 0.17493269 0.002572198 -0.014220253 -0.10440191 -0.10150052 0.048070546
0.022431608 0.10930634 -0.043547254 0.15964264 0.015016863 0.14073887 -0.13711342 0.010759769
0.13492788 0.023823254 -0.088740855 0.12444715 -0.08550537 0.015210942 -0.11034066 0.1520371
0.042832684 0.013483785 0.0069268644 -0.01784176 -0.12992148 0.12175314 0.14500351 -0.13504484
-0.10475067 0.09294895 -0.11508445 0.032943934 -0.07128711 -0.054822885 0.14758895 -0.02032014
0.043415423 -0.107153624 0.11132607 -0.16931587 -0.1338709 -0.13215603 -0.13271289 -0.014378104
-0.11129191 0.036444653 -0.049885985 0.036540378 -0.00784563 0.09093766 -0.029680258 -0.0918717

layers.0.ffn.0.bias f4 [192]
00000000: bf55 a3bd 8162 37be 9223 843b a9cf 3bbd
00000010: e13a f6bd dfa6 0b3d 6f8b 803d 1f72 e03b
00000020: e22e 0fbe 4f4f 66bd 7424 1abe d41d 5bbd
00000030: c857 8c3d 0f66 493d 5ec7 15be 0c4e e8bc
00000040: 0aa9 9abd 9521 a83d 18b2 073e 45d7 0abe
00000050: 2eba abbd 8f07 093d 1d10 0dbe 2076 22be
00000060: dce9 babd 925f bc3d b79a ed3c c8db ddbd
00000070: b7f2 14bd e890 bf3d 89cc 19be 3a8c 333d
00000080: 5796 b1bd 8523 1bbe 6b14 ca3d b3d0 f6bd
00000090: 6ca6 e03d 4ba6 843a 685d 313d c808 f3bc
000000a0: c680 15be aed0 153d 4ff6 91bd 1101 3f3d
000000b0: b302 073e f664 29bd 846e b3bc 9894 203d
000000c0: 2373 86bd 6d03 713d 5da7 0bbe d257 723d
000000d0: 97e0 a2bd 2e39 8fbc 97bc 79bd 7b47 34bc
000000e0: 5692 c53d bfbc 3439 793e 83bd 5e26 913d
000000f0: 2971 e33d 31a4 95bd 748b 0dbe 4b7e 15be
00000100: 947a acbb 51b2 183e ddcf 623c 31d2 d93c
00000110: 4a61 17be e7fc e23c 8ef2 003d 7519 c0bd
00000120: 01c4 08be 4809 55bc 965a 0dbe 7f95 093e
00000130: 30a2 e6bd b150 d53d b008 10be 1ee0 963d
00000140: 593c c0bd c9b8 11be 5da6 b03c e584 b73d
00000150: c45a bebd 69df b0bc bb91 0bbe 4110 eb3d
00000160: 6653 f63d 7268 06bd a49b 0b3e 0a60 8a3d
00000170: 9a5e da3b 9876 f0bd 269d 9b3d 5e1b 4cbd
00000180: 6792 c0bd 7151 22be 20ba 4cbe e393 e13d
00000190: 671d c7bd b52c babd deda 8c3d 287c 5abd
000001a0: e474 17be f3b6 01bc 0411 6bbd 9db6 103d
000001b0: 5e81 0c3e c2e7 4cbd 9dcc 633d c69d 33bd
000001c0: 23e8 93bd 3730 7b3d d4f6 3dbd 2f37 a43c
000001d0: 0e96 213d 45f6 11be 8b87 40bd c291 cc3d
000001e0: c27d afbc f3b1 cd3d 435c f73d 5779 8fbd
000001f0: 3e39 a6bd d93a 1e3d cd24 04bd 46af f9bc
00000200: 0a2c b6bc eea6 afbd d1fe a03d b331 a6bd
00000210: 0a3b 19be a790 11be 1dfd 03be 48d8 e33a
00000220: 8c28 15be 742a a13d bc7a ecbd d25a afbc
00000230: c052 81bd 37e7 abbd 7d1c b13d 05a3 a9bd
00000240: 5cca 073c 9b4d 963d 96ec 2e3d 80a3 5c3d
00000250: b79c 75bc 8ccd d0bd 2339 57bd d2dc ee3d
00000260: efbb 2abe ce4f 8dbd 06dc ac3d f950 1cbd
00000270: a71e 12be 8ff5 f33d 59c9 66bd 8803 053d
00000280: abf8 0d3d 8900 c6bd 4cbe 09be 5b2b 11bd
00000290: 3b0d 0abe d5ec debd 050d 11be a557 183d
000002a0: 122f fbbd 2394 f93c 54ed c83d cd62 653d
000002b0: 8593 5a3d 12c5 07bd 17c0 7f3d d2ed 263e
000002c0: 94dd 793c e1c4 413d 3018 5d3d 313e 093c
000002d0: b730 bf3d 5773 da3c ac56 c5bd 1468 e9bd
000002e0: cf4f b1b9 7014 1fbe 757c 1fbe 6b83 dd3d
000002f0: f9f8 7e3d 943a 86bd 2822 873d 3c1d d93b
-0.07975339 -0.1790867 0.0040325606 -0.045852337 -0.12022949 0.034094688 0.06276595 0.006849542
-0.13982728 -0.05622798 -0.15052968 -0.053495243 0.068526804 0.049169596 -0.14626834 -0.028357528
-0.07551773 0.0820953 0.13251531 -0.13558681 -0.0838512 0.033454474 -0.13775678 -0.15865374
-0.091266364 0.09197916 0.029004438 -0.108329356 -0.036364283 0.093538105 -0.1501943 0.043834902
-0.08671253 -0.15150268 0.09867176 -0.12051525 0.109692425 0.001012036 0.04330197 -0.029667273
-0.14599904 0.036575966 -0.07127058 0.046631876 0.13184623 -0.04135605 -0.021903284 0.03920421
-0.06564929 0.058841158 -0.13638063 0.059165783 -0.07952993 -0.01748332 -0.06097087 -0.01100337
0.09647052 0.00017236451 -0.064084 0.07087396 0.11105568 -0.07306708 -0.13822728 -0.14598958
-0.005263636 0.14911772 0.013843504 0.026589485 -0.14783207 0.027708484 0.03148132 -0.093798555
-0.1335602 -0.013002701 -0.13804087 0.13435934 -0.112614036 0.10415781 -0.14065814 0.07366966
-0.093865104 -0.14230646 0.021563703 0.089608945 -0.09294656 -0.021590905 -0.1362981 0.114777096
0.12027626 -0.03281445 0.13633591 0.06756599 0.0066641094 -0.1174137 0.07598333 -0.049830787
-0.09402924 -0.1585138 -0.19992876 0.11014535 -0.09722405 -0.090905584 0.06877683 -0.05334106
-0.14790684 -0.007917154 -0.057389274 0.035330404 0.13721225 -0.05002571 0.055615056 -0.043851636
-0.07222011 0.061325278 -0.04637797 0.020045845 0.039449744 -0.142541 -0.047004264 0.099887386
-0.02142227 0.10043707 0.120781444 -0.070055656 -0.08116387 0.03863034 -0.03226166 -0.030479085
-0.022237796 -0.08576761 0.07861102 -0.08114948 -0.14963928 -0.14215337 -0.12889524 0.0017383182
-0.14566249 0.078694254 -0.11546847 -0.021405611 -0.063146114 -0.0839371 0.08648012 -0.08283047
0.008287992 0.07339021 0.042706095 0.053866863 -0.014990977 -0.10195455 -0.052544724 0.11663212
-0.16673253 -0.06899987 0.08440404 -0.03816316 -0.14269505 0.11912071 -0.056344364 0.03247407
0.034660976 -0.09668071 -0.13451499 -0.035441738 -0.1348161 -0.10885016 -0.14165123 0.03719296
-0.12264837 0.030466145 0.09810892 0.056002427 0.05336334 -0.033146925 0.06243905 0.16301659
0.015250582 0.0473069 0.053978145 0.008376644 0.093354635 0.026666326 -0.09635672 -0.113968045
-0.00033819533 -0.1553514 -0.1557482 0.108160816 0.062249158 -0.06554142 0.06598312 0.0066257995
