Checkpoints/expr3d_forward_horizon/best_model.pth (torch, 526562 bytes, 76 tensors)

embedding.weight f4 [48, 16]
000000 bd e4 37 3e bb 6a 3e 3e e8 a2 8d bd 00 d4 59 3e
       0.1795835 0.18595402 -0.069158375 0.21272278
000010 51 60 97 bd 4c aa 86 3c 35 df 0f be 7e cc 05 3e
       -0.07391418 0.016438626 -0.1404999 0.13066289
000020 48 d4 65 3e b3 16 68 be cb ce 2b 3e c7 c2 94 3c
       0.2244426 -0.22664909 0.16778104 0.018159283
000030 d0 53 21 3e 15 61 af 3c 51 97 09 3e 60 14 56 bd
       0.15754628 0.021408597 0.13436629 -0.052265525
000040 e6 c4 59 3e d2 ba 66 3d 50 91 bd bd 44 76 a7 3d
       0.21266517 0.05633051 -0.09256232 0.08176854
000050 30 2e c1 bd e9 69 5a bc be ba 9e bd e3 02 42 3e
       -0.09432638 -0.013330915 -0.07750462 0.18946414
000060 9d d1 2f be db 80 e1 bd 10 7f 79 bd 01 de 06 be
       -0.17169805 -0.11010905 -0.060912192 -0.13170625
000070 37 3e 12 3d 43 c9 69 be df 82 7e 3e e1 25 6c be
       0.035703864 -0.22830682 0.24854611 -0.23061325
000080 6e 99 28 3e 0e 86 b1 3c 3d 92 ce bd ae 41 0f 3e
       0.16464779 0.021670368 -0.100864865 0.13989899
000090 79 56 b4 3c 14 bb 36 3e ff 79 c8 3b 3f cc bc bd
       0.02201389 0.17844802 0.0061180587 -0.09218644
0000a0 fe 09 80 3d 23 48 e8 bd 04 b3 88 3d 5c 6c 40 3e
       0.06251906 -0.11341884 0.066747695 0.18791336
0000b0 c2 4b ed 3d 7d 28 00 be 97 7d 1b 3e 8d 1e 1a 3d
       0.11586715 -0.12515445 0.15184627 0.03762679
0000c0 78 27 0f 3e b7 7f 16 be 49 db 6d be be 91 bd bd
       0.139799 -0.14697157 -0.23228182 -0.09256314
0000d0 e0 13 40 be 7b 06 55 3e 8c 9b ad 3d 9a dd e6 3d
       -0.18757582 0.20803253 0.08476934 0.11272736
0000e0 c6 b9 b4 3d 59 13 e3 ba f2 11 4e 3e 0c da 2d be
       0.08824496 -0.0017324492 0.20124033 -0.1697771
0000f0 49 99 52 3c 8c 39 2a be 22 1d ba 3d e0 65 be bd
       0.012853929 -0.16623515 0.09087588 -0.09296775
000100 3c 3e b0 3d ef 2a 68 bd bc f5 53 3e c5 db 1e be
       0.0860562 -0.05668157 0.20699209 -0.15513523
000110 36 a0 22 be 5c 1c 1f be 1b 4d 66 3e 62 c2 a4 3d
       -0.15881428 -0.15538162 0.22490351 0.08044888
000120 54 f3 7a 3e 4a 07 42 be b9 1c 72 be 08 3e 38 be
       0.24506885 -0.18948093 -0.2364377 -0.17992413
000130 6e 45 2c be 23 ff dd 3d 04 d6 ac 3d d1 84 69 3e
       -0.1682336 0.10839679 0.08439258 0.22804572
000140 c0 64 17 be a7 2b 2b be e4 a7 05 3e 17 8b c0 bd
       -0.14784527 -0.16715871 0.13052326 -0.09401529
000150 34 d5 2d 3e 34 60 53 bd 82 07 10 3e 96 d1 41 be
       0.16975862 -0.05160542 0.14065364 -0.18927607
000160 cd 70 eb bd 5b 78 bb 3d ca 84 51 3d fd 9b 76 bd
       -0.114961244 0.09153815 0.05115203 -0.060207356
000170 3d 5f 2e 3e 93 ed 3a 3e e1 ad 44 be 3f 7d 18 be
       0.17028518 0.1825469 -0.19206955 -0.14891528
000180 0f d1 66 3e 5c ef a3 bd 20 17 c1 bd cc ac 71 be
       0.22540687 -0.080046386 -0.09428239 -0.23601073
000190 c4 23 10 be e8 eb 8f 3d a9 97 1a bd 3d 23 39 be
       -0.14076144 0.070274174 -0.03774229 -0.18079849
0001a0 a3 1c 50 3a 5a 5d 28 be d1 d3 52 be fe 10 10 be
       0.00079388375 -0.16441861 -0.20588614 -0.14068982
0001b0 83 6d 58 be 8c fa 21 be 08 3c 73 3e 3a 06 5c 3d
       -0.21135525 -0.15818232 0.23753369 0.053716876
0001c0 ce 3f cf 3d 4b fb 52 be b2 de 0e be 81 30 6d bd
       0.10119592 -0.20603673 -0.13952139 -0.057907585
0001d0 e0 8b 8e 3d 36 a0 35 be b9 c0 ab bd 30 3a 02 be
       0.06960273 -0.17736897 -0.08386368 -0.1271751
0001e0 b7 bc 2c 3b 16 d5 7a bc 62 3f 64 3d e6 36 f6 bd
       0.00263576 -0.015309593 0.05572451 -0.1202219
0001f0 84 e9 fc bd 9d 9d ee bd 7f 6d b9 bd 45 82 5e be
       -0.12349227 -0.11651156 -0.09054088 -0.21729381
000200 6a 54 3c 3e c1 9a 98 bd e4 c7 41 3e d3 5c 59 3d
       0.18391576 -0.07451392 0.18923908 0.05306704
000210 1a 38 77 be a7 0a 15 3e 26 1f c8 bd 32 cb 02 be
       -0.24142495 0.14554845 -0.09771566 -0.12772825
000220 d9 0d 77 be dc 26 84 be a0 78 5a 3d 65 28 a0 bd
       -0.24126376 -0.25810897 0.053337693 -0.07820205
000230 57 2f 9f 3d 90 0b 6a be cf a1 1f 3e 99 6c 37 be
       0.07772701 -0.22855973 0.15589069 -0.1791252
000240 bb 76 80 bd 06 9c 15 3d dd ee f5 3d 6d c7 3a 3e
       -0.06272646 0.03652575 0.1200845 0.18240137
000250 ce 4d 63 3e e9 94 59 be 00 03 62 3d 3a 1f f6 bd
       0.22197649 -0.21248211 0.055178642 -0.12017675
000260 b1 90 39 bd a7 4d 55 be d2 2a 58 3e 06 b6 44 be
       -0.045304004 -0.20830403 0.21110085 -0.19210061
000270 38 08 ee 3d 00 ef 90 3d 13 0d 96 3d 68 8a 0b be
       0.11622661 0.07076836 0.073267125 -0.13627017
000280 39 24 65 3e 07 d5 57 3d aa 4a f8 3c 86 b7 69 be
       0.22377099 0.052693393 0.03030904 -0.22823915
000290 8d 45 d5 3d 71 06 37 bd 06 e6 ed bd 53 89 59 3e
       0.104136564 -0.044683877 -0.11616139 0.21243791
0002a0 ae be 5b 3d 5a ab 2d be 8f 93 1a be a0 e6 bd bc
       0.053648643 -0.16959897 -0.15095352 -0.02318126
0002b0 5a c7 fb 3d 46 d8 9f bd ae 8c 1b be 4e 97 c5 bd
       0.12293883 -0.07804923 -0.15190384 -0.09648
0002c0 4b 14 5b be 83 06 ab 3d a9 9b 32 3e 61 a3 73 be
       -0.2139446 0.083508514 0.17442192 -0.23792793
0002d0 5a b3 76 3d c3 eb f8 3d f4 80 08 3d db a2 b4 bd
       0.060229637 0.12154343 0.033326104 -0.08820125
0002e0 f8 25 0e 3e a0 6e d3 3d bc 00 7d 3d 73 f0 8f bd
       0.13881671 0.103238344 0.06176828 -0.07028284
0002f0 dc 1d 9d bd 91 b8 a8 3c 71 07 40 bd 45 36 90 bd
       -0.07671711 0.02059582 -0.046882097 -0.07041601
000300 5f 52 19 3e 98 bd 4d 3e ff 4e d0 bc ac d7 87 bd
       0.14972828 0.20091856 -0.025428293 -0.06632933
000310 fe 42 0b bc 1f 9a 1e bd 2f fe 52 3d 2b ee 75 3d
       -0.008499859 -0.0387212 0.05151194 0.060041588
000320 f7 13 82 be 99 0c 06 be 40 27 35 3e 62 84 94 3d
       -0.25405857 -0.13090743 0.17690754 0.072518125
000330 5e 60 3a bd 5a 89 30 be 9a ec 14 be c1 c3 74 be
       -0.04550206 -0.17239895 -0.14543381 -0.23902799
000340 d3 05 84 bd c2 00 5a 3d cc 5f 1e 3e a7 55 ca 3d
       -0.064464234 0.05322338 0.15466231 0.09879618
000350 5d 3c 8e be 57 3a 40 be 60 6a 21 bd bc 98 68 3e
       -0.2778043 -0.18772255 -0.039408088 0.22714514
000360 78 56 ad 3c dd ef b2 bd 0f dc c3 3d 61 45 a1 bd
       0.021159396 -0.087371565 0.09563457 -0.07874561
000370 ab 6b 2c be 94 a7 31 3e 34 0e 26 be a9 de 24 bd
       -0.16837947 0.17349082 -0.16216356 -0.040251408
000380 b0 99 7b be 91 0e 2b 3e 65 e2 48 3e 45 b5 b8 3d
       -0.24570346 0.16704775 0.19617613 0.090189494
000390 7f 6a 33 be 3e 35 7d be dc bb 47 be 44 77 45 3e
       -0.17521094 -0.24727342 -0.19505256 0.19283777
0003a0 50 6f fc 3d 44 fc 5a 3e 6f 7f 10 3e 46 a0 96 3d
       0.12325919 0.21385294 0.14111112 0.073547885
0003b0 5b 45 f7 ba a3 22 40 be b3 66 5e be af c3 74 be
       -0.0018865274 -0.18763213 -0.21718864 -0.23902772
0003c0 a2 62 db 3d 56 a1 f3 bd 77 5e 5b bd ee bf 10 be
       0.10712172 -0.11896007 -0.053556886 -0.14135715
0003d0 ba a9 4e bd e0 eb 23 be a6 6c 25 be a6 24 ad 3d
       -0.050454833 -0.16007948 -0.16154727 0.08454256
0003e0 ac 67 be bd 3b 31 38 3e e0 ac 34 bd 57 6f 2c be
       -0.092971176 0.1798753 -0.04411018 -0.16839348
0003f0 4d 89 fe bc 13 df fa bd 0d b6 d8 bd b4 de 5c be
       -0.03107133 -0.12249579 -0.105815984 -0.2156933

embedding.bias f4 [48]
000000 bf ed ca bd e8 b3 92 3e 79 dd 00 3e 1c 0a 17 3e
       -0.09908628 0.28652883 0.12584485 0.1474995
000010 6a be 14 be 23 f1 f7 bd 10 ce c7 bd 61 ef db bd
       -0.14525762 -0.1210654 -0.097561 -0.10739017
000020 45 71 45 be b4 72 9f 3d 29 29 89 3d e5 8c 89 ba
       -0.1928149 0.0778555 0.06697304 -0.001049426
000030 b9 24 52 3d 65 71 9d bd a4 e8 e3 3d 0e 62 84 3d
       0.051304553 -0.07687644 0.11128357 0.06464015
000040 a3 0b 1e be ce 56 8f be 89 ab 12 3e 81 17 9d 3d
       -0.15434127 -0.27995914 0.14323248 0.07670499
000050 44 5b 12 be 1a 18 78 3e 3f 4a a2 bd f8 4b 11 3e
       -0.14292628 0.24227944 -0.079243176 0.14189136
000060 47 c1 1d 3e 25 4d 69 be 8f 5d 4b 3e c5 1e 87 be
       0.1540576 -0.22783335 0.19859909 -0.26390663
000070 fa 73 31 be 07 62 2a 3c 7a ad 4f be 08 23 88 3e
       -0.17329398 0.010399348 -0.2028102 0.26589227
000080 83 35 72 bd ba c3 02 3e 85 76 83 be d9 ce 24 3e
       -0.059133064 0.12769976 -0.2567636 0.16094531
000090 d0 68 5b bd 13 9e 7a be 8b bc 8c 3d 11 b9 a9 3d
       -0.053566754 -0.24474363 0.06871899 0.08287252
0000a0 80 38 87 3e 09 34 3c be d4 8f 1b be 6c 3e b8 3d
       0.26410294 -0.18379225 -0.15191585 0.08996281
0000b0 f1 88 dd 3d be 7e ea 3d db 1e 2c 3e 6c a4 7a bc
       0.10817135 0.114499554 0.16808645 -0.01529799

layers.0.self_attn.in_proj_weight f4 [144, 48]
000000 4e 7f 0a 3e 1a 96 c9 39 9d 1c 25 3e d1 17 0a 3e
       0.13525125 0.00038449542 0.16124196 0.13485648
000010 e6 75 1f 3e 21 93 3a be 2c d7 ad bb 94 c1 81 bd
       0.15572318 -0.18220188 -0.0053051915 -0.0633575
000020 6c 60 92 3d 3e a0 f8 bd d8 a2 be 3d 04 83 63 bb
       0.07147297 -0.12139939 0.09308404 -0.0034715543
000030 60 3e 82 bd 14 49 06 be cd 56 00 3e 54 fd 78 bd
       -0.06359553 -0.13113815 0.12533112 -0.060788468
000040 2e b7 10 3e bb d3 20 bc 60 c6 4f 3d 8f 9c c3 bc
       0.14132378 -0.0098161055 0.050726295 -0.023878364
000050 c1 ce b3 bc 19 86 89 bd 86 2b 12 be 2c f1 d8 3d
       -0.021949174 -0.0671503 -0.14274415 0.10592875
000060 cc 12 c2 bd 2a 2f a4 3d fc 7b 5f bd 8e ea ec 3c
       -0.094762415 0.08016808 -0.0545616 0.028920438
000070 47 50 1c 3e 51 6b 0a be b9 3f 0d 3e 0b fb 6c 3d
       0.15264998 -0.135175 0.1379384 0.0578566
000080 db 8c 55 be ea 2e 80 3d 3a 42 ba 3d f1 86 1d 3e
       -0.20854513 0.06258948 0.09094663 0.15383507
000090 6a c1 7f be 4c 3e 18 3e 46 9a 19 3e 28 ec 2c 3e
       -0.24976125 0.14867514 0.15000257 0.16886961
0000a0 fe 05 cd 3d bd e4 0d be 38 24 0e 3e 8c 6a 35 3e
       0.100109085 -0.13856788 0.13881004 0.17716426
0000b0 65 95 03 bd ce 88 27 bd 2e 25 3a 3e ca 35 3c 3e
       -0.032124896 -0.04090195 0.18178245 0.18379894
0000c0 ad 74 d1 3d 21 3e 8a 3d a4 2c e9 bd d5 fb d7 bc
       0.10227332 0.067501314 -0.11385468 -0.0263652
0000d0 5e d6 4e bd 23 bd bd 3d 26 99 86 3d 80 7a ee bd
       -0.050497405 0.092645906 0.065721795 -0.11644459
0000e0 c7 e5 90 bd f9 36 2a be f0 79 52 be 9c 73 13 3e
       -0.070750766 -0.16622533 -0.20554328 0.1439957
0000f0 f9 0b 00 be ce 5b 19 3d b6 d3 9e bd 00 c4 b9 bc
       -0.12504567 0.037441067 -0.077552244 -0.022676468
000100 e4 bc 9e bc 8d 48 28 3e 9b 11 20 bc d3 ba 03 3e
       -0.01937718 0.16433926 -0.0097698225 0.12864237
000110 00 c8 f0 3d 5b 67 0e 3e 55 7a 33 be 18 b6 88 bd
       0.11756897 0.13906614 -0.17527135 -0.066753566
000120 5d 85 08 be be 98 07 3d 61 35 92 bc aa ea 0c 3e
       -0.13332124 0.03310465 -0.017847719 0.13761392
000130 73 e8 1f 3e 21 99 b4 3d 51 ff f9 bd 6f 97 31 be
       0.15616016 0.088182695 -0.12206901 -0.17342924
000140 11 8d 66 3e 3a 79 0a 3c e9 c7 40 3d 65 6e 9d bd
       0.2251475 0.008451754 0.04706565 -0.07687072
000150 7a d9 c0 3d db 96 98 3d 6e f2 18 be 0e 9f 08 3e
       0.0941648 0.074506484 -0.1493623 0.13341925
000160 56 2d 89 3d bf 8f 0e bd fc 2a 9c bd 53 a3 8b bd
       0.066981 -0.034805056 -0.07625386 -0.06818261
000170 a4 8f ec bc 6e 49 3d bd 55 66 ea 3d bf 84 57 be
       -0.028877087 -0.046212606 0.114452995 -0.21046732
000180 ca 1e b3 bd 79 19 55 bd 0f 22 86 3d d1 ca 66 3b
       -0.08746107 -0.052026246 0.06549465 0.0035216103
000190 1a c2 8f bc 59 75 d5 3d 50 87 26 be 38 4a 2e 3d
       -0.01754861 0.10422773 -0.16262555 0.04255125
0001a0 20 be b8 bd 21 ef ea bc f9 dd 18 be 1b ad 1e be
       -0.090206385 -0.028678479 -0.14928426 -0.15495722
0001b0 bb 80 17 be 9c 3e c4 3d 0d 54 b4 bd 0c e9 9b 3d
       -0.147952 0.09582254 -0.08805094 0.076128095
0001c0 81 7d b7 bd c3 dc 3d 3c 05 d0 33 3c d4 99 1a 3e
       -0.08959485 0.011588278 0.010974889 0.15097743
0001d0 48 16 89 bd f5 10 be 3d 09 d5 54 3d 8a eb d5 3d
       -0.06693703 0.09280578 0.05196098 0.10445316
0001e0 8f 34 9a 3d 31 aa d3 bc 5f 7e 83 bd 01 7f da bd
       0.07529556 -0.02583799 -0.06420588 -0.10668755
0001f0 30 e3 a6 3c 8d 11 cb 3d e9 7a 83 bc 2f 72 f7 3d
       0.020372003 0.09915457 -0.016049819 0.12082326
000200 de fa 49 be 91 92 08 3e 41 aa 92 b9 13 29 05 be
       -0.19724604 0.1333716 -0.0002797414 -0.1300395
000210 53 a8 ba bd 37 50 1d be 6c 54 62 3d 02 6a f3 bd
       -0.091141365 -0.15362631 0.055256292 -0.11885454
000220 66 fb 37 3d ec 8e 5f bd 6b f7 bd bd e8 0b 76 3c
       0.044917487 -0.05457966 -0.09275707 0.015017487
000230 45 a0 9a ba 62 1f 93 3d ab fb 4d 3e 38 f3 ed bd
       -0.0011797032 0.0718372 0.20115535 -0.11618656
000240 9a 80 dd 3d 83 79 64 bd 2e 5d c7 bd c9 94 da bd
       0.108155444 -0.055779945 -0.097345695 -0.1067291
000250 a2 72 a0 3d eb 1b 8d 3b 1c a7 2b bc 24 38 c8 bd
       0.078343645 0.0043063066 -0.010476854 -0.09776333
000260 e9 37 69 3d 31 7e ef 3c 48 f9 30 be 7a 61 8c bd
       0.056938086 0.029234977 -0.17282593 -0.0685453
000270 a4 24 9f bd 44 32 8a bd f9 e7 07 be 4d d1 23 be
       -0.077706605 -0.06747869 -0.13272084 -0.1599781
000280 47 1f 2d 3e f1 b5 eb bd 25 56 21 3e 38 ff 0c be
       0.16906463 -0.11509312 0.15755518 -0.13769233
000290 a4 23 86 bd b8 11 a1 bd 91 af bb bd cc 34 80 3d
       -0.06549767 -0.07864708 -0.09164346 0.0626007
0002a0 7e 93 79 3d 7f c9 db bd ee 52 aa bd da fb 22 3e
       0.060931675 -0.10731792 -0.08316599 0.15916386
0002b0 a3 a2 62 bd 57 56 94 3d e1 37 e1 3d 7d 12 c9 bd
       -0.055330884 0.072430305 0.10996986 -0.098179795
0002c0 c0 49 ba bd 62 36 49 3d ea 2e 0f bd 50 36 fd bd
       -0.09096098 0.04912413 -0.03495685 -0.12363875
0002d0 87 3d b7 3c 95 e3 b2 bd 4b 7f 2f 3e 3b c2 e4 3c
       0.022368206 -0.08734814 0.17138402 0.027924648
0002e0 42 1e f7 3d 44 1f bb 3d 39 d1 a8 bd 72 40 fc 3d
       0.12066318 0.09136823 -0.08243031 0.123169795
0002f0 44 e0 49 bd ce 82 f3 bc af 0d 0a 3e 5c a6 07 be
       -0.049286142 -0.029725458 0.13481782 -0.13247055
000300 53 c2 9a 3c 7a 97 7f be 5c 61 72 3d fe 2b 84 3d
       0.01889149 -0.24960127 0.05917488 0.06453703
000310 b7 2c d4 bd 69 ed bc 3d e6 dd 3b 3d 48 53 87 bd
       -0.10360091 0.0922497 0.045865916 -0.066076815
000320 2d c3 c6 3d 9f 26 4d 3d 93 2d 4c 3c bd d3 d5 bd
       0.097051956 0.05008566 0.012462038 -0.104407765
000330 fe be 1c be 36 99 ea bd 61 07 42 3c 82 b2 7b 3d
       -0.15307233 -0.11455004 0.01184258 0.061449535
000340 7b fc 04 be 15 0a 56 3e 17 53 f3 3d f9 c2 bf bd
       -0.12986939 0.20902283 0.118810825 -0.0936336
000350 2c 46 e5 3d 43 5a 6a bd 2e b3 25 3d 5d bc 28 3e
       0.11195025 -0.057214987 0.040454082 0.16478105
000360 ef 8e 2b be ce a2 79 bb 4f 2d 0d 3c 74 29 1f 3e
       -0.16753744 -0.0038091424 0.008616759 0.15543157
000370 d7 6a 30 be 08 cd de bd 83 ad 4c bc 38 df e2 bd
       -0.17228256 -0.1087895 -0.01249254 -0.11077732
000380 de c6 e8 3d 8b b9 07 bc a6 9d 10 3d b2 89 fa 3c
       0.11366056 -0.008283983 0.035306595 0.030583236
000390 c2 19 36 3e bf 04 b5 3c 4c 4f af 3c 8e 67 11 3e
       0.17783263 0.02209699 0.021400116 0.14199659
0003a0 4f 6f c7 bd af 85 cc 3c a6 65 ad 3d 29 47 23 be
       -0.09738027 0.024966089 0.084666535 -0.15945114
0003b0 0c 09 5d 3d 49 47 d7 3d a0 61 fd bc b7 b7 0b be
       0.053963706 0.105116434 -0.03093034 -0.136443
0003c0 30 ae b5 bb fb 2b 6a be f1 61 3f be 01 b3 1b 3e
       -0.0055444464 -0.2286834 -0.18689705 0.15205003
0003d0 f5 ec fa bd da 74 1f be 92 d7 3b bd 46 87 f7 3c
       -0.12252227 -0.15571919 -0.04585988 0.03021587
0003e0 38 40 d9 3b ee 2d d9 bd 38 c7 86 bd 54 f4 8c bd
       0.00662997 -0.106044635 -0.06580967 -0.068825394
0003f0 de a2 ce 3d d8 70 14 3e dc 87 cf 3c 63 d9 97 3b
       0.10089658 0.14496171 0.025333337 0.004634069

layers.0.self_attn.in_proj_bias f4 [144]
000000 cb 72 d3 3c ef 7d d3 bc 2c 88 95 3c f4 32 04 bd
       0.025811573 -0.025816886 0.018253408 -0.032275155
000010 09 2e 0b bd c5 4a 05 bd 4b 16 08 3d cb 03 d2 3c
       -0.03397945 -0.03254201 0.033224385 0.025636574
000020 47 8a f2 bc d5 2e 32 bd 37 41 88 bc 91 24 da 3b
       -0.029606951 -0.043501694 -0.01663266 0.006657191
000030 45 c0 bf bc f0 16 94 bc 06 70 0a 3d fa 20 e1 3c
       -0.023407111 -0.018077344 0.03379824 0.027481545
000040 2a 4f 7b 3d 61 8d 95 39 68 74 d1 bb 0c bc 99 3d
       0.061354794 0.0002852483 -0.0063920505 0.0750657
000050 ce 4e dc b9 7c 18 76 3d 58 0c 53 bc 2c 85 58 bd
       -0.00042020384 0.060081944 -0.012881361 -0.052861378
000060 e0 59 7d bc 3d e6 16 3b ec 01 03 bc 3b b1 6a bb
       -0.015463322 0.0023025416 -0.007996064 -0.0035811204
000070 5f 57 ce bc dd a1 19 bc 67 cc d8 3c ae 54 95 bc
       -0.025188146 -0.00937697 0.026464654 -0.018228855
000080 33 46 80 bc e3 0e 39 bd d1 6b 4e 39 98 4c 00 bd
       -0.015658474 -0.045180213 0.00019685856 -0.031323045
000090 55 d0 2e 3d 2f 19 2d 3d f0 a0 b9 bc a4 ff 18 bd
       0.04267915 0.042260345 -0.022659749 -0.037353173
0000a0 4a 31 98 bc 57 05 0c 3d 57 47 41 3d 0e 91 2f bd
       -0.01857819 0.03418478 0.047187176 -0.042862944
0000b0 93 19 1f 3d e5 ba 20 bd 0b e2 32 3d ad 9d 38 bd
       0.03884275 -0.039240737 0.043672603 -0.045072246
0000c0 5d 9a 5e b6 57 e4 a0 39 d9 76 78 b9 00 83 44 b8
       -3.317043e-06 0.00030687705 -0.00023695397 -4.6852045e-05
0000d0 56 db 42 38 56 5c 1a 39 a2 1e 03 b8 01 dc 8b b9
       4.6457477e-05 0.00014720982 -3.1261363e-05 -0.00026676062
0000e0 d3 63 17 39 5f bd 4e b8 2f 49 b5 b7 3c 82 50 37
       0.0001443767 -4.9290593e-05 -2.161096e-05 1.2428089e-05
0000f0 9b 45 87 36 c3 33 06 38 fc 2a 30 38 29 18 11 b8
       4.0314167e-06 3.1996296e-05 4.2001702e-05 -3.4593195e-05
000100 b0 74 69 b7 68 e6 d7 b6 db 64 02 b8 f3 af b7 39
       -1.3915051e-05 -6.434322e-06 -3.1088344e-05 0.00035035572
000110 3a 1b 66 38 e4 c8 08 39 d5 36 ef b7 db 0b 87 38
       5.486163e-05 0.00013044808 -2.8516553e-05 6.43951e-05
000120 08 e3 81 38 49 50 7a 38 ba f4 2b b9 f9 bc e3 b9
       6.193487e-05 5.9679416e-05 -0.00016398999 -0.0004343761
000130 37 59 91 b8 f6 6e b0 b8 05 59 2f 39 85 74 12 3a
       -6.930756e-05 -8.413002e-05 0.00016722463 0.0005586821
000140 c6 f6 66 38 28 97 16 39 f3 bb fb b6 86 84 35 38
       5.50661e-05 0.00014361425 -7.502263e-06 4.3277185e-05
000150 aa 9b 1d ba 58 d2 48 39 f0 3d 43 38 e2 36 1f 3a
       -0.00060122705 0.00019151845 4.6549307e-05 0.0006073547
000160 92 2a 07 b9 ab 2d 10 ba 09 3e f5 b8 08 1e 8c 36
       -0.00012890462 -0.0005499969 -0.00011694065 4.1758212e-06
000170 e1 0c a6 b9 52 12 51 b9 7b 62 27 39 dd 2c 0c b9
       -0.00031671583 -0.00019938618 0.00015963048 -0.00013368153
000180 30 fa 64 3d c8 6c a6 3c 86 70 bb 3c f9 6d b6 bb
       0.05590266 0.020315543 0.022880804 -0.005567309
000190 31 cb da bc ba 66 95 b9 62 cb dc bc 5b a3 10 3d
       -0.026708217 -0.00028496032 -0.02695245 0.035312038
0001a0 93 f0 2d bd 04 8d 94 bc 67 c4 13 bd 4f 00 14 3d
       -0.042465758 -0.018133648 -0.036075976 0.036133107
0001b0 cc 9f 35 3d aa ba 81 3a 4c 64 56 3c 03 b2 11 bd
       0.044341847 0.0009897549 0.013085436 -0.035570156
0001c0 31 30 af bc c5 f1 e7 3c 0e a4 e8 bc a4 3f 39 3d
       -0.021385284 0.028313527 -0.02839854 0.045226708
0001d0 97 9e 7d 3a c1 fa 33 3d ec 35 33 3b d8 e7 22 bb
       0.0009674816 0.04394031 0.0027345372 -0.0024857428
0001e0 0e 8b c1 bb 90 1d 82 bc 05 dc 86 3b 84 62 2e bc
       -0.005906469 -0.015883237 0.004115584 -0.010643605
0001f0 52 c0 6e bc 11 8b fc 3c 17 2f 0e bd 97 e7 ae 3b
       -0.01457222 0.03082803 -0.034712877 0.0053376663
000200 03 a5 4e 3c 4f cc 2c bd d8 76 7b bc 40 a9 1e 3c
       0.012612584 -0.04218703 -0.015348159 0.009683907
000210 54 95 e4 ba 87 15 bd 3c 88 87 46 bd a7 87 7c bc
       -0.0017439523 0.023081554 -0.048469096 -0.015413201
000220 09 d4 1e bd 02 37 06 3d f8 fa b5 3c 5f 50 1d 3d
       -0.03877643 0.032767303 0.022214398 0.038406726
000230 dc 3d 2c bd 13 f6 4d bd 2d e4 2d 3d 44 39 f9 bc
       -0.04205118 -0.050283503 0.042453934 -0.030422814

layers.0.self_attn.out_proj.weight f4 [48, 48]
000000 6d 30 82 3d 67 8c 06 3e d1 40 0b bd 65 fb f5 3d
       0.06356893 0.13139497 -0.03399736 0.1201084
000010 33 5a 7a 3d 13 83 f6 3d 1e 37 c8 bd 37 a9 32 bd
       0.061121177 0.12036719 -0.09776138 -0.043618407
000020 f6 e2 00 bd 9a 37 d1 bc 53 56 f1 3d b1 e5 32 bd
       -0.031466447 -0.025539208 0.11784043 -0.043676082
000030 73 43 bb 3d ce 8a 8a bc 08 b1 c0 3d 35 c8 20 bc
       0.09143724 -0.01691189 0.09408766 -0.009813358
000040 17 cc 00 be 59 b8 51 bd bb 45 a5 bd 00 56 a6 3d
       -0.12577854 -0.0512012 -0.08069941 0.08121872
000050 f9 2d f1 bd 4d 62 09 bd 92 7a 5a 3d a0 92 b7 bd
       -0.11776347 -0.033541013 0.05333955 -0.089635134
000060 e8 45 c0 3d 1e 24 3d be 8f 7a bb bd af fc 0b be
       0.093883336 -0.18470809 -0.091542356 -0.1367061
000070 d4 fc e3 bc ad ac 0b bd 90 58 12 bc eb f5 0a 3c
       -0.027830519 -0.034100223 -0.008932248 0.008481483
000080 c6 60 cc 3d 3f 76 ce 3d 79 1e f9 3c 98 42 ba bd
       0.099793956 0.100811474 0.030410038 -0.09094733
000090 8c a6 ed bd 3b ca 94 3d 33 48 f2 bd 37 bb aa 3d
       -0.11604032 0.07265135 -0.11830177 0.0833649
0000a0 dd 1a 81 3d f4 82 8f 3d 5a 3c 34 3e 8d a1 0f 3e
       0.06303952 0.07007399 0.17601147 0.1402647
0000b0 64 66 61 3c 9d 84 c2 bd 46 c3 25 3e 63 1b ef bd
       0.013757322 -0.0949795 0.16187772 -0.116751455
0000c0 8b 65 6c bd a9 bc fc 3d 33 78 0a 3e 0d bb a6 3d
       -0.057714026 0.123406716 0.13522415 0.08141146
0000d0 07 ee 4e 3c 99 a6 db bd 82 9e be bb 15 2a 30 3e
       0.012629992 -0.10725135 -0.0058172354 0.17203553
0000e0 84 8a c9 3c c8 57 47 3b f0 f6 c4 bc e7 f7 80 bc
       0.024602182 0.0030417312 -0.02404353 -0.015743209
0000f0 5e 2b a5 3d 0e 28 36 3d 5b 31 f2 3d 4a de 43 bd
       0.08064912 0.044471793 0.1182582 -0.047819413
000100 24 5d 8f 3d d6 34 87 3d f6 0c b7 3c bc 88 c9 3d
       0.07000187 0.066018745 0.022345047 0.09840533
000110 b3 72 bb 3d 87 fc f5 3d 1a e2 e2 3d 99 e0 1a bd
       0.091527365 0.120110564 0.11078282 -0.03781185
000120 50 65 bb bd 1f 67 4c 3c f9 be 02 3d 8e 64 ab bc
       -0.09150183 0.012475758 0.031920407 -0.020921972
000130 bd 39 ed bc 88 62 5a ba 61 e9 d1 3d 73 73 6a 3d
       -0.028958196 -0.00083307223 0.102495916 0.057239007
000140 5f f9 44 bd 03 20 7f bd 83 3d 20 bd 38 34 9c bd
       -0.04808938 -0.062286388 -0.039121162 -0.076271474
000150 4e e4 22 3e fd 22 9a 3d b4 59 d5 3d 22 2a aa 3c
       0.15907404 0.07526205 0.104175 0.020772044
000160 6b 44 31 3c 1e 52 25 3d c8 fb cb bd a6 74 1c 3d
       0.010819535 0.040361516 -0.09960133 0.038197182
000170 1e a5 14 bd d2 53 b9 bd 4f 6d d5 bd 72 dc e4 3d
       -0.03629028 -0.090491906 -0.104212396 0.11174859
000180 bc 99 f9 3d b8 8b 91 3d ae 20 0f 3e bb 80 8d bc
       0.12187526 0.07106727 0.1397731 -0.017273298
000190 35 a3 f1 bc 1f e8 67 3d cc a6 d9 bc 18 65 81 bc
       -0.029496768 0.056617852 -0.026568793 -0.015795276
0001a0 27 fc ed bd e6 48 d1 3c ac 54 9b bd 9e d1 5c 3c
       -0.1162036 0.025547456 -0.07584509 0.013477711
0001b0 98 d3 12 3e 8f cc 92 bc 89 48 11 bd 51 69 96 3d
       0.14338529 -0.017919807 -0.035469566 0.07344306
0001c0 06 f4 8a bd 2b 5a 96 3a b2 f0 10 3e b6 34 66 bd
       -0.06784825 0.0011470964 0.14154318 -0.056202613
0001d0 ec e2 e0 bd 4b d5 ee bd 09 bc 25 bd 0b 35 94 bd
       -0.10980782 -0.11661776 -0.040462527 -0.0723668
0001e0 eb f4 83 bd f9 54 3f 3d e0 3e 83 3c 47 ae ba bc
       -0.06443199 0.046711896 0.016021192 -0.02278818
0001f0 b2 26 de bd 1d f8 47 bd b7 bd 8d bd 84 b2 f1 bc
       -0.10847224 -0.048820604 -0.06920951 -0.029504068
000200 81 3b 00 be f3 0b bf 3c 8a e8 e2 bd 44 95 e6 bd
       -0.12522699 0.023321128 -0.110795096 -0.11258939
000210 ef 38 db bd d2 61 5e 3d dc b3 da bd 71 49 21 bd
       -0.107042186 0.054292507 -0.10678837 -0.03937668
000220 7f 94 e2 3d c7 56 9f 3d eb c5 b1 3d 7d 56 02 be
       0.1106348 0.07780223 0.08680328 -0.12728305
000230 51 a0 d1 bd 59 03 3c bd 00 b4 f0 3d 05 6b 8e 3b
       -0.10235656 -0.04590163 0.11753082 0.004346254
000240 11 b2 f5 bd 8b 06 f6 3a 80 f2 f1 bd 19 07 14 bd
       -0.11996854 0.001877026 -0.11813831 -0.03613958
000250 cb 2c c5 bc c3 5d ef 3d 29 bd 1e 3d 17 e4 21 bc
       -0.02406921 0.116878055 0.038754616 -0.009881041
000260 4a e2 1b 3d 7e 77 69 bd 05 35 ae 3d 04 5c 82 3d
       0.038057603 -0.056998722 0.085062064 0.06365207
000270 40 b4 63 3d b2 92 4b bd 46 8a e9 3d 67 60 b3 bb
       0.05559182 -0.049700446 0.11403327 -0.0054741385
000280 20 7c 9d bc 99 8c e0 3d 0f d5 02 3e d2 83 18 3e
       -0.019224226 0.10964317 0.12776588 0.14894035
000290 8d 71 b7 3c fa de 9d bd 04 9f 94 3d c0 85 ff 3d
       0.022393012 -0.07708545 0.07256892 0.12476683
0002a0 9b c9 f0 bd 8e 3a ef bc 70 0f e8 bd 84 84 22 3d
       -0.11757203 -0.029202726 -0.113310695 0.039677158
0002b0 04 34 a8 3d e1 b8 4c bc 5f 7a 0a bd ba 18 92 3d
       0.08213046 -0.01249525 -0.03380811 0.071336225
0002c0 54 e6 a5 ba b6 25 0e be 52 4f e4 3d d3 8b fe bd
       -0.0012657144 -0.13881573 0.11147942 -0.12429013
0002d0 a0 40 33 3c 1f 26 0b 3d ca 46 43 bd 67 2d 0c be
       0.010940701 0.033971902 -0.04767493 -0.13689195
0002e0 09 20 05 3d 0b 2d 65 bd a6 73 86 bd 7d 06 ca 3c
       0.032501254 -0.05595116 -0.06565027 0.024661297
0002f0 5f 4a b3 bd 40 04 64 bd 10 de 2c bc c1 2d b9 bd
       -0.087544195 -0.055668116 -0.010550991 -0.0904193
000300 4c 8c 50 bd 6b 52 a1 3c f0 2d 51 3c 79 2b f0 bd
       -0.050915048 0.01969262 0.0127673 -0.11727042
000310 56 22 51 bd 7f 50 0c bc 50 78 9d 3b 88 30 a8 3d
       -0.051058136 -0.008564114 0.004805602 0.082123816
000320 3b f3 cf bd 30 ca b5 3c 79 58 67 3d e5 a6 7c 3d
       -0.101538144 0.022191137 0.05648086 0.0616826
000330 d5 9a 08 be f3 61 f1 bc dd 7f 01 be 01 a2 c5 bd
       -0.13340314 -0.029465651 -0.12646432 -0.096500404
000340 7a bf 8c 3d bf 59 ca bc 71 27 45 3d 84 83 bc bd
       0.06872459 -0.024700997 0.048133317 -0.09204772
000350 81 73 bb 3c 94 ac ac bd bd 18 ec 3d 29 00 87 bd
       0.022882225 -0.08431354 0.11528156 -0.065918274
000360 a0 88 d7 3b b1 42 ef bd 80 d6 f6 3c bd b2 e1 3d
       0.0065775663 -0.11682642 0.030131578 0.1102042
000370 50 95 8c 3d 7b a1 b9 bd df f5 7e 3c 8c 72 7b bb
       0.068644166 -0.09064003 0.01556155 -0.0038367836
000380 1e 1c 02 be 30 f5 06 3e 74 79 6a bc 4e e9 be 3c
       -0.12706038 0.13179469 -0.014311183 0.023304608
000390 95 75 89 bd 3e 2e ae bd c5 f7 ec 3c 56 2f 70 3d
       -0.0671188 -0.08504914 0.02892674 0.058638893
0003a0 cc e7 89 3c 7e 46 98 bd ee f0 0c 3e 26 96 d2 bb
       0.016834162 -0.0743532 0.13763782 -0.0064265905
0003b0 c4 04 d2 bd fa 51 92 bd 29 d9 ff 3d 58 8d 2e 3c
       -0.10254815 -0.07144542 0.12492592 0.010653816
0003c0 42 6e 26 bd 24 b4 46 bd d1 2f 00 bd ca 3c 56 bd
       -0.040632494 -0.04851164 -0.0312956 -0.052304067
0003d0 50 fb f3 bd 84 fe af 3d 76 4c fb 3d f3 df 15 3e
       -0.119131684 0.08593467 0.12270443 0.14636211
0003e0 33 94 d8 bd d9 45 94 3d 32 85 a2 bd 70 25 ad 3d
       -0.10575142 0.07239885 -0.07935561 0.08454406
0003f0 f0 b0 b2 3d 68 51 11 3e e4 36 0d 3e 09 9c 4b 3d
       0.087251544 0.1419121 0.1379047 0.049709354

layers.0.self_attn.out_proj.bias f4 [48]
000000 54 20 6d 3d 3c 14 08 3d 2b 89 03 3d f8 f6 23 3d
       0.05789216 0.033222422 0.032113235 0.04003045
000010 38 0e b9 bc 8f 15 fe 3b f0 74 69 bd 99 c9 28 bd
       -0.022589788 0.007754035 -0.056996286 -0.041207884
000020 c5 5e b3 bc a5 15 1a 3d 00 cb 0b 3c 94 f4 79 3b
       -0.021895776 0.037618298 0.008532286 0.0038140165
000030 09 36 b3 3c 7a cf 02 bc 54 ed 28 3d 35 a2 02 bd
       0.021876352 -0.007984037 0.04124196 -0.031892974
000040 43 e3 f3 bc 51 6b 2d bc 84 d8 bf 3c 14 25 55 3c
       -0.029771453 -0.010584668 0.023418672 0.013009328
000050 4c 9f 6e 3c 86 24 b9 bb f7 7c 47 3d 7b a8 01 bd
       0.0145643465 -0.005650106 0.04870316 -0.031654816
000060 30 f4 b3 3c 1b 58 9b bc d1 af 06 3d 61 23 13 bd
       0.021967024 -0.01896291 0.032882515 -0.03592241
000070 34 43 03 bd 46 0b 4a 3d fc e4 21 bd 8a e2 5d 3b
       -0.03204651 0.049327157 -0.039525017 0.0033856952
000080 ad 4a 1d 3c f4 a4 0e 3d 12 9c 10 bd e3 b5 18 3c
       0.009600324 0.03482528 -0.03530509 0.009320709
000090 0d c6 16 3d 44 6d 53 bd df c8 1c bc d5 72 2a bd
       0.03680997 -0.051617876 -0.009569376 -0.04161342
0000a0 86 76 4a 3d 3f 8d 94 bc a7 ad 0b bd 43 86 3a 3c
       0.04942944 -0.018133758 -0.034101155 0.01138455
0000b0 59 a7 ef 3c a8 da ae 3c 0d 1d 5d 3c 1e 6f c6 3c
       0.029254602 0.021344498 0.013495696 0.024222907

layers.0.norm1.weight f4 [48]
000000 4d a1 7c 3f fe 84 87 3f 0a 8c 77 3f 07 b1 83 3f
       0.98683625 1.0587461 0.9669806 1.02884
000010 11 fe 80 3f b1 82 80 3f 1a 9a 86 3f 3b 5b 7c 3f
       1.0077535 1.0039884 1.0515778 0.98576707
000020 1c 0e 7e 3f 12 ce 80 3f 1e 14 7f 3f a3 47 7d 3f
       0.9924028 1.0062888 0.9964007 0.98937434
000030 ce b2 7c 3f 54 ff 7d 3f 8a 8f 81 3f d5 4d 7b 3f
       0.98710334 0.99217725 1.012193 0.9816564
000040 59 7b 7c 3f 66 9f 86 3f b0 97 7d 3f 55 69 7b 3f
       0.98625714 1.0517395 0.9905958 0.982076
000050 e1 37 72 3f 55 cd 78 3f 8a 8c 7b 3f b6 3a 80 3f
       0.94616514 0.9718831 0.9826132 1.0017917
000060 77 42 83 3f 33 34 82 3f 3b a2 82 3f b4 78 8c 3f
       1.0254658 1.017218 1.0205759 1.0974336
000070 e5 e9 7e 3f 47 12 81 3f 8a a1 81 3f f2 93 80 3f
       0.99575645 1.0083703 1.0127423 1.0045149
000080 4f 57 80 3f af 4c 81 3f 03 af 7f 3f c8 b5 79 3f
       1.0026644 1.0101527 0.9987642 0.97543
000090 f6 cb 82 3f 76 74 81 3f 09 a1 77 3f 46 a3 7d 3f
       1.0218494 1.0113666 0.96730095 0.9907726
0000a0 c0 64 84 3f 87 1d 80 3f 4f 00 83 3f 5f d4 83 3f
       1.0343246 1.0009011 1.0234469 1.0299186
0000b0 fb 19 80 3f dd 9b 7e 3f cf 79 7f 3f da 55 80 3f
       1.0007929 0.9945658 0.9979524 1.00262

layers.0.norm1.bias f4 [48]
000000 09 78 ad 3c 54 a6 11 bc 2c ab 56 3c e2 08 15 bb
       0.021175401 -0.008889753 0.013102334 -0.002274089
000010 12 1a 6f 3c 84 26 67 3c dc 51 34 bb 8c 0b a0 bc
       0.014593618 0.014108304 -0.0027514612 -0.019536756
000020 95 a5 98 3c 9a 4a 63 3c 5f da ec 3c a4 ad e5 3c
       0.018633643 0.013872767 0.028912721 0.0280369
000030 aa 5b 9b 3b 53 13 5d 3b 84 6a 6f ba b9 b5 2a bc
       0.004741152 0.0033733442 -0.00091329985 -0.010419303
000040 78 a8 4f 3c ca ca 1e 3c dd 20 a9 bc 87 61 d5 b9
       0.012674443 0.009691903 -0.020645553 -0.0004069919
000050 7a 46 4f bc 9b 3e 23 bd 2e 5b 51 3c ca b2 05 b9
       -0.01265108 -0.039854627 0.012778087 -0.00012750473
000060 2b d8 fd 3b ae b7 98 3b ec bb 7f bc e0 f2 cd 3a
       0.0077467165 0.004660568 -0.015608769 0.0015712641
000070 ca a5 d4 3b 94 f4 c9 3b d7 c7 f0 3a e3 52 06 3c
       0.00648949 0.006163189 0.0018370104 0.008198473
000080 36 ab ab bc 3e 43 c1 3b 95 97 4b 3c d6 7d 7a bc
       -0.020955663 0.0058979085 0.012426277 -0.015288791
000090 32 e4 ab bc 6b cd a6 b9 52 8b 25 3c 7c e6 31 bc
       -0.020982835 -0.00031815036 0.010104017 -0.010858174
0000a0 2c b2 d7 bb c9 82 a4 bc 06 40 85 3c 54 5b 18 3c
       -0.006582519 -0.020081894 0.01626588 0.009299118
0000b0 4a 9b 73 3c 02 0a 15 bc 3f c0 79 bb 70 f5 60 bc
       0.014868567 -0.009096624 -0.0038108972 -0.013730392

layers.0.graph_attn.gat.att_src f4 [1, 4, 12]
000000 d7 98 af be 53 e8 c5 3e 01 f6 7b 3d 56 5a 23 bd
       -0.34296295 0.38653812 0.061513904 -0.039881073
000010 a0 da 22 bd 10 3b 09 3e fd fc d1 3c a6 ca 08 3f
       -0.03975928 0.13401437 0.02563333 0.53434217
000020 0f 38 fb 3e a2 e0 1b 3f c8 9d be 3e 26 af 4b 3c
       0.49066207 0.6088964 0.37229753 0.012431895
000030 92 75 72 be 70 7d 68 be 36 0d be 3e fc cb 43 bd
       -0.23677662 -0.227041 0.37119454 -0.047801957
000040 67 84 0c bf 23 2a 9d 3c e0 e2 13 be fc 80 e2 be
       -0.5488953 0.019185131 -0.14442015 -0.44239032
000050 06 bf ed be a6 fd 62 bd f8 54 60 3e ab 65 a9 3e
       -0.46434802 -0.05541768 0.21907413 0.3308538
000060 c6 a3 e0 be e8 b3 04 bf ae 0e ef be 1f 60 cd bc
       -0.4387495 -0.51837015 -0.46690887 -0.025070248
000070 ec f5 4c bd 3d 8b 92 3e 29 c4 ff be d2 c6 0e 3f
       -0.050039217 0.28621855 -0.49954346 0.55772126
000080 6c a7 3b be ee 1d 14 bf d3 30 c6 be a5 b4 18 3e
       -0.18325585 -0.5785817 -0.38709125 0.1491266
000090 1f 9c fd bd 02 57 e3 3e e2 c7 44 bb 6f e3 bd 3e
       -0.12383293 0.4440232 -0.0030026366 0.3708758
0000a0 e6 3c 02 3f 67 a8 6e be 68 41 46 3d 13 56 41 bd
       0.50874174 -0.23306428 0.04840222 -0.047201227
0000b0 24 9e 8f be b0 30 0f bf a2 93 98 be 50 97 a1 3e
       -0.2805034 -0.55933666 -0.29800135 0.31560755

layers.0.graph_attn.gat.att_dst f4 [1, 4, 12]
000000 a0 17 f1 bd 6b 28 0a bf 5e 05 26 3e c7 e6 64 3e
       -0.11772084 -0.5396792 0.16212985 0.2235366
000010 a5 67 e6 3d f0 6c fe 3e 2b 44 f0 be a6 64 77 be
       0.112502374 0.49692488 -0.46927008 -0.24159488
000020 99 4f 11 bd 8f e1 ce be 71 5b 53 3e 02 71 1d be
       -0.0354763 -0.40406463 0.20640351 -0.1537514
000030 bb 32 12 3f 3e 2e 4f be a8 a4 dd be c7 fe f0 3e
       0.5710866 -0.20232484 -0.43289685 0.4706938
000040 f5 2c 1a 3f 9e 00 e7 3e 58 a2 f2 be 59 d0 9a be
       0.6022485 0.45117658 -0.47389483 -0.30237082
000050 a5 c5 93 3e 79 1d 10 3f 17 b2 d5 3e 8d d7 05 bf
       0.28861728 0.5629497 0.41737434 -0.5228203
000060 d9 d3 52 be c0 0d 12 bd 51 c4 99 3e f2 1d d9 be
       -0.20588626 -0.035657644 0.3003259 -0.4240566
000070 e4 3b 78 3e 27 15 13 be 9f 97 41 3e c0 c7 c7 bd
       0.24241596 -0.14363538 0.18905495 -0.09754896
000080 17 b5 17 3f 5b b1 83 bd 80 c2 71 be 14 48 cb bd
       0.59260696 -0.06430312 -0.23609352 -0.09925857
000090 49 ce 9a be e6 66 01 bf 71 20 ca 3e 91 21 be be
       -0.30235508 -0.50547636 0.39477876 -0.37134984
0000a0 86 b3 88 be 4e 88 a1 be f7 e5 b9 bb 78 28 b0 3e
       -0.26699466 -0.31549305 -0.005673166 0.34405875
0000b0 2e 64 28 be 9a c4 4d 3b 8b 15 5f be 25 a8 f5 3e
       -0.16444466 0.0031397701 -0.21785562 0.47979847

layers.0.graph_attn.gat.bias f4 [48]
000000 58 3b 12 3c 95 99 9d bc 9e de 27 3c 8f 87 06 39
       0.008925281 -0.019238273 0.010245947 0.00012829735
000010 72 28 96 3b 66 48 f4 3a b0 43 b1 bb 37 b2 f3 ba
       0.004582458 0.0018637299 -0.0054096803 -0.0018592541
000020 cc bc b7 3c 36 31 9c 3b 37 d9 a7 3c 06 e2 d0 3b
       0.022428893 0.0047666086 0.020489318 0.0063746003
000030 68 e4 ba 3c 91 bb 3b 3b b3 c9 27 bc cd 6d 4e bc
       0.02281399 0.0028645734 -0.01024096 -0.012599421
000040 17 b5 27 3c 53 e0 3d 3c ca ac 27 bc f1 5f b9 3b
       0.010236046 0.011589128 -0.010234067 0.005657189
000050 07 18 a1 bb 96 d2 94 bc 4f cb fa 3b b0 5d 99 bb
       -0.0049161944 -0.018166821 0.007653631 -0.004680358
000060 fa 1e 10 3c 9a 6a f8 bb d0 0e 1c bc d7 15 d4 3a
       0.008796448 -0.0075810673 -0.009525016 0.0016180825
000070 0f f8 1c 3a 1f b7 52 3b dc 60 88 ba e0 a4 51 ba
       0.00059878913 0.0032152606 -0.0010404843 -0.00079972856
000080 3e 5d e0 ba 1b 7b d7 3b f4 bc 81 3c 39 20 80 ba
       -0.0017117632 0.0065759546 0.01583717 -0.0009775228
000090 70 97 61 bb d8 0b de bb 7c f6 10 bc 03 01 35 bc
       -0.003442254 -0.006776314 -0.008847829 -0.0110476045
0000a0 74 5a 32 bc bf 4a 93 bb 0d 34 57 ba 73 73 1a 3b
       -0.0108858235 -0.0044949944 -0.00082093553 0.0023567348
0000b0 bf da 2b 3c 4d 19 99 bc 51 fb 8c bb b0 e0 e9 bc
       0.010489165 -0.018688822 -0.00430242 -0.028549522

layers.0.graph_attn.gat.lin.weight f4 [48, 48]
000000 f2 1d 77 bd c2 e8 a0 3e 25 03 77 3e aa 48 89 3d
       -0.060331292 0.3142758 0.24122293 0.06703313
000010 a4 e8 40 be b0 b6 1f bd 88 70 34 3e 9d 3d 20 be
       -0.18838745 -0.038992584 0.17621052 -0.15648504
000020 44 75 dc bd da 60 cf 3d dc a4 8b 3d 80 78 63 3e
       -0.10764554 0.10125895 0.06818554 0.22213936
000030 15 8a 04 3d b8 c4 09 bc 8f 05 66 3d 42 e5 9f bc
       0.032358248 -0.008408718 0.056157645 -0.019518498
000040 58 4e 68 be 05 da 07 be c0 d9 57 be a8 9f 1b 3e
       -0.22686136 -0.13266762 -0.21079159 0.15197623
000050 a3 6c 9f 3c 16 be f6 3c 25 97 e5 3c 54 15 1f be
       0.019460982 0.030119937 0.028026173 -0.1553548
000060 f6 06 f3 bd 9c 8d 4c bd 34 f6 04 3e 76 99 75 be
       -0.11866562 -0.049939737 0.12984544 -0.23984322
000070 a1 9a 27 be 1f a5 21 3e 0e 0d fd bd 7e c2 38 3e
       -0.1636758 0.15785645 -0.123560056 0.18042943
000080 21 93 73 3e 6c 47 53 3e 8c 11 65 be 88 7e c8 3c
       0.23786594 0.20632714 -0.22369975 0.024474397
000090 e2 96 6a be 83 44 c0 bb 83 f7 1b 3d f1 50 cf bd
       -0.2290912 -0.0058675422 0.038077842 -0.1012286
0000a0 c7 d0 bf 3d 6a 58 ad bd aa 3d 0e 3e d9 41 03 3c
       0.09365993 -0.08464129 0.1389071 0.008011305
0000b0 e7 e5 31 3e 2f 21 1d 3e 09 5f 87 3d ef 21 87 3d
       0.17372857 0.1534469 0.066099234 0.06598269
0000c0 09 27 ae bd 2f 2e f4 bd 12 59 57 3e 45 6a 30 3e
       -0.08503539 -0.11922871 0.21030071 0.17228039
0000d0 6f 82 85 3d 45 d9 2f 3e d1 86 94 3d 5d 0f 07 3e
       0.06519019 0.17172725 0.07252277 0.13189454
0000e0 52 61 28 bd b9 6d 73 3d 25 22 4c be c7 e0 6f be
       -0.041108437 0.05943081 -0.199349 -0.2342559
0000f0 64 77 d3 3d b5 24 09 be 86 4e 4b 3e 3e f0 63 be
       0.10325506 -0.13392909 0.19854173 -0.22259614
000100 73 90 3a be 80 c5 6d be 31 6c 16 3e 40 ce 1e be
       -0.18219166 -0.23219872 0.14689709 -0.15508366
000110 48 02 83 be 51 87 ae 3d 19 f1 70 bc f5 59 89 be
       -0.25587678 0.08521903 -0.01470592 -0.26826444
000120 dc 61 54 3e 66 18 28 3e 1e 9a 63 3e 18 b9 b1 3d
       0.20740455 0.16415557 0.2222676 0.08677882
000130 20 7f 3d be 3a 46 d2 bd 05 6e a5 bd 2e 43 4c be
       -0.18505526 -0.10267301 -0.08077625 -0.19947502
000140 c9 68 2c 3e e5 1b 0c be 06 a3 ce 3d d7 1b 15 be
       0.16836847 -0.13682516 0.10089688 -0.14561401
000150 29 df 48 3e 6f 8d f1 3d e7 0e 4c 3e f2 7f d0 3d
       0.19616379 0.117945544 0.1992756 0.10180654
000160 19 72 83 3e 29 1a 93 3d dd fe 8e 3d 23 2f e9 bc
       0.25672987 0.07182724 0.06982205 -0.02846486
000170 c3 0e 76 3e 49 31 88 be a9 a4 3a 3e c1 d7 12 bd
       0.24029069 -0.26600102 0.18226875 -0.03585029
000180 51 07 08 bd 04 e1 11 be 40 bd 0a be fc 48 85 3d
       -0.033210102 -0.14245993 -0.13548756 0.06508061
000190 11 48 df bd 5f 1f 86 3d 12 b6 80 3d 89 77 48 be
       -0.109024175 0.06548952 0.06284727 -0.19576849
0001a0 5f 50 fb 3d 20 af f2 bd b3 f7 ca bd 65 71 a2 bd
       0.12271189 -0.11849809 -0.09910526 -0.079317845
0001b0 36 d2 ca 3d 47 ba 82 be 0e 5d 3d be b2 06 07 3e
       0.09903376 -0.25532743 -0.18492529 0.13186148
0001c0 af 08 ab bd 2d dd 98 bd ff 67 5e be 56 1a 00 3c
       -0.08351266 -0.07464061 -0.21719359 0.007818779
0001d0 ef 21 09 3e 3f 46 a0 bd 0f dc 50 3c 8b 6c b5 3c
       0.13391851 -0.078258984 0.012747779 0.022146484
0001e0 d7 7d 10 bd 57 89 52 3e 18 40 a8 3d 6a 62 d5 3b
       -0.03527626 0.20560203 0.0821535 0.006511976
0001f0 4f 73 37 bc 3a c6 2b bc 72 20 ee 3d 5d d9 9b 3c
       -0.011196925 -0.010484273 0.11627282 0.019024545
000200 88 5b 63 3d 90 16 4a 3e d9 59 21 3e ac f3 a0 bd
       0.055507213 0.1973517 0.1575693 -0.07858977
000210 d5 e5 5a be 36 c0 ad 3d 5a 58 2a be cd 81 70 be
       -0.21376736 0.08483927 -0.16635266 -0.23487015
000220 75 19 2b 3e f0 50 54 be 92 23 6a 3e fb 8c 76 be
       0.1670893 -0.20734 0.22865131 -0.24077217
000230 52 29 6b be 85 58 11 3e 02 87 e7 3c 6a 5c b1 bd
       -0.22964981 0.14193924 0.028262619 -0.08660205
000240 9d 86 af 3d 94 c8 45 be ad 52 0b be 59 a5 52 be
       0.08570597 -0.19314796 -0.13605757 -0.20570888
000250 ad 6e 14 be f3 d3 70 be 6f e0 4a 3e d4 b8 da bd
       -0.14495344 -0.23518352 0.19812177 -0.106797844
000260 3f a0 a3 3d 37 f0 0a be c2 92 9d bd 01 af 1d 3e
       0.07989549 -0.13568197 -0.076940075 0.1539879
000270 d0 1d 8d 3d e8 78 05 3e f6 4b 84 3d a3 7e 51 be
       0.06890452 0.13034403 0.06459801 -0.20458464
000280 ef 1b 0c 3e 52 ec 72 3e 75 ee c9 3d a2 05 64 3e
       0.13682531 0.23722962 0.09859935 0.22267774
000290 fb 7f b6 bd 57 f7 19 be a0 c9 82 be c0 ce 8f bc
       -0.08911129 -0.15035759 -0.25544453 -0.01755464
0002a0 bb 94 40 bd f9 b7 42 be f2 18 e9 bd 41 0b 98 bd
       -0.04701684 -0.19015492 -0.11381711 -0.074240215
0002b0 ea 04 78 3e c4 32 41 bd 2b 4b 4a 3e bc c3 8c bc
       0.24220625 -0.047167554 0.19755237 -0.017183177
0002c0 a1 1e dc 3d a5 10 3a 3e 81 f9 71 be 93 a7 d6 bd
       0.107480295 0.18170412 -0.23630334 -0.10481181
0002d0 ad b4 64 be 40 a7 70 3e 8c 3f 9f 3d 09 40 b3 bd
       -0.22334547 0.23501301 0.077757925 -0.08752448
0002e0 9f 8f 1d be 7d d9 22 3e bb 9f 18 3d 74 57 20 be
       -0.15386818 0.15903278 0.037261706 -0.1565836
0002f0 da f2 15 be 1f 0c b7 bd 41 d7 63 3d 52 ac 75 be
       -0.14643422 -0.08937859 0.055625204 -0.23991516
000300 3a 3d 05 bd 6d f4 2b 3e d3 ce 04 3e df 1e cd 3c
       -0.032529093 0.1679246 0.12969522 0.025039135
000310 91 0b 02 3d b6 f5 74 3d c4 d6 fe 3d f3 45 53 3e
       0.03174931 0.05980464 0.12443307 0.20632152
000320 9c 4a 5c 3d c2 09 e7 3d e6 fa 18 3e cf ad 48 be
       0.05378209 0.11281158 0.1493946 -0.19597553
000330 38 0f e2 bd 3c cc eb 3d 4d 95 39 3d 6d 4b 05 be
       -0.11038059 0.11513564 0.0453084 -0.13017054
000340 00 c5 9c 3d fb 61 61 be 7d 56 a2 bd 02 6b bb 3d
       0.07654762 -0.22010033 -0.079266526 0.091512695
000350 c0 6f 16 3c a0 8f 25 be d5 a2 cc 3d ec 48 40 3b
       0.009181917 -0.1616807 0.09991995 0.002934034
000360 9b a7 63 bc ba 53 82 be 0c c7 a5 bd 21 17 0d bd
       -0.013894941 -0.25454503 -0.08094606 -0.034445886
000370 01 22 06 be 0d 98 8d 3d 71 af 39 be 41 84 44 3e
       -0.13098909 0.06913767 -0.18133332 0.19191076
000380 97 48 52 3e d1 7b 1d 3e fc e9 16 bd 6f 68 70 be
       0.20535503 0.15379263 -0.03684424 -0.23477338
000390 28 0f ef bd ce a8 8f bc ec ce 5b be 4c 42 4f 3e
       -0.11672813 -0.017536547 -0.21465653 0.20240134
0003a0 dd a5 c0 3d 70 c4 2c 3e 5a 2d 73 be dc a8 13 be
       0.09406636 0.1687181 -0.23747769 -0.14419883
0003b0 8a cb 74 3d f7 10 2d bc b1 2c 1d be 89 eb 2f 3e
       0.059764422 -0.010563127 -0.1534908 0.17179693
0003c0 c2 45 e9 3d ce a3 53 3c 3c 03 7b 3e 4a 26 8b be
       0.11390258 0.012917472 0.24512953 -0.2717765
0003d0 5d c0 78 be d5 ee bf 3d 08 d6 43 3e ff c9 06 3e
       -0.24292131 0.093717255 0.19124615 0.13162993
0003e0 81 16 38 be 2d c9 54 3e 53 bf 3b 3e dc 69 44 3d
       -0.17977335 0.20779867 0.18334703 0.047952518
0003f0 6e f9 26 3e a9 76 5b 3d a6 f8 4a 3d 1a 65 86 bd
       0.16306087 0.05357996 0.049553536 -0.06562252

layers.0.norm2.weight f4 [48]
000000 34 6d 83 3f a9 3a 81 3f 5c b5 7f 3f af 09 85 3f
       1.0267701 1.0096027 0.9988611 1.039358
000010 18 06 82 3f 37 26 8a 3f 12 58 86 3f b0 65 82 3f
       1.015811 1.0792912 1.0495627 1.0187283
000020 9d 46 83 3f df 1f 87 3f 6d 22 82 3f ad fc 81 3f
       1.0255924 1.0556601 1.0166756 1.0155236
000030 5b ae 83 3f 7b d8 82 3f 25 c4 82 3f 75 ba 81 3f
       1.0287584 1.0222315 1.0216109 1.0135027
000040 02 1b 82 3f 3f f7 85 3f 0b b9 82 3f 65 e6 7f 3f
       1.0164492 1.0466079 1.0212721 0.9996093
000050 82 5b 7e 3f dc 5f 7f 3f 94 75 7e 3f bb 7f 7e 3f
       0.9935838 0.99755645 0.9939816 0.9941365
000060 28 a4 7f 3f 2c 85 82 3f f3 a4 82 3f af 27 86 3f
       0.9985986 1.0196891 1.0206589 1.048086
000070 6b 09 82 3f f0 25 82 3f ba 92 82 3f 88 50 82 3f
       1.0159124 1.0167828 1.0201027 1.0180826
000080 79 b0 81 3f b0 96 82 3f 4e cf 82 3f 0c 72 83 3f
       1.013198 1.0202236 1.0219514 1.0269179
000090 c0 b3 86 3f b7 e7 80 3f dd b8 83 3f bc 3c 83 3f
       1.0523605 1.0070714 1.0290791 1.025291
0000a0 ce 2e 86 3f 92 97 83 3f a6 44 85 3f 7f 97 86 3f
       1.0483034 1.028063 1.0411575 1.0514983
0000b0 5d a4 80 3f b2 e8 81 3f c3 67 81 3f 92 4e 85 3f
       1.005016 1.0149138 1.010979 1.0414603

layers.0.norm2.bias f4 [48]
000000 47 ee c2 bb 07 d2 01 bc a5 d3 e5 bb 70 db 54 39
       -0.005948815 -0.00792361 -0.0070137554 0.00020299642
000010 d4 72 a5 3c b9 e8 52 ba df da 14 bc 44 a4 c1 3b
       0.020196356 -0.00080455426 -0.009085386 0.0059094746
000020 1b df 4f 3b da 84 1b 3c 78 6f 96 bb 5b cd 6c 3a
       0.0031718675 0.0094921235 -0.004590925 0.0009033286
000030 02 71 08 bc e8 35 d5 3b 35 ee c0 bb 38 70 23 3c
       -0.008327724 0.0065066703 -0.0058877715 0.0099754855
000040 90 8d 85 bb 25 ab 9d bb 10 94 1d 3c 4f 40 0c bc
       -0.0040757135 -0.004811662 0.00961782 -0.008560254
000050 5d e3 1e 3c 58 b2 52 bb ce c8 77 3c b9 4d cc bb
       0.009697762 -0.0032149758 0.015123559 -0.006234851
000060 78 77 3a 3c 23 2c 10 3c b0 27 f7 ba d2 54 e9 3b
       0.011381023 0.0087995855 -0.0018856432 0.007120707
000070 10 3b 25 bc bb d9 b3 3b d1 15 bd 39 38 da f5 bb
       -0.010084882 0.005488602 0.00036065144 -0.0075028203
000080 e9 22 84 bb 57 08 a3 39 c7 56 0c 3b 48 da 0d 3c
       -0.004032482 0.00031095996 0.0021414028 0.008657999
000090 20 84 c9 3b aa b6 6e bb 14 4f 45 bb 8a a8 b3 3b
       0.0061497837 -0.0036424794 -0.0030106949 0.005482738
0000a0 e2 8c 27 bc 48 11 c5 3b d7 3b a7 3b d0 89 34 bc
       -0.01022646 0.006014023 0.005103569 -0.011019185
0000b0 a8 ef da ba 67 bb 81 bc 29 f7 8a ba dc 0d 68 bc
       -0.0016703503 -0.01583643 -0.0010602224 -0.014163461
