Checkpoints/expr3d_forward_hard/best_model.pth (torch, 526562 bytes, 76 tensors)

embedding.weight f4 [48, 16]
0	0x3e3b5e97	0.18297802
1	0x3e43b860	0.19113302
2	0xbd8b6f76	-0.06808369
3	0x3e5c40f7	0.21509157
4	0xbd8a35f1	-0.0674857
5	0x3cdd6c6f	0.027029244
6	0xbe0b353a	-0.13594523
7	0x3e0e2e10	0.13884759
8	0x3e67ea8d	0.22648068
9	0xbe5933bd	-0.21211143
10	0x3e40f8aa	0.18844858
11	0x3ccf48fb	0.025303354
12	0x3e2699a5	0.16269548
13	0x3cd838e9	0.026394324
14	0x3e07bd23	0.13255744
15	0xbd788001	-0.06066895
16	0x3e5cb443	0.2155314
17	0x3d6d7a01	0.05797768
18	0xbdbd65a4	-0.09247902
19	0x3da8da69	0.082447834
20	0xbdbb3c44	-0.09142354
21	0xbc367341	-0.011135877
22	0xbd9edb53	-0.077566765
23	0x3e43d68b	0.1912481
24	0xbe2d3f39	-0.16918649
25	0xbdd36f85	-0.10324005
26	0xbd620a1c	-0.055185422
27	0xbe053f73	-0.13012485
28	0x3d116362	0.03549517
29	0xbe677f97	-0.22607265
30	0x3e7fb14a	0.24969974
31	0xbe730707	-0.2373315
32	0x3e2f5266	0.17121276
33	0x3ca75d30	0.020430177
34	0xbdd759d5	-0.10515181
35	0x3e0acf20	0.13555574
36	0x3ca151cd	0.019692326
37	0x3e374603	0.17897801
38	0x3b107e6f	0.0022048017
39	0xbdc78ea3	-0.09744003
40	0x3d5dbfb8	0.054137915
41	0xbdda8c40	-0.10671282
42	0x3d92ef82	0.07174589
43	0x3e4080c9	0.18799128
44	0x3dede466	0.11615829
45	0xbe08db4d	-0.13364907
46	0x3e0a80bc	0.13525671
47	0x3d4e2b29	0.05033413
48	0x3e0916f4	0.13387662
49	0xbe15fb7c	-0.14646715
50	0xbe742347	-0.23841582
51	0xbdc4adcb	-0.09603461
52	0xbe3f35d4	-0.18672878
53	0x3e55ab30	0.20866084
54	0x3da5e55a	0.08100386
55	0x3de2921e	0.11063026
56	0x3db23a7b	0.087025605
57	0xbabf1314	-0.0014577829
58	0x3e4e5366	0.20149001
59	0xbe30ffb7	-0.17285047
60	0x3c44f165	0.012020444
61	0xbe2a53c4	-0.16633517
62	0x3dadb08d	0.0848094
63	0xbdb4d043	-0.08828785
64	0x3daf8e97	0.08572119
65	0xbd6d2ca2	-0.057903893
66	0x3e50d1f7	0.20392595
67	0xbe215174	-0.15753728
68	0xbe20ef02	-0.15716174
69	0xbe21c2f4	-0.15797025
70	0x3e6c6bc8	0.2308799
71	0x3d954091	0.07287706
72	0x3e822b56	0.25423688
73	0xbe4ee318	-0.20203817
74	0xbe7c08c4	-0.24612719
75	0xbe3d73e5	-0.18501242
76	0xbe290f10	-0.16509652
77	0x3de6a713	0.11262336
78	0x3de4b84d	0.11167965
79	0x3e662b9f	0.22477578
80	0xbe0a4639	-0.1350335
81	0xbe2bcbc6	-0.16776952
82	0x3e0949a7	0.13407002
83	0xbdc5dad9	-0.096608825
84	0x3e22fa93	0.15915899
85	0xbd5d9e24	-0.054105893
86	0x3e110bc2	0.14164641
87	0xbe431c25	-0.19053705
88	0xbe01e584	-0.1268521
89	0x3da7efb8	0.082000196
90	0x3d50e9d6	0.051004253
91	0xbd824e3c	-0.06362578
92	0x3e21eb34	0.15812379
93	0x3e2ea4dc	0.17055076
94	0xbe434e21	-0.19072773
95	0xbe173d5e	-0.14769503
96	0x3e67818c	0.22608012
97	0xbda9dae4	-0.08293703
98	0xbdbe3c29	-0.092888184
99	0xbe75d436	-0.24006733
100	0xbe158a62	-0.1460357
101	0x3d86df45	0.06585554
102	0xbd1906bf	-0.03735995
103	0xbe3d8cc2	-0.18510726
104	0xbb28ecde	-0.002577595
105	0xbe2934a5	-0.16523989
106	0xbe54ef6e	-0.2079446
107	0xbe0d1aed	-0.13779803
108	0xbe5682ac	-0.20948285
109	0xbe24a3aa	-0.16078058
110	0x3e73eaa6	0.2381998
111	0x3d550945	0.052010793
112	0x3dbb7d1b	0.09154721
113	0xbe529520	-0.20564699
114	0xbe141aa3	-0.14463286
115	0xbd6a2409	-0.057163272
116	0x3d940f31	0.0722946
117	0xbe3c1bc7	-0.18369971
118	0xbdb29922	-0.08720614
119	0xbe0388fe	-0.12845227
120	0x3bd5bcf6	0.00652277
121	0xbd147fe7	-0.03625479
122	0x3cfdb2c1	0.030969026
123	0xbe07e80e	-0.13272116
124	0xbe07e585	-0.13271149
125	0xbdf93d93	-0.121699475
126	0xbda1e257	-0.07904499
127	0xbe5279e2	-0.20554307
128	0x3e3ce624	0.18447167
129	0xbd92bc2a	-0.07164796
130	0x3e434b9a	0.19071808
131	0x3d49b466	0.049244307
132	0xbe733022	-0.2374883
133	0x3e182403	0.14857487
134	0xbdc73c82	-0.09728338
135	0xbdfc2cd7	-0.1231324
136	0xbe7116fa	-0.23543921
137	0xbe84d81f	-0.25946137
138	0x3d6a0620	0.057134748
139	0xbd9b3e1d	-0.075802065
140	0x3da608d7	0.08107155
141	0xbe682694	-0.22670966
142	0x3e245275	0.1604708
143	0xbe3cd624	-0.18441063
144	0xbd845498	-0.064614475
145	0x3d0e36e5	0.03472032
146	0x3deb1774	0.11479083
147	0x3e3bd7e1	0.1834407
148	0x3e6125d7	0.21987091
149	0xbe598d11	-0.21245219
150	0x3d56fe5f	0.05248868
151	0xbdf66846	-0.12031607
152	0xbd376844	-0.04477717
153	0xbe5a7d8a	-0.21336952
154	0x3e54b150	0.20770764
155	0xbe4afc4c	-0.19822806
156	0x3de67acd	0.11253891
157	0x3d8ba2f0	0.06818187
158	0x3d8f5cff	0.070001595
159	0xbdff98b7	-0.124803
160	0x3e68073c	0.2265901
161	0x3d565cd0	0.052334607
162	0x3ceb7531	0.028742405
163	0xbe6a3438	-0.22871482
164	0x3dd46844	0.103714496
165	0xbd331c97	-0.043728437
166	0xbdf13a5f	-0.117787115
167	0x3e5949dd	0.21219583
168	0x3d793b26	0.060847424
169	0xbe1bc4a4	-0.15211731
170	0xbe0d4698	-0.1379646
171	0xbc9d1996	-0.01917724
172	0x3e031864	0.12802273
173	0xbd8a5697	-0.06754797
174	0xbe0f80bd	-0.14013954
175	0xbdbefa9e	-0.09325145
176	0xbe54b9b2	-0.20773962
177	0x3da50f6e	0.080595836
178	0x3e35b4d7	0.17744766
179	0xbe7309ef	-0.23734258
180	0x3d57857c	0.052617535
181	0x3df7a244	0.120914966
182	0x3d0c227d	0.034212578
183	0xbdb3abac	-0.08772978
184	0x3e038119	0.12842216
185	0x3dd75e97	0.105160885
186	0x3d8c38d2	0.06846775
187	0xbd80b7fd	-0.06285093
188	0xbd9a6233	-0.07538261
189	0x3c818f50	0.015815407
190	0xbd6e9527	-0.05824771
191	0xbd8dc448	-0.06922203
192	0x3e1db7d1	0.15402152
193	0x3e537ddb	0.20653479
194	0xbceda378	-0.029008612
195	0xbd93039f	-0.07178425
196	0xbc2a40ca	-0.0103914235
197	0xbce0de33	-0.027449703
198	0x3d451d25	0.048123498
199	0x3d78ea0e	0.060770087
200	0xbe7af56b	-0.24507682
201	0xbded0c0d	-0.11574564
202	0x3e4d1482	0.20027354
203	0x3da3b046	0.07992606
204	0xbd0c7b75	-0.034297425
205	0xbe2dbc6d	-0.1696641
206	0xbe224d25	-0.15849741
207	0xbe71076a	-0.23537984
208	0xbda44502	-0.08020975
209	0x3d840ac1	0.06447364
210	0x3e1fbfc5	0.15600498
211	0x3ddbf43e	0.10739945
212	0xbe7b58f4	-0.24545652
213	0xbe32d1a6	-0.17462787
214	0xbd2ed2a3	-0.042681348
215	0x3e6d416f	0.23169492
216	0x3d1b0fc5	0.037856836
217	0xbdc1438d	-0.094367124
218	0x3dacccb3	0.08437481
219	0xbdcb3c12	-0.09923567
220	0xbe36f186	-0.17865571
221	0x3e398b14	0.1811946
222	0xbdf5929d	-0.11990855
223	0xbd36054c	-0.044438645
224	0xbe7cd19e	-0.24689338
225	0x3e2d0239	0.16895379
226	0x3e455aa0	0.19272852
227	0x3db865d3	0.090037964
228	0xbe2ed5b3	-0.17073707
229	0xbe7c0211	-0.24610163
230	0xbe4ba924	-0.19888741
231	0x3e4310ee	0.19049427
232	0x3dfe25da	0.12409563
233	0x3e5ae149	0.21375002
234	0x3e0b0f8c	0.1358015
235	0x3d8b4023	0.067993425
236	0xbbcab80d	-0.0061864913
237	0xbe41f2ef	-0.18940328
238	0xbe58faec	-0.21189469
239	0xbe719c25	-0.2359472
240	0x3dd410f4	0.10354796
241	0xbdf8564a	-0.12125833
242	0xbd5d9c70	-0.05410427
243	0xbe1242c3	-0.1428328
244	0xbd52cdeb	-0.05146591
245	0xbe2e699b	-0.17032473
246	0xbe2a21a2	-0.16614392
247	0x3d9b5463	0.07584455
248	0xbdb7609a	-0.08953972
249	0x3e2a0ab6	0.16605648
250	0xbd84474a	-0.0645891
251	0xbe340efb	-0.1758384
252	0xbd12ddbf	-0.035856005
253	0xbdfec6f7	-0.12440293
254	0xbdc5f8cd	-0.096665956
255	0xbe4c3309	-0.19941343

embedding.bias f4 [48]
0	0xbdc6b4bf	-0.09702443
1	0x3e972d22	0.2952662
2	0x3e0715a2	0.13191846
3	0x3e1d9a42	0.15390876
4	0xbe104fc4	-0.14092928
5	0xbe0a978c	-0.13534373
6	0xbdc98f02	-0.0984173
7	0xbe0069a7	-0.12540303
8	0xbe4b6d00	-0.19865799
9	0x3d9cfeee	0.076658115
10	0x3d8cdf44	0.06878522
11	0x3bc8d3cb	0.0061287633
12	0x3d70a3a3	0.058749806
13	0xbd862e42	-0.06551792
14	0x3de4ec4e	0.11177884
15	0x3d647f19	0.055785272
16	0xbe24435c	-0.1604132
17	0xbe97be70	-0.2963748
18	0x3e108194	0.1411193
19	0x3db0f895	0.08641163
20	0xbe0c1690	-0.13680482
21	0x3e7eba7f	0.2487583
22	0xbd845a9c	-0.06462595
23	0x3de6c552	0.112681046
24	0x3e1f8e4b	0.15581624
25	0xbe6bc26a	-0.23023382
26	0x3e5832b1	0.21113087
27	0xbe874b86	-0.26424807
28	0xbe3283bc	-0.17433065
29	0x3c2aa4bb	0.010415251
30	0xbe4de191	-0.20105578
31	0x3e8cd168	0.27503514
32	0xbd804342	-0.062628284
33	0x3e09f480	0.13472176
34	0xbe87e20e	-0.26539654
35	0x3e26217d	0.16223712
36	0xbd3ed087	-0.046585586
37	0xbe773031	-0.24139477
38	0x3d9c3944	0.0762811
39	0x3d9956b6	0.07487242
40	0x3e853169	0.2601426
41	0xbe400fc9	-0.18756022
42	0xbe1a9c23	-0.15098624
43	0x3db8ac9c	0.090172976
44	0x3dd909ed	0.10597596
45	0x3de7bc60	0.113152266
46	0x3e24e757	0.16103874
47	0xbc4c4160	-0.0124667585

layers.0.self_attn.in_proj_weight f4 [144, 48]
0	0x3e0e7b36	0.13914189
1	0xbc0ce9da	-0.008600676
2	0x3e2b408b	0.1672384
3	0x3e0f6e1c	0.14006847
4	0x3e2f3b6a	0.17112508
5	0xbe62c979	-0.22147168
6	0xbb2822b0	-0.002565544
7	0xbd84ae2a	-0.06478532
8	0x3d4bd4b4	0.049763396
9	0xbdf65203	-0.12027361
10	0x3d8ac12b	0.06775125
11	0xbcb244ed	-0.021761382
12	0xbdbc4d26	-0.091944024
13	0xbe18e836	-0.14932331
14	0x3de2f217	0.11081331
15	0xbd860f99	-0.06545944
16	0x3e0f8638	0.14016044
17	0xbd2278e9	-0.03966609
18	0x3d4754f7	0.048665013
19	0xbd11a734	-0.035559848
20	0xbd14fd7d	-0.036374558
21	0xbd8156f9	-0.06315417
22	0xbe1a1ada	-0.15049306
23	0x3dea2a49	0.114338465
24	0xbd2e9af2	-0.042628236
25	0x3d9e7014	0.07736221
26	0xbc6d056e	-0.014466627
27	0x3ce387ea	0.02777477
28	0x3e14e88e	0.14541838
29	0xbe121316	-0.14265093
30	0x3e15045c	0.14552444
31	0x3d8fe810	0.07026684
32	0xbe45150b	-0.19246309
33	0x3d454241	0.048158888
34	0x3dc62e11	0.09676755
35	0x3e20ff14	0.15722305
36	0xbe72b52c	-0.23701924
37	0x3e0d67b7	0.13809095
38	0x3e102545	0.14076717
39	0x3e2dddf2	0.16979197
40	0x3e00f1ec	0.12592286
41	0xbe2a76a6	-0.16646823
42	0x3e1f9eeb	0.15587966
43	0x3e3312d5	0.17487653
44	0xbd0fa1ef	-0.03506654
45	0xbcf905d9	-0.030398296
46	0x3e541872	0.2071245
47	0x3e2524b7	0.16127287
48	0x3dd3a58b	0.10334309
49	0x3d81a237	0.06329768
50	0xbde6888c	-0.11256513
51	0xbce1303e	-0.027488824
52	0xbd1549bd	-0.036447275
53	0x3dede223	0.11615398
54	0x3d822766	0.06355171
55	0xbdf1fce1	-0.11815811
56	0xbd5dc8b3	-0.05414648
57	0xbe25fc49	-0.1620952
58	0xbe3c21b5	-0.18372233
59	0x3e167a81	0.14695169
60	0xbdf37e90	-0.11889374
61	0x3d875efb	0.06609913
62	0xbda777a1	-0.08177114
63	0xbcbca57d	-0.02302813
64	0xbc8c8789	-0.017154472
65	0x3e2e6322	0.17030004
66	0xbc244ceb	-0.010028104
67	0x3e046f09	0.12932982
68	0x3df415e4	0.11918238
69	0x3e09abbb	0.13444416
70	0xbe285ea5	-0.16442354
71	0xbd988081	-0.07446385
72	0xbe030834	-0.12796098
73	0x3d192442	0.037388094
74	0xbcbae251	-0.022812994
75	0x3dfc8f51	0.12332023
76	0x3e2552cc	0.16144866
77	0x3dad78fa	0.0847034
78	0xbdf8af2a	-0.12142785
79	0xbe2d3220	-0.16913652
80	0x3e3b5836	0.18295369
81	0x3c1a4e3c	0.009418067
82	0x3d31f5e0	0.043447375
83	0xbd9e2d06	-0.07723431
84	0x3da4e45d	0.08051369
85	0x3d979a3c	0.07402465
86	0xbe107a42	-0.14109138
87	0x3e0620f2	0.13098505
88	0x3d101aa0	0.03518164
89	0xbc4869b9	-0.0122322375
90	0xbd985319	-0.074377246
91	0xbd837c12	-0.06420149
92	0xbc8ec350	-0.017427117
93	0xbd56214b	-0.052277844
94	0x3ddca131	0.10772932
95	0xbe3b1ca7	-0.18272649
96	0xbdb1abfe	-0.08675383
97	0x3cdc4928	0.026890352
98	0x3d8009eb	0.06251892
99	0x3b8d371b	0.0043095476
100	0xbcf67dda	-0.030089308
101	0x3e0ffb21	0.14060642
102	0xbe278528	-0.16359389
103	0x3d4641a0	0.04840243
104	0xbbdfcd4b	-0.0068298928
105	0xbcaf04f7	-0.021364672
106	0xbdda0939	-0.1064629
107	0xbe1f26f3	-0.15542202
108	0xbdf76b25	-0.12080983
109	0x3e01231f	0.12611054
110	0xbd65c240	-0.056093454
111	0x3da7100c	0.081573576
112	0xbda050f5	-0.07827941
113	0x3c043b09	0.008070716
114	0x3c84b253	0.016198313
115	0x3e158501	0.14601518
116	0xbd58ee4c	-0.052961633
117	0x3db476f2	0.088117495
118	0x3d89c8e5	0.06727771
119	0x3dbde02d	0.09271274
120	0x3c45c0b8	0.0120698735
121	0x3cdb870f	0.0267978
122	0xbdaf34e3	-0.08555009
123	0xbdeb80b6	-0.11499159
124	0x3d9f404c	0.077759355
125	0x3d9f0bdf	0.07765936
126	0xbcb96bab	-0.022634348
127	0x3e019b20	0.12656832
128	0xbe4f43c9	-0.20240702
129	0x3e08a3f2	0.1334379
130	0xbb9cecac	-0.0047889557
131	0xbe02d197	-0.12775265
132	0xbe502667	-0.2032715
133	0xbe1c064f	-0.15236782
134	0x3d893410	0.06699383
135	0xbdf2a427	-0.11847716
136	0x3d951592	0.07279505
137	0xbd9fb597	-0.077983074
138	0xbd8f3a30	-0.0699352
139	0x3c9ae033	0.018905735
140	0x3c81da54	0.015851177
141	0x3d7211bf	0.059098955
142	0x3e44470c	0.19167727
143	0xbd28899c	-0.04114686
144	0x3dc8a869	0.09797747
145	0xbd00c56c	-0.031438276
146	0xbddf6d07	-0.10909467
147	0xbdcefd0b	-0.10106858
148	0x3db556da	0.08854456
149	0x3d1e052b	0.038579147
150	0xba92df99	-0.0011205553
151	0xbdadc55e	-0.084849104
152	0x3dc836d4	0.09776083
153	0x3cc17196	0.023613732
154	0xbe114bea	-0.14189115
155	0xbd925501	-0.071451195
156	0xbd7f4433	-0.0623209
157	0xbd4aeecc	-0.04954414
158	0xbe05a8a3	-0.13052611
159	0xbe152d07	-0.14567958
160	0x3e2be35e	0.16785952
161	0xbdb7bc11	-0.08971418
162	0x3e2dc861	0.1697097
163	0xbe1761b8	-0.1478337
164	0xbd2f025a	-0.042726852
165	0xbd968395	-0.07349316
166	0xbdaa2c92	-0.08309282
167	0x3d7092eb	0.058733862
168	0x3d32dae2	0.043665774
169	0xbd81b3b7	-0.06333106
170	0xbdba5610	-0.09098446
171	0x3e2643b2	0.16236761
172	0xbcfa83a3	-0.030580347
173	0x3d49d249	0.04927281
174	0x3dc87c07	0.09789281
175	0xbde23dd7	-0.11046951
176	0xbddaed01	-0.10689736
177	0x3d665b4e	0.05623942
178	0xbd54f167	-0.05198803
179	0xbdea11e0	-0.11429191
180	0xbce8c650	-0.028414875
181	0xbd97cfb7	-0.07412665
182	0x3e310b41	0.1728945
183	0x3d167319	0.03673086
184	0x3dbd6688	0.09248072
185	0x3e02169f	0.12703942
186	0xbdabefcd	-0.08395348
187	0x3df19204	0.117954284
188	0xbd2d2ddf	-0.042280074
189	0xbd0f9d9b	-0.035062414
190	0x3de55bc8	0.111991465
191	0xbdbc557d	-0.09195993
192	0x3ca1768d	0.01970985
193	0xbe89fb9a	-0.2694977
194	0x3d81ec07	0.06343847
195	0x3d8fd711	0.070234425
196	0xbde08b3e	-0.10964058
197	0x3df5172b	0.119673096
198	0x3d2db1d9	0.042405937
199	0xbd8e5396	-0.069495365
200	0x3dc35e96	0.09539525
201	0x3d5706bb	0.052496653
202	0x3ca581fb	0.020203581
203	0xbdb3e7a8	-0.08784419
204	0xbe1230a6	-0.1427637
205	0xbde15ecc	-0.11004409
206	0x3c5ec460	0.013596624
207	0x3d7be2d8	0.061495632
208	0xbe03ca83	-0.12870221
209	0x3e4c6251	0.1995938
210	0x3deec02c	0.116577476
211	0xbdb13a4b	-0.086536966
212	0x3de12df5	0.10995094
213	0xbd72daf8	-0.059290856
214	0x3d399c05	0.045314807
215	0x3e245d8b	0.16051309
216	0xbe14ecaa	-0.14543405
217	0xbc9bc2b2	-0.019013736
218	0x3bff241f	0.0077862884
219	0x3e0996f3	0.13436489
220	0xbe2aea63	-0.16690974
221	0xbdd85047	-0.10562187
222	0xbc5bf709	-0.013425597
223	0xbdcdb63e	-0.100445256
224	0x3dc66f82	0.09689237
225	0x3a3ea0fb	0.0007271913
226	0x3ce9efb2	0.028556678
227	0x3ce094b8	0.027414665
228	0x3e2d845f	0.16945027
229	0x3c9cdde9	0.019148784
230	0x3ce9fcfe	0.028563019
231	0x3e0ee0e5	0.13952978
232	0xbe0db1fa	-0.13837424
233	0x3d31df2b	0.04342572
234	0x3d916182	0.07098676
235	0xbe1e2324	-0.15443093
236	0x3d8339af	0.06407487
237	0x3dc4d53c	0.09610984
238	0xbd209f55	-0.03921445
239	0xbdf40bb5	-0.119162954
240	0xbc5cba8a	-0.013472209
241	0xbe81ff83	-0.25390252
242	0xbe4574d5	-0.19282849
243	0x3e283dfc	0.16429895
244	0xbe0458a5	-0.1292444
245	0xbdfbbb48	-0.122915804
246	0xbd20c142	-0.039246805
247	0x3d180686	0.037115596
248	0xbc388152	-0.011261301
249	0xbde9604e	-0.11395322
250	0xbd84ec3f	-0.06490373
251	0xbd7d4e55	-0.06184228
252	0x3dc4a2b9	0.096013494
253	0x3e09bae8	0.13450205
254	0x3c815e00	0.015791893
255	0x3c7e39c0	0.015516698

layers.0.self_attn.in_proj_bias f4 [144]
0	0x3cef75a4	0.0292309
1	0xbce46cb9	-0.027883874
2	0x3c5be872	0.0134221185
3	0xbd0b3c0e	-0.03399282
4	0xbcfa0ca1	-0.0305236
5	0xbcf1f41b	-0.029535344
6	0x3cef1ae5	0.029187629
7	0x3ccaa805	0.024738321
8	0xbd0451eb	-0.032304686
9	0xbced7215	-0.028985063
10	0x3b8801d2	0.0041506076
11	0x3c823362	0.015893642
12	0xbcc894e9	-0.024485068
13	0xbc35c7fd	-0.011095044
14	0x3ccb0cde	0.024786409
15	0x3cd97a92	0.026547704
16	0x3d3c65c3	0.045995485
17	0xbc996523	-0.018724984
18	0xbc542120	-0.012947351
19	0x3d9bacf4	0.076013476
20	0xbc14a554	-0.00907262
21	0x3d563884	0.05229999
22	0xbc74e4e3	-0.014947149
23	0xbd103b35	-0.035212714
24	0xbc076e02	-0.008265974
25	0xbb89fc1b	-0.0042109615
26	0x3ccfc50d	0.025362516
27	0x3ceb0821	0.0286904
28	0xbc6683af	-0.014069482
29	0x3c94fcde	0.018186983
30	0x3c5dc46c	0.0135356
31	0xbccc8442	-0.02496541
32	0xbbd7b81e	-0.006583228
33	0x3b92c88b	0.004479473
34	0x3c47c639	0.012193256
35	0xbc9843c3	-0.018586999
36	0x3d16b65f	0.036795016
37	0x3d0b07d8	0.033943027
38	0xbc80efd6	-0.015739363
39	0xbd07375e	-0.033011787
40	0x3a4635b2	0.0007561102
41	0x3ced7c6a	0.02898999
42	0x3c28cf3c	0.010303315
43	0xbd022966	-0.031777762
44	0x3cdbbb73	0.026822781
45	0xbce2f75a	-0.027705837
46	0x3d0c47f4	0.034248307
47	0xbd07a4ad	-0.03311603
48	0x394c3cb5	0.00019477571
49	0x38a84ea7	8.0255144e-05
50	0x3912803e	0.00013971419
51	0x39c4ec4b	0.00037560085
52	0xb8cad4b3	-9.671729e-05
53	0xb8f58137	-0.000117065785
54	0x3836e91f	4.3609292e-05
55	0x39856ac7	0.00025447292
56	0x37d68651	2.5573334e-05
57	0xb88ec6e4	-6.808134e-05
58	0xb68f6ebb	-4.274623e-06
59	0x39ca018c	0.00038529595
60	0xb7a5126f	-1.9678117e-05
61	0xb95a55e3	-0.00020822095
62	0xb75b77e5	-1.3081332e-05
63	0x38afa767	8.3758314e-05
64	0xb7ec1f01	-2.814783e-05
65	0x360a2087	2.0582536e-06
66	0xb9615fb0	-0.00021493318
67	0xb852fd81	-5.0303996e-05
68	0x378ee597	1.703463e-05
69	0x37a37cec	1.9489285e-05
70	0xb8af4d4d	-8.359049e-05
71	0x38032248	3.126476e-05
72	0xb9496cf2	-0.00019209439
73	0xba142628	-0.00056514377
74	0x398b832e	0.00026609882
75	0xba27a756	-0.00063954794
76	0xb9e5e2fd	-0.00043847403
77	0x393660a2	0.00017392871
78	0xb9a91944	-0.00032253016
79	0x3965d0e1	0.00021916955
80	0xb9ddd125	-0.0004230823
81	0x3a1b3e75	0.00059220876
82	0xb82361e5	-3.89534e-05
83	0xba374e17	-0.0006992532
84	0xba143e82	-0.00056550663
85	0xb885465f	-6.355042e-05
86	0x3a07630e	0.00051646016
87	0x3af3d554	0.0018603005
88	0xb9434f51	-0.00018626197
89	0x393c3a5b	0.00017950816
90	0xb9dcd380	-0.0004211925
91	0x39a0c537	0.00030664515
92	0x39f4cf17	0.000466936
93	0x3a540d0b	0.0008089102
94	0xba2f6d52	-0.000669201
95	0x385f6069	5.3257132e-05
96	0x3d5395f1	0.051656667
97	0x3c1f88c5	0.009737198
98	0x3b04c3f1	0.0020258392
99	0xbc1d0d65	-0.009585713
100	0xbd30877a	-0.04309795
101	0x39933b02	0.0002808199
102	0xbcdeee80	-0.027213335
103	0x3d192953	0.037392925
104	0xbd418100	-0.047242165
105	0xbd0b4d0c	-0.034009025
106	0xbcf2ff9f	-0.029662905
107	0x3d0c3ead	0.03423946
108	0x3d35e4d0	0.044407666
109	0x3be4331c	0.0069641005
110	0x3c1a302f	0.009410902
111	0xbcfb06f9	-0.030642973
112	0xbcf87bf2	-0.03033254
113	0x3d27c69a	0.040960886
114	0xbc9b2a79	-0.018941151
115	0x3d28cd4d	0.041211415
116	0xbc516a0d	-0.012781632
117	0x3d28edc0	0.04124236
118	0xbab65924	-0.0013912064
119	0xbcb1b747	-0.021693839
120	0xbb789b4b	-0.0037934359
121	0xbd3595cd	-0.044332314
122	0x3c0d1f93	0.008613485
123	0xbc4de538	-0.012566857
124	0xbcd4563c	-0.025920026
125	0x3cf6cadd	0.03012603
126	0xbd10c380	-0.035342693
127	0x3c78efd0	0.0151938945
128	0x3c9959c7	0.018719567
129	0xbd1ee585	-0.038793106
130	0xbcf1ddcf	-0.029524712
131	0x3ccdb776	0.025111895
132	0x3cb9eb37	0.022695167
133	0x3cbadba1	0.022809805
134	0xbd521824	-0.051292554
135	0xbc04572b	-0.008077423
136	0xbcb33291	-0.021874698
137	0x3d0a052e	0.033696346
138	0x3ccd13a5	0.025033781
139	0x3d30b504	0.04314138
140	0xbd3a2ac3	-0.045450937
141	0xbd62d330	-0.055377185
142	0x3d30e32b	0.043185394
143	0xbd112567	-0.03543606

layers.0.self_attn.out_proj.weight f4 [48, 48]
0	0x3d98a339	0.07453007
1	0x3dfc55a0	0.12321019
2	0xbcd77e5f	-0.026305376
3	0x3de512c9	0.111852236
4	0x3d3eb556	0.046559654
5	0x3dfb2f6e	0.12264906
6	0xbdc416fc	-0.095746964
7	0xbcdd0b9c	-0.026983075
8	0xbd111b09	-0.035426173
9	0xbcbddd40	-0.02317679
10	0x3de596d7	0.11210411
11	0xbd385595	-0.045003492
12	0x3dbb15aa	0.091349915
13	0x3bb45a2c	0.0055039134
14	0x3dbcabd6	0.092124626
15	0xbc3abfed	-0.011398298
16	0xbe0cea99	-0.13761367
17	0xbd314e96	-0.043287836
18	0xbd9d7a02	-0.07689287
19	0x3da02081	0.078187
20	0xbded8f44	-0.115995914
21	0xbd107a26	-0.03527274
22	0x3d390918	0.045174688
23	0xbddef06f	-0.10885703
24	0x3dab89b2	0.08375873
25	0xbe4105be	-0.18849847
26	0xbdb029fb	-0.08601757
27	0xbdfcf8a5	-0.12352113
28	0xbcf62d8a	-0.030051012
29	0xbd1a5206	-0.03767588
30	0xbc1e2177	-0.009651533
31	0x3c854d2a	0.016272146
32	0x3db91a16	0.090381786
33	0x3dd5a9e5	0.104327954
34	0xbba3e3a3	-0.0050015016
35	0xbd85e39c	-0.06537554
36	0xbdac8e54	-0.084255844
37	0x3d89d7b9	0.06730599
38	0xbdf43e11	-0.11925901
39	0x3dbdf2f2	0.09274854
40	0x3da2aea6	0.07943468
41	0x3d89218a	0.0669585
42	0x3e3f0043	0.18652444
43	0x3e0a629d	0.1351418
44	0x3cd8b772	0.026454661
45	0xbdb72686	-0.08942895
46	0x3e256966	0.16153488
47	0xbddfc067	-0.1092537
48	0xbd68ac8d	-0.056805182
49	0x3deeb007	0.11654668
50	0x3e0bf76a	0.136686
51	0x3da7cd02	0.08193399
52	0x3b6b90b7	0.003594441
53	0xbddd452b	-0.10804208
54	0xbc192765	-0.009347771
55	0x3e35eac5	0.17765339
56	0x3cde4d01	0.027136328
57	0x3a29902f	0.00064683234
58	0xbcc1550f	-0.02360013
59	0xbb7d6f83	-0.0038671202
60	0x3dadd815	0.0848848
61	0x3d88261a	0.06647892
62	0x3decd277	0.115635805
63	0xbd46aa29	-0.04850212
64	0x3d65945c	0.05604969
65	0x3d96ab86	0.07356934
66	0x3cf2e357	0.02964942
67	0x3db8e0bd	0.090272404
68	0x3db9e787	0.090773635
69	0x3dd52eff	0.104093544
70	0x3dcff24d	0.10153637
71	0xbd5a00fb	-0.05322359
72	0xbdbc9ae7	-0.09209233
73	0x3b9e7e94	0.0048368666
74	0x3cd3e000	0.025863647
75	0xbd13bfdb	-0.03607164
76	0xbcd5a0e6	-0.026077699
77	0xba175bca	-0.00057738705
78	0x3dcb2f4b	0.0992113
79	0x3d8a81ad	0.06763015
80	0xbd53a99f	-0.051675435
81	0xbd81174d	-0.063032724
82	0xbd96ba47	-0.07359748
83	0xbd7f2913	-0.06229503
84	0x3e229df0	0.15880561
85	0x3d92d076	0.07168667
86	0x3dc84bbb	0.097800694
87	0x3c8980e9	0.016785102
88	0x3c97a28c	0.018510126
89	0x3d2b4176	0.041810475
90	0xbdcae460	-0.0990684
91	0x3cff6ef2	0.031180833
92	0xbc48c342	-0.012253584
93	0xbda0e6e7	-0.07856541
94	0xbdc72454	-0.09723726
95	0x3de25b55	0.110525765
96	0x3de8f5e8	0.11375028
97	0x3da62045	0.08111624
98	0x3e073ac9	0.13206019
99	0xbd10ee42	-0.03538347
100	0xbd0b5699	-0.034018133
101	0x3d3b65e5	0.04575147
102	0xbd04aa55	-0.032389004
103	0xbd3f5303	-0.046710026
104	0xbde626b8	-0.11237854
105	0x3ccd75a2	0.025080506
106	0xbd961e2a	-0.07329972
107	0x3c28ffae	0.010314865
108	0x3e166ba3	0.14689498
109	0xbcd5c465	-0.026094625
110	0xbd1009e6	-0.03516569
111	0x3d9922bf	0.074773304
112	0xbd860e69	-0.06545717
113	0x3992e693	0.0002801908
114	0x3e118b70	0.14213347
115	0xbd6bcf43	-0.057570707
116	0xbdde0c49	-0.10842187
117	0xbdcf2c53	-0.10115876
118	0xbd134db5	-0.03596278
119	0xbd91333b	-0.070898496
120	0xbd8d2053	-0.06890931
121	0x3d2a49a3	0.04157413
122	0x3d05bba0	0.032649636
123	0xbd50f82a	-0.051017918
124	0xbddf4afc	-0.10902974
125	0xbd3e0149	-0.046387944
126	0xbd8e0ed7	-0.06936424
127	0xbce0a794	-0.027423657
128	0xbe03a671	-0.12856461
129	0x3c9be3cc	0.01902952
130	0xbdf39124	-0.11892918
131	0xbde5c0b4	-0.11218396
132	0xbdfe8667	-0.12427979
133	0x3d4ac901	0.0495081
134	0xbdd7151d	-0.10502074
135	0xbd54317f	-0.051805016
136	0x3dfb27d2	0.122634545
137	0x3da133a5	0.078711785
138	0x3db1a2ff	0.08673667
139	0xbe070f0b	-0.13189332
140	0xbdc6860b	-0.096935354
141	0xbd3d76c2	-0.046255834
142	0x3df31593	0.11869349
143	0x3baac15d	0.005211039
144	0xbdec21e5	-0.11529902
145	0x3c353001	0.011058808
146	0xbdebc67d	-0.11512468
147	0xbd0c163f	-0.034200903
148	0xbd290aea	-0.041270174
149	0x3dec6a71	0.115437396
150	0x3d14233e	0.036166422
151	0xbc515cec	-0.012778502
152	0x3d0a9099	0.033829305
153	0xbd7b0b37	-0.061289992
154	0x3daf823b	0.08569761
155	0x3d8e945e	0.069618925
156	0x3d5c009f	0.05371153
157	0xbd018cc0	-0.03162837
158	0x3dfb5479	0.12271971
159	0xbc97ff70	-0.01855442
160	0xbd307f37	-0.04309007
161	0x3de57e06	0.11205678
162	0x3e08a4a1	0.13344051
163	0x3e1099f5	0.1412123
164	0x3ce5cad3	0.028050816
165	0xbd80d5c6	-0.06290774
166	0x3db61f7c	0.08892724
167	0x3e0231cf	0.12714313
168	0xbdd08fa9	-0.10183651
169	0xbd3a9687	-0.04555371
170	0xbdb0cd37	-0.086328916
171	0x3d00eac8	0.031473905
172	0x3d961e17	0.07329958
173	0xbcb053da	-0.021524359
174	0xbcf73765	-0.030177781
175	0x3db38ba4	0.08766869
176	0xbc2cc598	-0.010545157
177	0xbe097f79	-0.13427533
178	0x3dbcd76c	0.09220776
179	0xbdb758ba	-0.0895247
180	0x3ca50582	0.020144228
181	0x3cb5aa76	0.022176009
182	0xbd4f9426	-0.050678395
183	0xbe16d9ca	-0.14731517
184	0x3d134ec6	0.035963796
185	0xbd6f0840	-0.058357477
186	0xbd72bdbf	-0.059262987
187	0x3cc3a645	0.023882994
188	0xbda7354f	-0.08164465
189	0xbd5e5906	-0.054284118
190	0xbc50aaaf	-0.012736007
191	0xbdb11ac2	-0.08647682
192	0xbd6d3905	-0.057915706
193	0xbcbcf7b6	-0.023067337
194	0x3c84dcd8	0.016218588
195	0xbddbe6fa	-0.10737415
196	0xbda6c208	-0.08142477
197	0xbc911256	-0.017708939
198	0xbb07b4f2	-0.0020707217
199	0x3d68938e	0.056781344
200	0xbdbef1b2	-0.093234435
201	0x3c9c7fad	0.01910385
202	0x3d83a92b	0.064287506
203	0x3d97752e	0.07395397
204	0xbdf8f020	-0.12155175
205	0xbcdd19c0	-0.026989818
206	0xbe0b8663	-0.13625483
207	0xbdb26f76	-0.08712666
208	0x3d37b2fc	0.044848427
209	0xbbf82fc9	-0.007574056
210	0x3d6fec4c	0.05857496
211	0xbdb4d831	-0.08830298
212	0x3c3448b4	0.011003662
213	0xbdf9254c	-0.12165317
214	0x3d8fb2b1	0.070165046
215	0xbdaf5dc0	-0.08562803
216	0xbcca2077	-0.024673684
217	0xbe030fbf	-0.12798975
218	0xbb5994f8	-0.0033200365
219	0x3dd41612	0.10355772
220	0x3dabfbcb	0.08397635
221	0xbd8e9371	-0.06961716
222	0xbb1fcae7	-0.0024382414
223	0x3b495b8b	0.003072473
224	0xbde28113	-0.11059775
225	0x3de0098f	0.10939323
226	0xbb9e471c	-0.0048302542
227	0x3d827576	0.0637006
228	0xbd8550b0	-0.065095305
229	0xbd930127	-0.07177954
230	0x3c88fe70	0.016722888
231	0x3d7d9ccf	0.061917122
232	0x3cdf343f	0.027246593
233	0xbd702f7d	-0.05863904
234	0x3df3c0b9	0.11901993
235	0xbc75dddf	-0.0150065115
236	0xbdb0241b	-0.086006366
237	0xbd68e1f6	-0.05685612
238	0x3e0fc40d	0.14039631
239	0x39a08841	0.00030619095
240	0xbd253416	-0.040332876
241	0xbd50f616	-0.051015936
242	0xbcd495f5	-0.025950411
243	0xbdc60901	-0.09669686
244	0xbe0349c3	-0.12821107
245	0x3dc3b42e	0.09555851
246	0x3df8e237	0.12152522
247	0x3e22e8c3	0.15909104
248	0xbddfa2f7	-0.10919755
249	0x3d8eebb9	0.06978554
250	0xbdc45780	-0.09587002
251	0x3dc22d9d	0.09481356
252	0x3db6f2e7	0.08933049
253	0x3dfc492c	0.12318644
254	0x3e053fb1	0.13012578
255	0x3d795d85	0.060880203

layers.0.self_attn.out_proj.bias f4 [48]
0	0x3d79984f	0.06093627
1	0x3d1a219b	0.037629705
2	0x3cf8b463	0.030359453
3	0x3d27dfc0	0.04098487
4	0xbbe772b1	-0.007063233
5	0x3be3856b	0.006943395
6	0xbd7672fc	-0.06016825
7	0xbd6024e9	-0.0547227
8	0xbc3bdb50	-0.011465862
9	0x3c9dbea5	0.019255945
10	0x3cb11086	0.021614324
11	0x3c65b25e	0.014019577
12	0x3cabc4d4	0.020967878
13	0x3c6a0b90	0.014284983
14	0x3d0d5dcd	0.034513284
15	0xbd102200	-0.035188675
16	0xbce1ec85	-0.027578602
17	0xbc8370de	-0.01604503
18	0x3c95a021	0.018264832
19	0x3c9e9882	0.01935983
20	0x3cbfe4a8	0.023424461
21	0xbc33ab9a	-0.010966206
22	0x3d5a435f	0.053286906
23	0xbd23c345	-0.039981145
24	0x3ccb3860	0.024807155
25	0xbc824cb8	-0.015905723
26	0x3d1acc8f	0.03779274
27	0xbd19b464	-0.03752555
28	0xbcdbcf74	-0.02683232
29	0x3d52b6bb	0.051443797
30	0xbd1b98f8	-0.03798768
31	0x3c771006	0.015079504
32	0xbbf317d1	-0.0074186106
33	0x3d1cc806	0.038276695
34	0xbd35e015	-0.044403154
35	0x3ba9840f	0.0051732133
36	0x3d387e5b	0.045042377
37	0xbd430f3e	-0.047621958
38	0x3c449fc6	0.012000984
39	0xbd3ebc28	-0.04656616
40	0x3d395095	0.045242865
41	0xbc81ea9f	-0.015858946
42	0xbd210fe6	-0.039321803
43	0x3c6a7064	0.014309023
44	0x3d12a850	0.035805047
45	0x3c87b473	0.016565537
46	0xbc24fc12	-0.010069864
47	0x3d05aa3b	0.032633048

layers.0.norm1.weight f4 [48]
0	0x3f7d69d5	0.9898961
1	0x3f8932ee	1.0718668
2	0x3f767ad4	0.9628117
3	0x3f84915b	1.0356859
4	0x3f8305ea	1.023618
5	0x3f7eb192	0.994897
6	0x3f86b474	1.052382
7	0x3f7f86c8	0.99815035
8	0x3f78cc73	0.97186965
9	0x3f7f7c16	0.99798715
10	0x3f825700	1.01828
11	0x3f76ba4c	0.96378016
12	0x3f80952c	1.0045524
13	0x3f7d4b32	0.98942864
14	0x3f8162e6	1.0108306
15	0x3f7c1c7a	0.9848095
16	0x3f7ca54d	0.9868973
17	0x3f880044	1.0625081
18	0x3f7e04ad	0.99225885
19	0x3f7ba02a	0.98291266
20	0x3f710e47	0.9416241
21	0x3f7804f1	0.9688254
22	0x3f7dfe00	0.992157
23	0x3f8091c6	1.0044487
24	0x3f816f35	1.0112063
25	0x3f7f8670	0.9981451
26	0x3f827f64	1.0195127
27	0x3f8b5530	1.0885372
28	0x3f7e33f5	0.9929803
29	0x3f81a99d	1.0129887
30	0x3f812d8c	1.0092025
31	0x3f824b19	1.0179168
32	0x3f80555c	1.002605
33	0x3f7fe655	0.99960834
34	0x3f801b5b	1.0008348
35	0x3f79aca1	0.97529036
36	0x3f7ff933	0.9998962
37	0x3f810367	1.0079163
38	0x3f7fbbdf	0.99896044
39	0x3f7e0e1a	0.9924027
40	0x3f844eb6	1.0336521
41	0x3f7ac71e	0.9796008
42	0x3f824377	1.0176839
43	0x3f82f80c	1.0231948
44	0x3f7a005d	0.97656804
45	0x3f7e7915	0.99403507
46	0x3f7f86f0	0.99815273
47	0x3f83332e	1.0249994

layers.0.norm1.bias f4 [48]
0	0x3c8e14b8	0.017343864
1	0xbc38364e	-0.011243416
2	0x3c9f2049	0.019424574
3	0xbac4f477	-0.001502647
4	0x3c146260	0.009056658
5	0x3c6faa38	0.014627986
6	0xbb6f7699	-0.0036539196
7	0xbc7f51a6	-0.015583431
8	0x3c8fa208	0.017533317
9	0x3c7821df	0.015144794
10	0x3c222d69	0.009898522
11	0x3cd6db0e	0.0262275
12	0x3c34219f	0.010994344
13	0xbbba6b5e	-0.0056890687
14	0xbb3ec3ab	-0.0029108326
15	0xbb8a7f71	-0.004226618
16	0x3c4322b7	0.011910132
17	0x3c0e766a	0.008695224
18	0xbc83cbae	-0.016088333
19	0x3b5d4cbf	0.0033767668
20	0xbc0f7acd	-0.008757305
21	0xbd0c18f8	-0.0342035
22	0x3bc9eacb	0.0061620227
23	0x38b15dc5	8.457484e-05
24	0x3b0ec61a	0.0021785558
25	0xbb8c1bc6	-0.004275772
26	0xbc66d0ef	-0.0140879
27	0x3ac015a4	0.0014654887
28	0x3bc04135	0.0058671483
29	0x3bdd21ea	0.0067484276
30	0xb62d3164	-2.5807758e-06
31	0x3b411d65	0.0029466983
32	0xbcd27cd2	-0.025694285
33	0x3b885f8f	0.004161782
34	0x3c17ba2b	0.0092606945
35	0xbcb57838	-0.022152051
36	0xbc8100d8	-0.015747473
37	0xbb8c752b	-0.0042864284
38	0x3c088cee	0.0083343815
39	0xbc087924	-0.008329663
40	0xbbc37479	-0.0059648124
41	0xbc9ab1ac	-0.018883549
42	0x3c34172e	0.010991855
43	0x3b12f6bd	0.00224249
44	0x3c742f01	0.014903785
45	0xbbe6fb84	-0.007049026
46	0x3c320e28	0.010867633
47	0xbc5def64	-0.013545845

layers.0.graph_attn.gat.att_src f4 [1, 4, 12]
0	0xbeadb27d	-0.33925238
1	0x3ec662c8	0.3874724
2	0x3d793ef7	0.060851064
3	0xbd32aa66	-0.043619536
4	0xbd1cda55	-0.038294155
5	0x3e097581	0.1342373
6	0x3cc8aa04	0.024495132
7	0x3f08ac9c	0.5338838
8	0x3efc1143	0.4923192
9	0x3f1bec92	0.6090785
10	0x3ebf5f5b	0.37377438
11	0x3c168f1c	0.009189393
12	0xbe6db74c	-0.23214453
13	0xbe67c77f	-0.22634695
14	0x3ebb1d2b	0.3654569
15	0xbd3ca66d	-0.046057153
16	0xbf0b0fa1	-0.5432072
17	0x3ca327af	0.019916384
18	0xbe158bc4	-0.14604098
19	0xbee0545a	-0.43814355
20	0xbeecbb8a	-0.4623683
21	0xbd604510	-0.054753363
22	0x3e5d69f8	0.21622455
23	0x3eab2e4d	0.33433762
24	0xbee36f2a	-0.4442075
25	0xbf04121f	-0.5159015
26	0xbeef23fa	-0.46707135
27	0xbce52dd2	-0.02797595
28	0xbd53ea18	-0.05173692
29	0x3e9348ff	0.2876663
30	0xbf00e524	-0.5034964
31	0x3f0f017c	0.5586164
32	0xbe3dd508	-0.18538296
33	0xbf132265	-0.57474357
34	0xbec84d3e	-0.3912143
35	0x3e1c9bef	0.15293859
36	0xbdd834a9	-0.10556919
37	0x3ee35b9f	0.4440584
38	0xba9a15ae	-0.0011755729
39	0x3eb4f854	0.3534571
40	0x3f020ea9	0.5080362
41	0xbe675b6c	-0.22593468
42	0x3d163e36	0.036680423
43	0xbd63db63	-0.055629145
44	0xbe8dcbf5	-0.2769467
45	0xbf11a993	-0.56899375
46	0xbe9b3be4	-0.3031913
47	0x3ea8e05b	0.3298367

layers.0.graph_attn.gat.att_dst f4 [1, 4, 12]
0	0xbdf1150d	-0.11771593
1	0xbf0a2842	-0.5396768
2	0x3e2604d3	0.16212778
3	0x3e64e581	0.22353174
4	0x3de668dd	0.1125047
5	0x3efe6cdc	0.49692428
6	0xbef04510	-0.4692769
7	0xbe776512	-0.24159649
8	0xbd115531	-0.035481635
9	0xbecee15f	-0.4040632
10	0x3e535a7e	0.20639989
11	0xbe1d7205	-0.15375526
12	0x3f1389b9	0.57632023
13	0xbe4f73de	-0.20259044
14	0xbedfb6bb	-0.436941
15	0x3ef279b3	0.47358474
16	0x3f1b5324	0.6067374
17	0x3ee71e99	0.45140532
18	0xbef36d73	-0.4754444
19	0xbe99c3ec	-0.3003229
20	0x3e958e93	0.29210338
21	0x3f107144	0.5642283
22	0x3ed45e91	0.41478398
23	0xbf042a16	-0.5162672
24	0xbe531dab	-0.20616786
25	0xbd10f8a9	-0.03539339
26	0x3e99e174	0.3005482
27	0xbed917ae	-0.4240088
28	0x3e77d8a1	0.24203731
29	0xbe12c644	-0.14333445
30	0x3e41b50b	0.18916719
31	0xbdc82115	-0.09771935
32	0x3f17b314	0.59257627
33	0xbd83ede0	-0.064418554
34	0xbe71f2d2	-0.23627785
35	0xbdcbaefb	-0.09945484
36	0xbe9ac9a6	-0.3023197
37	0xbf01a3e0	-0.5064068
38	0x3eca8069	0.39551094
39	0xbebe27d5	-0.37139764
40	0xbe888194	-0.2666136
41	0xbea1a461	-0.31570724
42	0xbbccccfd	-0.0062500224
43	0x3eb024ef	0.34403178
44	0xbe291928	-0.16513503
45	0x3b6a35b2	0.0035737571
46	0xbe5e96ad	-0.21737166
47	0x3ef56ee6	0.4793617

layers.0.graph_attn.gat.bias f4 [48]
0	0x3c096b5e	0.008387415
1	0xbc9309b5	-0.017948965
2	0x3c5e3578	0.013562553
3	0x3ab4baa8	0.0013788538
4	0xba564a73	-0.0008174546
5	0xb9d6c6bf	-0.00040965338
6	0xbc169954	-0.00919183
7	0xb9e13bd3	-0.00042959917
8	0x3cd1b6b2	0.025599811
9	0x3bcb5e41	0.0062063043
10	0x3c51f4f8	0.012814753
11	0x3b9bfe47	0.004760537
12	0x3cbebe51	0.02328411
13	0xbbb8275a	-0.0056199254
14	0xbbf7b4e7	-0.007559407
15	0xbb9aa5af	-0.004719458
16	0x3c40332f	0.011730953
17	0x3beb1733	0.0071743964
18	0xbbbdc26d	-0.0057909996
19	0x3bebe782	0.0071992287
20	0xbb8d13b7	-0.0043053287
21	0xbc66c879	-0.014085882
22	0x3ab02bd9	0.0013440802
23	0xbad42289	-0.0016184609
24	0x3b98e079	0.004665431
25	0xbc6e5a80	-0.014547944
26	0xbc2f4add	-0.010699001
27	0x39282a91	0.00016037586
28	0x3a93f262	0.0011287446
29	0x3b5a82da	0.0033342154
30	0xbade1d3b	-0.0016945967
31	0xbb6ee4ff	-0.003645241
32	0xbc15b224	-0.00913671
33	0x3b397f06	0.0028304472
34	0x3c48c259	0.012253367
35	0xbb9e02c4	-0.004822107
36	0xbb3e2acc	-0.0029017208
37	0xbc37a40c	-0.011208545
38	0xbbbf55df	-0.005839094
39	0xbbdf6406	-0.0068173436
40	0x3b80b337	0.003927614
41	0xb8a2b989	-7.7593206e-05
42	0x3ad75e4c	0.0016431301
43	0x3b5c2591	0.0033591727
44	0x3c34c79e	0.011033921
45	0xbc3f91d0	-0.011692479
46	0x3b8ae45b	0.004238648
47	0xbcc66a21	-0.024220528

layers.0.graph_attn.gat.lin.weight f4 [48, 48]
0	0xbd8144b2	-0.06311931
1	0x3e9f2f84	0.3109094
2	0x3e717744	0.23580652
3	0x3d8c1ab7	0.06841033
4	0xbe47b0d8	-0.19501054
5	0xbcd22878	-0.025654063
6	0x3e35cf41	0.17754842
7	0xbe21c1c6	-0.15796575
8	0xbdf54f58	-0.11978024
9	0x3db10e70	0.08645332
10	0x3da69654	0.081341416
11	0x3e67e55d	0.22646089
12	0x3d36ebf0	0.0446586
13	0xbcace5d4	-0.021105684
14	0x3d897c5d	0.067131735
15	0xbc8a2834	-0.016864873
16	0xbe6d1fc7	-0.23156653
17	0xbe08cd21	-0.133595
18	0xbe588f24	-0.21148354
19	0x3e20136b	0.15632407
20	0x3cc358da	0.023846079
21	0x3d0c2b7f	0.03422117
22	0x3cef5233	0.029214
23	0xbe263c37	-0.16233908
24	0xbdf57ac7	-0.119863085
25	0xbd591226	-0.052995823
26	0x3df5aece	0.11996232
27	0xbe632b7d	-0.22184558
28	0xbe24930c	-0.16071719
29	0x3e28f2d2	0.16498879
30	0xbdffb42f	-0.12485539
31	0x3e3d718f	0.1850035
32	0x3e6dfe0e	0.23241445
33	0x3e561a05	0.20908363
34	0xbe6516c4	-0.22371966
35	0x3cbee0ba	0.023300517
36	0xbe6ca756	-0.23110709
37	0x3b78dc3d	0.003797307
38	0x3d189db8	0.037259787
39	0xbdcc10a8	-0.099641144
40	0x3db5f518	0.088846385
41	0xbdb4761d	-0.08811591
42	0x3e06a998	0.13150632
43	0x3b9a43ec	0.004707804
44	0x3e2ce52d	0.16884299
45	0x3e1b8ebd	0.15191169
46	0x3d8b8877	0.06813138
47	0x3d97234c	0.07379779
48	0xbdbaccae	-0.09121071
49	0xbdf5c2e1	-0.12000061
50	0x3e527158	0.2055105
51	0x3e370610	0.17873406
52	0x3d3e5476	0.046467267
53	0x3e3327b3	0.17495613
54	0x3d89f850	0.06736815
55	0x3e09d773	0.13461094
56	0xbd3407da	-0.0439528
57	0x3d81c7ca	0.06336935
58	0xbe4e7ca6	-0.20164737
59	0xbe67e574	-0.22646123
60	0x3e084ab7	0.13309751
61	0xbe101f24	-0.14074379
62	0x3e46009e	0.19336173
63	0xbe5f61f9	-0.21814717
64	0xbe3d51ff	-0.1848831
65	0xbe82c04e	-0.25537342
66	0x3e192641	0.14955999
67	0xbe0dc5b6	-0.13844952
68	0xbe7f3650	-0.24923062
69	0x3db562b4	0.08856717
70	0xbc88f992	-0.016720567
71	0xbe8b6462	-0.27225024
72	0x3e5bc8ed	0.21463366
73	0x3e272e53	0.16326265
74	0x3e60160e	0.21883413
75	0x3d810dd4	0.06301466
76	0xbe40a4c3	-0.18812852
77	0xbdbf23e5	-0.09333018
78	0xbda65706	-0.08122067
79	0xbe513656	-0.20430884
80	0x3e367f83	0.1782208
81	0xbdeed634	-0.1166195
82	0x3dc189b2	0.094500914
83	0xbe142f1d	-0.14471097
84	0x3e4ace91	0.19805361
85	0x3e035c15	0.12828095
86	0x3e4f2ddf	0.20232342
87	0x3dd76bd9	0.10518617
88	0x3e70dca4	0.23521668
89	0x3d858733	0.06519928
90	0x3d64933f	0.055804487
91	0xbce2dfc1	-0.027694585
92	0x3e6640e1	0.22485687
93	0xbe874196	-0.26417226
94	0x3e4507fb	0.19241326
95	0xbc427173	-0.011867869
96	0xbcfde6f3	-0.030993914
97	0xbe032eca	-0.12810817
98	0xbe09e40e	-0.13465902
99	0x3d896c3b	0.067100964
100	0xbdfecad5	-0.12441031
101	0x3da17ca1	0.07885099
102	0x3d5c070d	0.05371766
103	0xbe4a1d35	-0.19737704
104	0x3e146701	0.14492418
105	0xbe01f04c	-0.12689322
106	0xbd9b7d4a	-0.07592256
107	0xbdba37db	-0.09092685
108	0x3e0b2c2b	0.13591067
109	0xbe8ad31c	-0.2711419
110	0xbe232542	-0.15932181
111	0x3e05ee73	0.13079242
112	0xbda6ba5c	-0.08141014
113	0xbd0e00b2	-0.03466863
114	0xbe5dbcf0	-0.21654105
115	0x3b87b2cd	0.0041411878
116	0x3e0cb06b	0.13739173
117	0xbda87f67	-0.08227425
118	0x3cab72fb	0.02092885
119	0x3ca86b7c	0.020559065
120	0xbd518d5f	-0.051160213
121	0x3e3d1d80	0.18468285
122	0x3d646df6	0.05576893
123	0x3d816a88	0.06319147
124	0xbbec833f	-0.007217794
125	0xbc6c7bf7	-0.014433852
126	0x3dd6b16e	0.10483061
127	0x3c43dc7e	0.011954425
128	0x3d2b83b8	0.041873664
129	0x3e4f625b	0.20252363
130	0x3e264bc0	0.16239834
131	0xbdb460a1	-0.08807493
132	0xbe78800e	-0.24267599
133	0x3db8f608	0.09031302
134	0xbe2787e3	-0.1636043
135	0xbe708f4d	-0.23492165
136	0x3e1bb4df	0.15205716
137	0xbe548713	-0.20754652
138	0x3e7031f9	0.23456563
139	0xbe796f4b	-0.24358861
140	0xbe5c1801	-0.21493532
141	0x3e10ca79	0.14139737
142	0x3c947a35	0.01812468
143	0xbdc77a69	-0.09740145
144	0x3db437b9	0.08799691
145	0xbe496c3e	-0.19670197
146	0xbe085a4b	-0.13315694
147	0xbe63ad3c	-0.22234052
148	0xbe1cb957	-0.15305077
149	0xbe68c999	-0.22733153
150	0x3e33c59e	0.17555854
151	0xbde1857c	-0.11011788
152	0x3db135c5	0.08652834
153	0xbe025374	-0.12727147
154	0xbd6e68f8	-0.058205575
155	0x3e274e20	0.16338396
156	0x3d62a745	0.055335302
157	0x3e23d034	0.15997392
158	0x3dce27f3	0.100662135
159	0xbe5b88b5	-0.21438868
160	0x3e0aa5ae	0.13539764
161	0x3e6d72f8	0.23188388
162	0x3dc748bf	0.09730672
163	0x3e7401a0	0.23828745
164	0xbdc433a2	-0.09580161
165	0xbe1d9b5b	-0.15391295
166	0xbe6ce038	-0.23132408
167	0xbd1b498b	-0.037911933
168	0xbd4a6532	-0.049412914
169	0xbe2303a5	-0.15919359
170	0xbdd16a08	-0.10225302
171	0xbd7ac877	-0.061226334
172	0x3e726f98	0.23675382
173	0xbd77eac9	-0.060526643
174	0x3e4dfc33	0.20115738
175	0xbbbb6f88	-0.0057200827
176	0x3dda4892	0.10658373
177	0x3e33c721	0.1755643
178	0xbe7a36ba	-0.24434939
179	0xbdd712d2	-0.105016366
180	0xbe5725eb	-0.21010558
181	0x3e6bca25	0.23026331
182	0x3da3e03f	0.08001756
183	0xbdc40c0d	-0.09572611
184	0xbe11b54e	-0.14229318
185	0x3e218f68	0.15777361
186	0x3d011d31	0.03152198
187	0xbe140934	-0.14456636
188	0xbe160ce3	-0.14653353
189	0xbdcba2a4	-0.099431306
190	0x3d42b688	0.047537357
191	0xbe52a3ee	-0.20570347
192	0xbd133e30	-0.03594798
193	0x3df0e104	0.11761668
194	0x3df19598	0.11796111
195	0x3cf0b855	0.029384771
196	0x3d11ed16	0.035626493
197	0x3dac4794	0.0841209
198	0x3e1a0290	0.1504004
199	0x3e594017	0.21215855
200	0x3d828f17	0.063749485
201	0x3e061bcf	0.13096546
202	0x3df3e32b	0.11908563
203	0xbe33fea2	-0.17577603
204	0xbe1abc8c	-0.15110987
205	0x3dd1aecc	0.10238418
206	0xbab25c15	-0.0013607765
207	0xbe053721	-0.13009311
208	0x3da7f1c3	0.08200409
209	0xbe877aaf	-0.26460788
210	0xbdb5702b	-0.08859285
211	0x3dacb066	0.08432083
212	0x3c9b58e6	0.018963289
213	0xbe27d1ec	-0.16388673
214	0x3dd8cd83	0.10586073
215	0x3c27b431	0.010235832
216	0xbb6cf137	-0.0036154517
217	0xbe2f5e70	-0.17125869
218	0xbd8a5396	-0.06754224
219	0xbd6d3a6c	-0.057917044
220	0xbdf06598	-0.117381275
221	0x3d6cb088	0.05778554
222	0xbe1d559a	-0.15364686
223	0x3e40b1e9	0.18817867
224	0x3e6eb5f9	0.23311605
225	0x3e1b3d0e	0.1516001
226	0xbd015b08	-0.031580955
227	0xbe709b52	-0.2349675
228	0xbda5fe6a	-0.08105166
229	0xbb3670d4	-0.0027838247
230	0xbe7c4c84	-0.24638563
231	0x3e4d3325	0.20039041
232	0x3d4f542a	0.050617374
233	0x3e2d03b8	0.1689595
234	0xbe71f51e	-0.23628661
235	0xbe17220e	-0.14759085
236	0x3c94b075	0.018150548
237	0xbc318b27	-0.010836399
238	0xbe328f5c	-0.174375
239	0x3e49b1be	0.1969671
240	0x3de88b43	0.11354687
241	0x3c86fa7a	0.016476858
242	0x3e754eaa	0.23955789
243	0xbe86d435	-0.26333776
244	0xbe6aabf9	-0.22917165
245	0x3d88176b	0.066450916
246	0x3e40f0e6	0.18841895
247	0x3e080596	0.13283381
248	0xbe26a6d3	-0.16274576
249	0x3e538298	0.20655286
250	0x3e29bd43	0.16576104
251	0x3ca90047	0.020630015
252	0x3e270a4b	0.1631252
253	0x3d64ed42	0.05589033
254	0x3d3d7f63	0.046264064
255	0xbd8b3977	-0.0679807

layers.0.norm2.weight f4 [48]
0	0x3f8390e5	1.0278593
1	0x3f817410	1.0113544
2	0x3f80224c	1.0010467
3	0x3f843096	1.0327327
4	0x3f8369ef	1.0266703
5	0x3f87561b	1.0573152
6	0x3f87716b	1.0581487
7	0x3f81e850	1.0149021
8	0x3f8498a2	1.035908
9	0x3f845cbc	1.03408
10	0x3f81f062	1.0151484
11	0x3f815e4b	1.0106901
12	0x3f82f7b5	1.0231844
13	0x3f803c14	1.0018334
14	0x3f804583	1.0021213
15	0x3f801f35	1.0009524
16	0x3f80c718	1.0060759
17	0x3f880aaa	1.0628254
18	0x3f81fca9	1.0155231
19	0x3f80e832	1.007086
20	0x3f80698e	1.0032213
21	0x3f7da92b	0.99086255
22	0x3f80762b	1.0036062
23	0x3f822d8e	1.0170152
24	0x3f7eb64f	0.9949693
25	0x3f8142f3	1.0098556
26	0x3f823823	1.0173382
27	0x3f8619a8	1.047658
28	0x3f8202df	1.0157126
29	0x3f82d5a0	1.0221443
30	0x3f838304	1.0274358
31	0x3f8322c4	1.0244985
32	0x3f80241f	1.0011023
33	0x3f85533f	1.041603
34	0x3f824870	1.0178356
35	0x3f817ab0	1.0115566
36	0x3f855255	1.0415751
37	0x3f807392	1.0035269
38	0x3f826ffb	1.0190424
39	0x3f8422d8	1.0323133
40	0x3f86fac6	1.054528
41	0x3f8027f3	1.0012192
42	0x3f871b22	1.0555155
43	0x3f86871d	1.0509983
44	0x3f806080	1.002945
45	0x3f825b13	1.0184044
46	0x3f85ecd3	1.0462898
47	0x3f855020	1.0415077

layers.0.norm2.bias f4 [48]
0	0xbb2a5ac8	-0.0025994051
1	0xbbd611d6	-0.006532888
2	0xbb9b6cd8	-0.0047432
3	0x3a1cfc84	0.00059885555
4	0x3c35b720	0.011091024
5	0xbb8d9b3f	-0.0043214853
6	0xbc4b6b47	-0.012415714
7	0x3bbac5cf	0.00569985
8	0x3bd7e8e5	0.0065890425
9	0x3bfa53ea	0.007639398
10	0xbbd79bd4	-0.0065798555
11	0x3a60fc87	0.00085825514
12	0xbbd81078	-0.00659376
13	0xba8189bf	-0.000988297
14	0xbb4162b6	-0.00295083
15	0x3c184bec	0.009295445
16	0x39dbd39d	0.000419286
17	0x3b192ffa	0.0023374544
18	0x3c1a5256	0.0094190445
19	0xbc456248	-0.012047358
20	0x3b8e682d	0.004345915
21	0xba804912	-0.0009787402
22	0x3ba25e20	0.004955068
23	0xbb8c9f36	-0.0042914404
24	0x3baabf1e	0.005210771
25	0x388eda1b	6.811713e-05
26	0xbb102c0a	-0.0021998906
27	0x3b00e8ef	0.001967009
28	0xbc21f4a9	-0.009884992
29	0x3bd17caf	0.0063930373
30	0x3a5d944b	0.00084525783
31	0xbc326098	-0.010887288
32	0xbc5d746c	-0.013516527
33	0x398c6d38	0.00026784255
34	0xbad09815	-0.0015914465
35	0x3a81528a	0.0009866518
36	0x3b61a0c0	0.003442809
37	0xbb68f577	-0.00355467
38	0x3b9c3652	0.0047672177
39	0x3c180951	0.009279565
40	0x3b7b1add	0.0038315572
41	0x3b9126cb	0.0044296733
42	0x3bbfca68	0.005852986
43	0xbc423438	-0.01185327
44	0x3b92cf52	0.004480281
45	0xba024f13	-0.00049708894
46	0x3b90af07	0.004415396
47	0xbc189bc9	-0.009314486

layers.0.ffn.0.weight f4 [192, 49]
0	0x3d6502fd	0.055911053
1	0x3de91af0	0.11382091
2	0xbcc2d409	-0.023782747
3	0xbd9e5744	-0.07731488
4	0xbd481f37	-0.048857894
5	0xbda3d29f	-0.07999157
6	0x3d808c6a	0.06276782
7	0xbe3de6a3	-0.18545012
8	0x3d8a9225	0.06766156
9	0x3e0dc2ff	0.13843916
10	0xbdb8fe54	-0.09032884
11	0x3d4f3ed9	0.050597046
12	0xbb326118	-0.0027218517
13	0x3d0607ee	0.032722406
14	0x3e2fec75	0.17180045
15	0xbe60c1ab	-0.21948878
16	0x3dc239b3	0.094836615
17	0x3ccb7151	0.024834307
18	0x3d746fc5	0.059676904
19	0x3ce9f560	0.028559387
20	0xbcbfe90b	-0.023426553
21	0xbe157eb0	-0.14599109
22	0x3d5fcd38	0.05463907
23	0xbe098a2d	-0.13431616
24	0xbdd8c077	-0.10583585
25	0x3d91787e	0.0710306
26	0x3ab2887b	0.0013620997
27	0xbdf550d9	-0.11978311
28	0xbc74360a	-0.014905462
29	0x3e028dec	0.12749451
30	0xbdaa71bf	-0.083224766
31	0xbc8b1ecd	-0.01698246
32	0x3d915721	0.07096697
33	0xbd4302c4	-0.04761006
34	0x3db632e1	0.08896423
35	0x3e32fd94	0.17479545
36	0x3d06de0a	0.032926597
37	0xbe390ba0	-0.18070841
38	0xbd3e8af5	-0.04651924
39	0xbe6c7c8f	-0.2309439
40	0xbdffdbf9	-0.12493128
41	0xbd97df8d	-0.07415686
42	0xbd963d2a	-0.07335885
43	0xbd4df080	-0.050278187
44	0x3d0759c9	0.03304461
45	0xbe019138	-0.12653053
46	0xbe5d9c87	-0.21641742
47	0xbd3a828d	-0.04553466
48	0xbecb98db	-0.39765057
49	0xbbbef38e	-0.005827374
50	0xbc7c97ed	-0.015417081
51	0xbca62c8e	-0.020284917
52	0x3e0fb90a	0.1403543
53	0x3dc494d0	0.09598696
54	0x3d8f6dab	0.070033394
55	0x3e2d01bf	0.16895197
56	0xbd7a45ca	-0.061101712
57	0x3d58d6f2	0.052939363
58	0xbd109dc8	-0.035306722
59	0xbd970b79	-0.07375235
60	0x3e319a37	0.17343985
61	0xbdb8e942	-0.090288654
62	0xbd057ae9	-0.03258792
63	0xbe82875e	-0.25493902
64	0xbcd0df25	-0.025497029
65	0x3e137adb	0.14402334
66	0xbd9f2adc	-0.07771847
67	0x3dd2f6c8	0.10300976
68	0x3d344bfc	0.044017777
69	0x3e2ebd7a	0.17064467
70	0xbd9992b3	-0.07498684
71	0xbdd2e5ae	-0.10297714
72	0x3e480e4f	0.19536708
73	0x3cdd93d2	0.027048025
74	0xbd2bf771	-0.041984025
75	0x3daa816e	0.08325468
76	0xbd45ab09	-0.048258815
77	0xbbec7c0b	-0.0072169355
78	0x39ba2a7f	0.00035508347
79	0x3e051802	0.1299744
80	0x3ce78b2a	0.0282646
81	0xbcfd8054	-0.03094498
82	0x3d41cc94	0.04731424
83	0xbd1e0820	-0.038581967
84	0x3dac1149	0.084017344
85	0x3ca35ee5	0.01994271
86	0x3d50ec9a	0.05100689
87	0xbdbb48bf	-0.091447346
88	0x3df2bcd8	0.11852425
89	0xbd409eb7	-0.047026362
90	0xbe0caf7f	-0.13738821
91	0x3d8caac4	0.068685085
92	0x3ca94544	0.020662911
93	0xbe1cda9f	-0.15317772
94	0x3be02fe5	0.006841647
95	0xbd3839ea	-0.044977106
96	0x3a86b773	0.0010278061
97	0xbca23d60	-0.019804657
98	0xbdb1d874	-0.08683863
99	0xbc9fca68	-0.019505695
100	0xbd540bdf	-0.051769134
101	0x3e039e03	0.12853245
102	0xbe096f89	-0.13421454
103	0x3d68dffb	0.05685423
104	0x3dfec973	0.12440767
105	0x3d4a72b5	0.0494258
106	0xbdbebf4d	-0.093138315
107	0x3d1a9d15	0.03774746
108	0x3d513f22	0.0510856
109	0x3d3078fd	0.043084133
110	0xbb789af2	-0.0037934151
111	0xbe154dfa	-0.14580527
112	0x3cf5fb1a	0.030026961
113	0xbcd3baed	-0.02584597
114	0x3d9eea21	0.077595
115	0x3df690d2	0.12039341
116	0xbd3a5de7	-0.04549971
117	0xbaf6f35b	-0.0018840836
118	0x3df9b51d	0.12192748
119	0xbc88da8b	-0.016705772
120	0x3c7c739e	0.015408425
121	0xbd64b29d	-0.0558344
122	0x3d76fcd7	0.06029972
123	0xbd4497a8	-0.047996193
124	0xbde4f05e	-0.11178659
125	0xbde60111	-0.11230672
126	0x3d7932d6	0.060839497
127	0xbd4975be	-0.049184553
128	0x3d1b05ce	0.037847333
129	0x3db62609	0.088939734
130	0x3d1af4ee	0.03783124
131	0x3deddc18	0.11614245
132	0x3d264951	0.040597264
133	0xbe0ff2d0	-0.1405747
134	0x3dcbac44	0.099449664
135	0xbdfaa3c0	-0.12238264
136	0x3d974268	0.07385713
137	0x3a957f2b	0.0011405697
138	0xbe0ecefc	-0.13946146
139	0xbd1d9221	-0.038469438
140	0x3dd6960e	0.104778394
141	0xbd8f2d50	-0.069910645
142	0xbd9fa1ee	-0.077945575
143	0x3da0914c	0.07840213
144	0x3d034aca	0.032053746
145	0x3d6ff92f	0.05858725
146	0xbd8a51ff	-0.06753921
147	0xbd26fa5f	-0.040766116
148	0xbdddcff2	-0.10830678
149	0x3d371a16	0.044702612
150	0x3d1c7712	0.03819949
151	0xbd9005fb	-0.07032391
152	0xbd749372	-0.059710927
153	0x3db90bb3	0.090354346
154	0x3ba38c89	0.0049911183
155	0x3d1ce1d9	0.038301323
156	0xbd612233	-0.054964256
157	0xbde09c47	-0.109673075
158	0x3ddf2846	0.108963534
159	0x3e14412a	0.14477983
160	0x3e02c355	0.12769826
161	0xbdd34f45	-0.10317854
162	0xbd9e51a2	-0.07730414
163	0xbdbee582	-0.09321119
164	0x3e0a57a5	0.13509996
165	0x3dcc14bd	0.09964893
166	0xbd59db25	-0.053187508
167	0x3c6f6cb9	0.014613324
168	0x3db3dda6	0.087825105
169	0x3ded6571	0.11591614
170	0xbd5ae6b1	-0.05344266
171	0xbcf927dd	-0.030414516
172	0xbdf6cf1e	-0.12051223
173	0xbe15a103	-0.14612202
174	0xbd014d69	-0.031567965
175	0xbce3b516	-0.02779631
176	0x3d910f1d	0.07082961
177	0x3dee7758	0.11643857
178	0xbcc27ef2	-0.023742173
179	0x3d48dfd9	0.049041603
180	0xbcef6ea5	-0.029227564
181	0x3dbc1715	0.0918409
182	0xbe0902e1	-0.13380004
183	0xbd10e0f7	-0.035370793
184	0xbd4fd2a5	-0.050737996
185	0x3dbc7013	0.09201064
186	0x3d5f53da	0.054523326
187	0x3d2d48d0	0.042305768
188	0x3d809436	0.06278269
189	0xbd87affb	-0.066253625
190	0xbdcebb25	-0.10094289
191	0xbd9e25b6	-0.077220365
192	0xbd3509a7	-0.04419866
193	0xbdae8507	-0.08521467
194	0x3d25cd8a	0.04047922
195	0x3dc80c66	0.0976799
196	0x3e10daf6	0.14146027
197	0x3dc5cf6a	0.09658702
198	0x3d71bf3c	0.059020266
199	0x3ad7f493	0.0016476087
200	0xbd9c39c0	-0.076282024
201	0x3cca17a5	0.024669478
202	0x3da83967	0.08214074
203	0x3c85b465	0.01632137
204	0xbc809640	-0.015696645
205	0xbc441dca	-0.011969993
206	0xbe0250e6	-0.12726173
207	0x3ba82c00	0.0051321983
208	0x3cb94037	0.022613628
209	0x3df9ae93	0.121915005
210	0x3d5435ca	0.05180911
211	0x3e0a3bee	0.13499424
212	0xbb4253b7	-0.0029651949
213	0x3de0d7f8	0.10978693
214	0xbdaf0e3a	-0.085476354
215	0x3d28acd3	0.041180443
216	0x3e0b7fa8	0.13622916
217	0x3d1326ea	0.035925783
218	0xbda3656c	-0.07978329
219	0x3d73a381	0.0594821
220	0xbe0ba06e	-0.13635418
221	0x3d7e26b8	0.062048644
222	0xbda13e40	-0.07873201
223	0x3dcdfe0c	0.10058221
224	0x3c54fdca	0.012999961
225	0x3d3ce6bc	0.046118483
226	0xbd84dd7e	-0.06487559
227	0xbc58524a	-0.013203213
228	0xbd98791e	-0.07444976
229	0x3df9097c	0.12160012
230	0x3d66c0f3	0.056336354
231	0xbd9aa003	-0.07550051
232	0xbd5b778e	-0.053580813
233	0x3d8b784a	0.06810053
234	0xbdb28fb7	-0.08718818
235	0x3ce7bdf8	0.028288826
236	0xbd9038fa	-0.070421174
237	0xbc8fed2e	-0.01756915
238	0x3dc92cc1	0.09822989
239	0xbcae9e6e	-0.02131578
240	0x3da2690e	0.07930194
241	0xbdc106f1	-0.09425152
242	0x3de53121	0.11191011
243	0xbe09fa76	-0.1347445
244	0xbe0b567a	-0.13607207
245	0xbe0af0c5	-0.13568409
246	0xbe0dff01	-0.13866808
247	0xbb130814	-0.0022435235
248	0xbe13ef35	-0.14446719
249	0x3c271079	0.0101967985
250	0xbd233844	-0.03984858
251	0x3d560611	0.05225188
252	0xbc899e9c	-0.016799264
253	0x3d746523	0.059666764
254	0xbd99d24e	-0.075108156
255	0xbdc1fdf7	-0.09472268
