Checkpoints/expr3d_forward_downstream/best_model.pth (torch, 526562 bytes, 76 tensors)

embedding.weight f4 [48, 16]
00000000: f775 373e 3726 463e 585d 8bbd 4bc5 5f3e
00000010: 445f 82bd 640c e13c 6430 09be eb42 0e3e
00000020: 1c48 6a3e d182 5cbe 68f2 373e bf33 b83c
00000030: 5df0 213e 1700 be3c 65ee 113e c537 53bd
00000040: 4625 563e dcac 653d 2e5f c6bd 9c40 a33d
00000050: 6838 bfbd d1c4 4bbc 47c1 a3bd 0a6c 403e
00000060: fdae 31be 116a ddbd 89d7 72bd 0335 09be
00000070: fb91 093d 8cbe 6cbe 4618 7f3e fa1e 69be
00000080: fb12 2d3e fc5b d93c ba41 cebd 927f 103e
00000090: e451 e63c 6edf 3b3e b4c3 043c f757 b8bd
000000a0: 5e4c 833d 19ae d3bd dd3a 943d 7405 443e
000000b0: 27b1 f03d a3f9 febd 5e61 1a3e 489e 2b3d
000000c0: ac68 073e 2743 1abe 3299 73be 7a64 c5bd
000000d0: a271 41be b09b 543e 74ee a33d 9e66 e03d
000000e0: 4515 ae3d f5d4 17bc c5e7 483e 5e7a 31be
000000f0: 9863 3c3c 6528 2fbe d31d b43d eb02 b8bd
00000100: 647f a93d e1c4 5cbd 4003 563e 7791 1dbe
00000110: 1e15 1ebe 8bde 19be 9584 673e 6204 a43d
00000120: 10d1 753e 6171 4bbe 24b2 74be 5b33 3fbe
00000130: b9db 2abe a876 ce3d f25c b83d fb2e 643e
00000140: 10c6 0ebe f9d2 28be e74a 063e 06b1 bcbd
00000150: 1dc3 2c3e fde0 5bbd d3fe 113e c862 40be
00000160: e1f9 eabd 28ca ca3d 1cef 5a3d 04f7 80bd
00000170: 8335 233e 985f 3b3e 87d1 3fbe 505f 1bbe
00000180: d2d5 673e a3f7 acbd 04fa bebd 467f 74be
00000190: 3633 14be de24 843d 5a58 1ebd d524 3cbe
000001a0: 79e4 9fb9 be90 27be 5d85 55be 3a4b 0fbe
000001b0: 6520 59be a617 21be 361d 733e eb55 583d
000001c0: 5f32 cc3d f542 59be 8856 0fbe d305 72bd
000001d0: 1f79 713d 32a7 40be 8647 b3bd 0467 05be
000001e0: bd42 7e3b fb2d eabc a8de 2e3d 4cb4 00be
000001f0: 4dc6 02be 80e2 ecbd e439 c3bd 8fb6 5bbe
00000200: 9540 3d3e a9ff 98bd 89c7 443e e6a5 623d
00000210: 6ceb 74be 3dfd 183e 1efd bfbd af2e f9bd
00000220: b3c6 6fbe 575b 82be 3e3e 6e3d 0f30 94bd
00000230: 5238 a73d 7bbc 63be 4a42 283e 295e 39be
00000240: f051 77bd 085c 2b3d 2c8e f23d 669f 3d3e
00000250: 0a0f 663e f2dd 54be 5335 683d 2306 f1bd
00000260: b7ff 2bbd 7191 53be a105 5a3e 1b00 46be
00000270: f442 ec3d 48f0 8f3d 4383 903d 7787 08be
00000280: 64ad 643e 8a1b 623d 9859 ec3c 4024 68be
00000290: 1ca7 df3d 72de 28bd d83e ebbd a779 5c3e
000002a0: f325 713d e742 21be 783d 12be af2b aebc
000002b0: e192 ff3d a030 96bd 495c 0ebe 8768 c4bd
000002c0: 69a4 53be 5e11 a73d 5a60 323e 1e12 75be
000002d0: 113e 653d 1e57 f13d e3d1 033d 5cb7 bbbd
000002e0: d4d5 083e 180b d43d 21be 773d a2d9 92bd
000002f0: 5758 a8bd 4c67 8e3c 9de1 4cbd 7cb3 8dbd
00000300: cfa2 133e bcfa 4e3e 1551 e7bc 2141 89bd
00000310: 6066 05bc 268e 08bd c643 643d df9b 833d
00000320: 8038 76be 2f42 08be 2cd3 353e d99b 9d3d
00000330: dcfc 2abd 33b2 2cbe 3a4b 18be 0580 70be
00000340: 92f7 8cbd aa7a 6f3d afe5 1f3e 576a ca3d
00000350: 4238 88be 96b4 35be 7c05 37bd 1db8 673e
00000360: 131b 9f3c 73b3 a7bd bc20 d63d e73e aebd
00000370: 5311 30be c481 2b3e fa70 09be 92e4 14bd
00000380: 9c1c 7dbe eda0 2b3e dc97 463e 9128 b73d
00000390: 1a55 31be a82f 7bbe e292 49be 1ac8 433e
000003a0: f0f6 fb3d 346a 5a3e 8297 0d3e 849c 923d
000003b0: e86a 38bb 94af 41be 4ea4 5abe 04b5 73be
000003c0: bf03 d63d 9d83 00be 4793 59bd 24b5 15be
000003d0: ad47 68bd f4ec 2dbe 72de 2abe 1d89 9e3d
000003e0: 2362 c0bd 10b8 303e 2ae0 5fbd e843 2fbe
000003f0: b453 eebc 532b f9bd 159f d9bd 8a2d 5ebe
0.17916094 0.19350515 -0.06804913 0.21852605 -0.06365827 0.027471729 -0.13397366 0.13892715
0.2287907 -0.21534277 0.17963564 0.022485612 0.15814348 0.023193402 0.14251097 -0.051566858
0.20912656 0.056073055 -0.09686123 0.07971308 -0.093369305 -0.012437061 -0.07995849 0.18791214
-0.17351909 -0.10811246 -0.05928758 -0.13399129 0.033586483 -0.23119563 0.24911603 -0.22765723
0.16901772 0.02653312 -0.1007113 0.14111164 0.02811522 0.1834695 0.0081033 -0.09001153
0.0641105 -0.10335941 0.0723779 0.19142705 0.11752539 -0.12449958 0.15076205 0.041898996
0.13223523 -0.15064679 -0.23788908 -0.09638305 -0.18891004 0.20762515 0.08004466 0.10957073
0.085001506 -0.0092670815 0.19619663 -0.17331836 0.011498354 -0.17105253 0.08794751 -0.089849316
0.08276251 -0.053898696 0.20899677 -0.15387522 -0.15437743 -0.150263 0.2260917 0.080086485
0.24005532 -0.1986747 -0.2389608 -0.18671934 -0.1668538 0.10081226 0.09002103 0.22283547
-0.13942742 -0.1648673 0.1311451 -0.09213452 0.16871305 -0.053681362 0.14257364 -0.18787682
-0.11473442 0.099018395 0.05345069 -0.062971145 0.15938382 0.18298185 -0.18732272 -0.15173078
0.2264016 -0.084456705 -0.093250304 -0.23876676 -0.1447266 0.06452344 -0.038658477 -0.18373425
-0.0003049707 -0.16363809 -0.20851655 -0.1399354 -0.21203764 -0.15731677 0.23741612 0.052816313
0.09970545 -0.21216948 -0.13997853 -0.059087586 0.0589534 -0.1881378 -0.087538764 -0.13027579
0.0038797103 -0.028586378 0.04269281 -0.12568778 -0.12770958 -0.11566639 -0.09532526 -0.2145636
0.18481667 -0.07470638 0.19216742 0.055333994 -0.23917931 0.14940353 -0.0937445 -0.12167107
-0.23415641 -0.25460312 0.058164828 -0.07235729 0.08165039 -0.22239868 0.16431537 -0.18102325
-0.060380876 0.041835815 0.118435234 0.18517837 0.22466674 -0.2078779 0.05669148 -0.117687486
-0.041991916 -0.2066095 0.2129121 -0.19335978 0.11536208 0.07028252 0.07056286 -0.13332926
0.22331768 0.055202045 0.028851315 -0.22670078 0.109205455 -0.041227765 -0.11486596 0.21530782
0.05887408 -0.15748177 -0.14281261 -0.021261064 0.12479187 -0.07333493 -0.13902391 -0.095902495
-0.20668186 0.081576094 0.17419568 -0.23932692 0.055967394 0.117841944 0.032182585 -0.091658324
0.13362819 0.103536785 0.060484055 -0.071704164 -0.082199745 0.01738324 -0.05001985 -0.069189996
0.14417575 0.20212835 -0.028236905 -0.067018755 -0.008142084 -0.03333869 0.055728696 0.064262144
-0.2404499 -0.13306497 0.17756337 0.07695741 -0.04174505 -0.16864853 -0.14872447 -0.23486336
-0.06883158 0.05846659 0.15614961 0.09883564 -0.2660542 -0.1774467 -0.044682965 0.22628827
0.01942209 -0.08188524 0.10455462 -0.085080914 -0.17194109 0.1674872 -0.13422003 -0.036350794
-0.24717945 0.16760607 0.19393867 0.08943284 -0.1731762 -0.24529898 -0.19684938 0.19119301
0.12302959 0.21329576 0.13827327 0.07158759 -0.0028139893 -0.18914634 -0.2135174 -0.2379952
0.10449933 -0.12550206 -0.05311897 -0.14619881 -0.05670898 -0.16984922 -0.16686419 0.07740996
-0.09393718 0.17257714 -0.05465714 -0.17115748 -0.029092647 -0.121664666 -0.106260456 -0.2169706

embedding.bias f4 [48]
00000000: 8b2a e3bd 800b 8f3e c498 f53d 4e69 133e
00000010: b4d0 15be 171f f0bd 0e56 adbd 26df c7bd
00000020: 8d55 46be 4624 8a3d 31e4 743d 6a1e 82bb
00000030: e12a 473d 07c1 adbd 4946 d33d 10a0 903d
00000040: b2bc 1cbe c097 8bbe 7d33 123e f851 973d
00000050: 59ec 0dbe 2b25 773e 800e b1bd 2450 163e
00000060: 6f98 1a3e 4f27 65be cf26 463e e722 83be
00000070: 4e32 2bbe 09ef 8c3b f4f6 4abe 7a47 853e
00000080: cb8d 67bd 6ee5 fd3d acda 80be 5c3d 233e
00000090: 2816 62bd 5de8 6cbe e011 813d b8de b63d
000000a0: 72ad 823e b3fc 37be 8175 15be d329 a73d
000000b0: c139 bd3d 8c58 e83d 98c9 263e 1c65 c2bc
-0.11092099 0.2793846 0.11992028 0.1439564 -0.14630395 -0.1172468 -0.08463679 -0.09759359
-0.19368573 0.067452 0.059787933 -0.003970911 0.048624877 -0.08484083 0.1031614 0.070617795
-0.15306357 -0.27264214 0.14277454 0.07388681 -0.1385969 0.24135272 -0.08645344 0.14679009
0.15097211 -0.22378276 0.19350742 -0.25612566 -0.16718408 0.004300956 -0.19820768 0.26031095
-0.05653171 0.12397276 -0.25166833 0.15941375 -0.05519691 -0.23135515 0.063022375 0.08929199
0.25522953 -0.17967491 -0.14595605 0.08162274 0.09239531 0.11345014 0.1628784 -0.023729853

layers.0.self_attn.in_proj_weight f4 [144, 48]
00000000: 1829 073e 74aa 82bc b87b 233e 0184 103e
00000010: 82f4 193e f58d 39be 54ea 9cbb a52f 7fbd
00000020: d933 5b3d 8a28 00be f5d8 b53d 0c3f 633b
00000030: 0903 83bd 410a 18be 3b08 003e 3f48 72bd
00000040: 9427 0c3e 96ab 7dbc 7264 563d d06c a1bc
00000050: 47dc cebc ebe5 81bd 1a2f 19be 4d65 df3d
00000060: 54a2 a7bd ae9b 873d ac24 4dbd 0cd6 1a3d
00000070: 8e71 183e 9815 fabd f60c 0d3e 98b0 573d
00000080: 50ca 39be fce2 953d 1498 b13d 85de 1d3e
00000090: a4be 74be 5452 1a3e e137 173e a904 303e
000000a0: 8059 c13d 62d6 11be f550 033e 4299 333e
000000b0: 4443 1fbd e0df 22bd 9297 373e ed6f 313e
000000c0: 81e8 d13d 6dd5 b23d 1332 eabd da20 febc
000000d0: 847c 30bd 09f9 bf3d 14c5 8a3d b207 edbd
000000e0: a150 39bd 9dcc 29be a1a3 4abe f354 0d3e
000000f0: fe75 fcbd be38 753d 0846 a6bd b92a b5bc
00000100: dfdc 8fbc 35de 363e b592 0dbc b8e9 fc3d
00000110: 1d76 f93d b72f 0d3e a307 30be effc 8bbd
00000120: 96fb 20be 96d0 0c3d cb0b d4bc 4e2d 063e
00000130: 22bb 233e caa2 9c3d 6623 00be 3122 30be
00000140: f2b8 453e 3ff5 0d3c 9bc5 443d 4dfc 99bd
00000150: 45ca 8f3d 86a3 993d 3963 16be 84f4 073e
00000160: a6d9 a23d 390d 09bd 0f14 90bd fe8b 8dbd
00000170: f0c1 a2bc 0917 38bd b43f f23d 9fb5 50be
00000180: 746d b7bd 0d11 61bd a087 7a3d be7b dc3b
00000190: 01d7 98bc 712a f53d 6b02 24be 0de6 423d
000001a0: 67d2 92bd c1bc f0bc d5a0 19be d775 1dbe
000001b0: 3d0b 13be 4357 cf3d f087 a6bd 9796 a23d
000001c0: 5734 b6bd f552 d73b b764 503c 4691 183e
000001d0: 5974 6dbd c39f be3d 2598 613d f496 d03d
000001e0: e0f2 843d 9d35 87ba 9766 87bd 6fd9 d8bd
000001f0: 5552 243d 1a35 c73d b187 84bc 58f6 eb3d
00000200: d116 42be 81a2 ff3d 339f cebb e873 03be
00000210: 75e1 debd a40a 19be 21ad 5a3d 5b48 efbd
00000220: df3f 823c b00e 26bd 52ad ccbd 3706 683c
00000230: fe6a 123b 5992 893d 5463 433e c296 c4bd
00000240: bcd9 d43d ebe4 30bd 1859 d1bd 8a6a d9bd
00000250: b763 a43d 9c6b a93c 9ff2 92bb ce59 bbbd
00000260: 90a2 af3d e703 d53c 5321 32be a5e6 8abd
00000270: dfd4 91bd 33b3 70bd 3a43 0dbe 457c 1ebe
00000280: 0677 2e3e 63a4 d4bd 595e 253e d4d3 14be
00000290: 1eb0 53bd f35b 9dbd 7750 b9bd 9b89 7a3d
000002a0: 400f 393d eebd c1bd 08be bfbd 650d 223e
000002b0: a5df 1ebd 71ef 673d c33f d53d c36c d9bd
000002c0: a86b cebd 6c9c 603d 42c1 26bd a651 f4bd
000002d0: d040 a9bb e931 a7bd 47c9 2e3e 53b0 f83c
000002e0: e76b e53d 1e15 c33d 1334 babd bd43 f43d
000002f0: de72 34bd b28e f6bc 65cc 013e c57b fabd
00000300: 68b9 923c ef03 6bbe 7051 703d c2c2 813d
00000310: da23 cfbd 3935 ca3d 8a35 453d a08c 84bd
00000320: 5020 f53d 29ef 493d fb4b 913c 823d d3bd
00000330: 7936 18be b561 dabd d46d c83b e45d 813d
00000340: 3111 03be 2a15 643e f0d4 f63d 8fbf c8bd
00000350: c531 ef3d 5fbf 6abd 696e 2d3d 19dc 273e
00000360: 95f6 38be 433d f6ba 8dd3 8a38 93e5 193e
00000370: d2a3 23be 19b0 f4bd 3bea 85bc ff78 e4bd
00000380: 7887 c53d ac4c 80ba a0df 0e3d 296e 043d
00000390: a8ab 1e3e 5d60 be3c 4558 c13c 325e 113e
000003a0: a35c bfbd 5a15 983c 8179 ab3d 07cf 24be
000003b0: 6ad1 6d3d 81f8 d83d 193a 07bd d921 06be
000003c0: f0db a9bb fe7d 62be 56f7 3dbe 268a 1a3e
000003d0: ab3a 00be 0f61 1abe 4087 3fbd 9abf ed3c
000003e0: 93ff 1c3c 14dd d8bd 6223 7bbd 89c3 80bd
000003f0: cd4d d73d 7a35 143e 627b c33c 8173 903b
0.1319927 -0.015950419 0.15965164 0.14112855 0.15034679 -0.18120559 -0.0047886763 -0.062301297
0.053516243 -0.12515464 0.08879272 0.003467503 -0.06397063 -0.14847662 0.1250314 -0.05915093
0.13686973 -0.015482804 0.052341886 -0.019705206 -0.02525152 -0.063426815 -0.14959374 0.109079935
-0.081852585 0.066214904 -0.0500838 0.037801787 0.14887068 -0.1221115 0.13774475 0.052658647
-0.18143582 0.073186845 0.08671585 0.15416916 -0.23900849 0.15070468 0.1476741 0.17189278
0.09440899 -0.14241937 0.12823851 0.17538932 -0.03888251 -0.039764285 0.17928913 0.17327853
0.10249425 0.08732114 -0.11435332 -0.031021524 -0.043087497 0.093736716 0.06775871 -0.115737334
-0.04524291 -0.1658196 -0.19788982 0.13801937 -0.12327193 0.059868567 -0.08118826 -0.022115098
-0.017561374 0.17858203 -0.008640935 0.12349266 0.121807314 0.13787733 -0.17190413 -0.06835353
-0.15720972 0.03437861 -0.02588453 0.1310322 0.15989354 0.07648237 -0.12513503 -0.17200543
0.19308832 0.008664428 0.048040014 -0.07518826 0.07021002 0.07501893 -0.14686288 0.13276869
0.079516694 -0.033459876 -0.07035076 -0.06911467 -0.019867867 -0.044943843 0.11828557 -0.20381783
-0.089564234 -0.0549479 0.0611645 0.0067286184 -0.01865721 0.11970986 -0.16016547 0.047582675
-0.07169037 -0.02938688 -0.15002759 -0.15376984 -0.14359756 0.10124066 -0.08131397 0.07938879
-0.08896702 0.0065711685 0.012719325 0.14899167 -0.057972286 0.09307816 0.055076737 0.10185042
0.06491637 -0.0010315661 -0.06611364 -0.10588347 0.04011758 0.09726925 -0.016177984 0.11521596
-0.18954016 0.12482167 -0.006305599 -0.12837183 -0.10882846 -0.14945465 0.053387765 -0.116837226
0.015899597 -0.04054135 -0.09993996 0.014161638 0.0022341604 0.06717367 0.1908086 -0.09599067
0.10393092 -0.043187063 -0.102220714 -0.10616024 0.080268316 0.020681195 -0.004484489 -0.09147988
0.08575928 0.026002837 -0.17395525 -0.06782273 -0.0712068 -0.058764648 -0.13795176 -0.15477093
0.17037591 -0.10382917 0.16149272 -0.14533931 -0.05168163 -0.076835535 -0.090485506 0.061166387
0.04518056 -0.09460054 -0.093624175 0.15825422 -0.038787503 0.056624833 0.10412552 -0.10616448
-0.100791276 0.054836676 -0.04071165 -0.11929636 -0.005165197 -0.081638165 0.17068969 0.030357515
0.11202221 0.09525512 -0.090919636 0.119269826 -0.04405486 -0.03009734 0.12675627 -0.122306384
0.017910674 -0.2295072 0.058671415 0.06335975 -0.1011426 0.09873433 0.048146762 -0.064721346
0.11969054 0.049300347 0.017736426 -0.10314466 -0.1486453 -0.106631674 0.006116608 0.06316736
-0.12799527 0.22273698 0.12052333 -0.09802162 0.11679415 -0.057311412 0.042341623 0.16392554
-0.18062814 -0.0018786568 6.619757e-05 0.15028982 -0.15980461 -0.119476505 -0.016347041 -0.11155891
0.09644979 -0.0009788475 0.034881234 0.03233162 0.15495169 0.023239309 0.02360166 0.14196089
-0.09343841 0.018564869 0.083727844 -0.160946 0.05806104 0.10594273 -0.03301439 -0.1309885
-0.0051836893 -0.22118375 -0.18551382 0.15091762 -0.1252238 -0.15076087 -0.046759844 0.029022027
0.009582418 -0.10589042 -0.06131304 -0.06287295 0.10512886 0.14473525 0.023862544 0.0044083004

layers.0.self_attn.in_proj_bias f4 [144]
00000000: 1605 e43c 190d babc bd0b 413c 7edd f4bc
00000010: 8a6f f7bc 8ccb edbc c056 e33c 6d61 b13c
00000020: 4433 dbbc 1a30 19bd 8de2 cdbb 9b75 0c3c
00000030: 60a2 c8bc 42fe a4bc 9c68 f63c ac8b d53c
00000040: 8615 733d d168 07bc 59cf abbb 4328 743d
00000050: 1d52 a7bb b6bc 4e3d 8740 35bc a624 3cbd
00000060: 0a09 8abc 5d89 733b cdcb 46bc 4e2d c53a
00000070: 3f8c c8bc 753c ac3b 2a12 013d 7dea 98bc
00000080: bccd 6dbc 659c 3ebd 24d5 de36 6ff0 f1bc
00000090: e64a f93c 1e26 0c3d c3e5 7bbc 509a e2bc
000000a0: 175b febb be1c c93c 9d7b 013d 3927 0dbd
000000b0: 369c f03c 0836 00bd 65d1 0f3d 50fe 12bd
000000c0: ec3d 85b8 ff26 1db8 cac8 a038 9bbb 4cb9
000000d0: c405 1e39 6229 8439 5962 7cb8 8ddd 09ba
000000e0: 3e83 d738 28fc b8b8 0e0c fcb7 ca7c 1938
000000f0: 8826 2fb8 4b8e 7bb5 851a f437 a261 e738
00000100: 5a4c 2c37 e238 a6b7 082e 0838 1735 10b9
00000110: 84d5 6ab8 af67 7937 f2fb 7338 702a f7b8
00000120: b465 8a38 b1e6 adb8 6fd0 6fb7 535d 49b8
00000130: 5ca7 4e37 d3dc b0b5 f5a7 16ba 817e 4b36
00000140: 17c0 fdb8 74cc 1c3a 7f72 8eb9 de98 7fb8
00000150: dfd0 073a 8b83 0db8 7e72 023a 2743 66b9
00000160: 9d85 89b9 2482 d738 efdc 66b8 a8d6 c436
00000170: 2f5f 4eb9 3463 a139 fcbe f038 4a30 dbb9
00000180: 45a6 413d 6e61 9a3c 6212 963c 2f6d b9bb
00000190: 186a d7bc 4552 9cba 3303 c4bc 8d4a ef3c
000001a0: 01c3 10bd 69c1 98bc bc80 ecbc 7ad1 fc3c
000001b0: 37bf 1f3d 26ad 0eba e8d5 263c 7762 07bd
000001c0: 2e4e b1bc 73ce c63c 5045 e3bc 1b24 273d
000001d0: 190e c0b9 2773 1a3d 8f4e 263a 6bf7 9fbb
000001e0: 83fe b8bb 1fff 70bc 9c39 8a3b c0f2 3dbc
000001f0: fa35 3cbc b947 d13c 3e81 f1bc afe9 bf3b
00000200: 7c8c 473c 3763 16bd b043 79bc 640f 0a3c
00000210: 6f0c 48bb 4918 963c 87ec 2fbd 3402 4abc
00000220: e98d 05bd c39f ef3c b796 a03c 4335 123d
00000230: f10d 12bd 56da 30bd 0921 0d3d 1ba3 c1bc
0.027834456 -0.022711324 0.011782584 -0.029890772 -0.030204553 -0.029027723 0.027751327 0.021652902
-0.026757844 -0.03739939 -0.0062831105 0.008572961 -0.024491489 -0.02014077 0.030079179 0.026067577
0.0593467 -0.008264736 -0.0052432236 0.05960871 -0.005106224 0.050472938 -0.011062748 -0.04593339
-0.016850013 0.0037160732 -0.012133551 0.0015043409 -0.024480937 0.0052562305 0.031511463 -0.0186665
-0.014514383 -0.04653587 6.6409284e-06 -0.029533593 0.030431222 0.03421604 -0.015374604 -0.027661473
-0.0077623236 0.024549838 0.031612027 -0.034461234 0.029371362 -0.03130153 0.035111804 -0.035887063
-6.353468e-05 -3.7468035e-05 7.6667944e-05 -0.00019524845 0.00015070202 0.00025207835 -6.0173075e-05 -0.0005259149
0.00010276445 -8.8207715e-05 -3.0046354e-05 3.659426e-05 -4.1759136e-05 -9.371185e-07 2.9099416e-05 0.00011033124
1.0269776e-05 -1.981523e-05 3.2467797e-05 -0.00013752688 -5.59888e-05 1.4865697e-05 5.8170357e-05 -0.000117857824
6.5992965e-05 -8.2922525e-05 -1.429404e-05 -4.800905e-05 1.2317523e-05 -1.317729e-06 -0.00057470734 3.0322992e-06
-0.000120997596 0.00059813936 -0.00027169657 -6.0939106e-05 0.00051809655 -3.373953e-05 0.0004976167 -0.00021959525
-0.00026230226 0.000102762395 -5.5042034e-05 5.8662445e-06 -0.0001968115 0.00030782225 0.000114796654 -0.00041806913
0.047277708 0.018845286 0.018319312 -0.0056587677 -0.026295707 -0.0011926374 -0.023927307 0.029210353
-0.03534222 -0.018646913 -0.02886998 0.030861605 0.039000716 -0.0005442671 0.010182835 -0.033052888
-0.021643724 0.024268365 -0.027743012 0.040805917 -0.00036631597 0.037707474 0.00063441036 -0.0048817894
-0.0056455745 -0.014709263 0.0042182934 -0.011593521 -0.011487478 0.025546895 -0.029480573 0.0058567147
0.01217949 -0.036715712 -0.015213892 0.008426521 -0.003052499 0.018322127 -0.04295018 -0.012329627
-0.03260604 0.029250985 0.019603116 0.035695326 -0.035657827 -0.04317697 0.034455333 -0.023637345

layers.0.self_attn.out_proj.weight f4 [48, 48]
00000000: 1a4f 813d 6005 073e 1ab9 0abd f48a eb3d
00000010: 8932 7f3d a4a4 f23d e100 c5bd 38a0 44bd
00000020: 73fe 02bd 32ff a0bc f1df f13d aa2e 41bd
00000030: ff43 b73d 6219 d8bc 822c b73d b02d d8bb
00000040: 76d1 f7bd 777e 5ebd 4c18 a3bd 83db a63d
00000050: d89c edbd 7e25 f8bc 0cc2 643d 5597 b2bd
00000060: 8735 b13d 2b65 38be 01fd c8bd e444 03be
00000070: 3814 e4bc f151 0fbd 5136 c8bb 49ee 9a3b
00000080: 1273 cc3d bfe4 d33d fe05 003d e79b b2bd
00000090: 93d8 f6bd c5ab 923d 08ee ebbd 099a a93d
000000a0: 6d66 883d 9c8c 8d3d de8f 2b3e 73da 073e
000000b0: b040 af3c 88d8 bcbd 7e4a 233e 1a5e e3bd
000000c0: 36e0 6fbd 178f fe3d 1fd5 083e ed63 a73d
000000d0: 9cb9 2b3c c127 e0bd f594 d5bb dd89 2b3e
000000e0: c6f1 d43c e526 053c 95fd cebc f020 9dbc
000000f0: 2e7f a33d 0bba 1a3d 9644 eb3d e230 3ebd
00000100: 7d4c 8c3d 7e30 843d c274 ce3c d428 ca3d
00000110: a08b be3d 7bdf f73d a9eb df3d 0dd4 2cbd
00000120: 2765 cbbd f6ca 863c ae11 b53c 91fc b0bc
00000130: 49af efbc 3ca3 bbba 4a7f d53d 410f 6f3d
00000140: 71aa 4cbd 91f2 7cbd f3ae 2abd e534 95bd
00000150: d382 1b3e 45cd 973d dbb8 d93d 7771 9b3c
00000160: 7676 7a3c f82b 273d 8805 d9bd ca58 033d
00000170: d50e d9bc 048c b4bd 8747 dcbd 011b ef3d
00000180: 66e3 ef3d da7b 953d 7f33 113e 5922 90bc
00000190: ed64 11bd 8296 663d 2689 d7bc 311e 58bc
000001a0: e91b f2bd 55fa e63c d225 99bd 5347 513c
000001b0: 43a4 113e 43a5 c1bc 6ee2 13bd 4808 993d
000001c0: e39c 7abd 4168 6b38 1acf 113e 0d83 55bd
000001d0: 3296 dcbd 6b99 e1bd 5a0c 3bbd b3dd a0bd
000001e0: 6530 90bd 787b 463d 1c6f b83c 4b22 1bbd
000001f0: 7480 debd 47e6 47bd 6ab5 88bd d0a1 e2bc
00000200: ccf0 00be c865 bc3c 7870 e3bd 5bb7 f8bd
00000210: 0409 dbbd e27c 703d 916c ddbd 72d0 38bd
00000220: 21dc d63d c329 9d3d 518e bd3d c778 01be
00000230: b082 d6bd a8ef 60bd a1d4 f73d 4586 873b
00000240: 9dee edbd a313 373c 9e9e f0bd dca2 ffbc
00000250: bdc7 cfbc 621a e93d ab83 173d 69dc 0cbc
00000260: 65bd 113d 822d 71bd 0146 a53d f92c 8a3d
00000270: b727 5e3d f2e5 2abd b1eb ed3d 1578 23bc
00000280: 88ae 1abd 57de dd3d f9c1 073e f5f7 123e
00000290: 8392 cc3c bebb 9abd ca91 ae3d 4855 023e
000002a0: 6a5a e8bd ca96 06bd 3a1e debd 4356 0d3d
000002b0: 4ac2 a23d 7a3e 82bc c530 04bd 5a33 a53d
000002c0: 2ae7 69bb 8194 0ebe 8f4e d53d 99b5 d4bd
000002d0: 9a9b a73a 8ce4 cc3c 10a0 37bd 63c5 08be
000002e0: 742b 2b3d 5876 64bd 1469 7fbd 12a1 be3c
000002f0: 9d94 9fbd a79c 59bd 3cd8 b3bc 6efc abbd
00000300: ca3d 5fbd 3647 8c3c 3f2e 2a3c e1fe e2bd
00000310: 491f 66bd d709 17bc c997 083c 31b8 9b3d
00000320: 55bb ccbd e227 fb3c a984 803d 36c3 623d
00000330: ddec 06be 856c 47bd 3c53 06be 1510 b8bd
00000340: a0d9 953d 1f36 d6bc 9ff5 5a3d fecb bcbd
00000350: cdb2 b63c 0c19 b0bd b8f7 e33d 3e49 81bd
00000360: 6a3a 50bc 9862 d8bd 0ace ae3c 1f93 b93d
00000370: d192 943d b6e0 afbd a791 563c 1660 5cbc
00000380: e499 01be 3d05 043e 5c64 81bb 1f8b c73c
00000390: 24c0 7dbd 149a a8bd ed35 e43c 8118 383d
000003a0: c757 893c 1766 95bd be4f 033e b52a 89bc
000003b0: e027 c9bd 9a39 90bd 517a 083e da17 303c
000003c0: 9617 10bd 645c 67bd 53a3 f7bc 9404 97bd
000003d0: b95e f0bd a996 bf3d d624 ff3d 09b1 1d3e
000003e0: 51e8 d3bd d434 983d 8591 adbd c4e8 b13d
000003f0: d313 b83d abfd 0d3e 0814 023e c82b 703d
0.063139156 0.13185644 -0.033867933 0.115011126 0.062304053 0.11847809 -0.09619308 -0.04800436
-0.031980943 -0.019652937 0.118102916 -0.047163643 0.08948516 -0.026379291 0.08944036 -0.0065972432
-0.121004984 -0.054319825 -0.07963619 0.08147337 -0.11602181 -0.030291315 0.05584912 -0.087202705
0.08652788 -0.18007343 -0.09813882 -0.12819248 -0.027841672 -0.034990255 -0.0061099906 0.004728113
0.099828854 0.10346364 0.031255715 -0.08721142 -0.12053027 0.07161669 -0.1152001 0.08281333
0.06660161 0.06911585 0.167541 0.13266926 0.02139315 -0.092209876 0.15946385 -0.11101933
-0.058563434 0.12429636 0.13362549 0.08173356 0.010481264 -0.109450825 -0.006518001 0.1675181
0.025994193 0.008126949 -0.025267402 -0.019180745 0.07983242 0.03777508 0.11487691 -0.046433337
0.068505265 0.06454562 0.025202159 0.098710686 0.09303975 0.121031724 0.109336205 -0.042194415
-0.09931403 0.016454201 0.022103157 -0.021604808 -0.029258387 -0.0014315615 0.10424669 0.058364157
-0.049967233 -0.061754767 -0.04167075 -0.072854795 0.15186624 0.07412199 0.106309615 0.018975003
0.015287032 0.040813416 -0.10596758 0.032067098 -0.02649633 -0.08815768 -0.1075583 0.116750725
0.11713295 0.072990134 0.141798 -0.017594503 -0.03549664 0.05629588 -0.026310515 -0.013190792
-0.1182173 0.02819554 -0.07477917 0.012773353 0.14222817 -0.023638373 -0.036104612 0.07472283
-0.061184775 5.612546e-05 0.14239159 -0.052126933 -0.10770835 -0.1101559 -0.045666076 -0.07854786
-0.070404805 0.048457593 0.022513919 -0.0378745 -0.10864344 -0.048803594 -0.06675227 -0.027665049
-0.12591857 0.022997752 -0.11105436 -0.12144347 -0.10695079 0.058712848 -0.10811723 -0.045120664
0.10491205 0.07673981 0.0925566 -0.12643729 -0.104741454 -0.054916054 0.121011026 0.004135879
-0.116177775 0.011174115 -0.11749004 -0.031205587 -0.025363797 0.11381985 0.036990803 -0.008597472
0.03558101 -0.05888129 0.08069993 0.06746859 0.054237094 -0.0417232 0.1161722 -0.00997736
-0.037764102 0.108334236 0.13257588 0.143524 0.024972206 -0.0755534 0.08523901 0.12727845
-0.1134537 -0.032858647 -0.10845609 0.034506094 0.07947214 -0.015898932 -0.032273073 0.08066435
-0.0035690763 -0.13923837 0.104153745 -0.103861995 0.0012787462 0.025011323 -0.044830382 -0.13356547
0.041789487 -0.055776924 -0.06235607 0.023270164 -0.077920176 -0.05312791 -0.021953695 -0.083977565
-0.054502286 0.0171238 0.0103870025 -0.110837705 -0.05618218 -0.009218655 0.00833697 0.07603491
-0.09996668 0.030658666 0.06275303 0.05536195 -0.13176294 -0.048687477 -0.13117689 -0.089874424
0.07316899 -0.026148854 0.0534569 -0.09218596 0.022302056 -0.08598527 0.11131233 -0.06312798
-0.0127092395 -0.1056568 0.021338481 0.09061264 0.072545655 -0.08587782 0.01309625 -0.013450643
-0.12656361 0.12892623 -0.0039487313 0.02435833 -0.061950818 -0.08232513 0.027857745 0.044945244
0.016765488 -0.07294863 0.12823388 -0.016743997 -0.09822059 -0.070422366 0.1332791 0.010747874
-0.035178743 -0.056484595 -0.030229246 -0.0737392 -0.11736817 0.09354908 0.12458198 0.15399565
-0.10347045 0.07431951 -0.08475021 0.08686975 0.08988156 0.13866298 0.12702954 0.058635503

layers.0.self_attn.out_proj.bias f4 [48]
00000000: d9d4 453d bbc8 ce3c 4b7c cd3c 6a32 0e3d
00000010: 8071 b3bc f463 cf3b 8fb3 3abd 9110 17bd
00000020: a66f acbc d191 ef3c ce2a 0e3c bfa7 ad3b
00000030: adfe 9d3c 8b8b eabb ebd7 003d 9853 c9bc
00000040: 74c3 c5bc c3d2 a1bb d8eb a93c 9038 343c
00000050: b8c9 273c 1a4e f5bb 7963 253d 2e2f d1bc
00000060: 265c a63c 273f 68bc 5ab2 da3c 7338 edbc
00000070: dfb1 cabc 873b 2e3d 7f58 07bd 624a 9b38
00000080: db4c e73b ca3a d93c 9125 f1bc 5381 0e3c
00000090: 0487 053d 3c74 20bd 572b b7bb 45fa 12bd
000000a0: 1d58 253d a094 87bc f258 dabc d1b3 eb3b
000000b0: 2ffb ac3c a2f0 933c d0e6 023c 42d5 923c
0.04829869 0.0252422 0.025083682 0.034716047 -0.021904707 0.006329054 -0.045581397 -0.036881033
-0.021049332 0.029244335 0.008677198 0.005299538 0.019286478 -0.007157748 0.031455915 -0.024575993
-0.02414105 -0.004938455 0.020742342 0.010999814 0.010240965 -0.007486117 0.040378068 -0.025535192
0.020307612 -0.014175213 0.026696373 -0.028957581 -0.024743019 0.04253724 -0.03304338 7.404831e-05
0.0070587224 0.02651729 -0.029436858 0.0086978255 0.032599464 -0.03917335 -0.0055898833 -0.035883207
0.040367234 -0.016550362 -0.02665374 0.0071930666 0.021115867 0.018059079 0.0079896 0.017923955

layers.0.norm1.weight f4 [48]
00000000: f924 7d3f ea2b 873f 8560 793f 6af3 833f
00000010: 8d1c 813f 8f02 803f 591b 863f a108 7d3f
00000020: b2c2 7e3f 3c14 803f 13c6 7d3f af64 7d3f
00000030: ba00 7d3f 3194 7d3f e201 813f 90e2 7c3f
00000040: d49c 7d3f aaec 843f cf9e 7e3f f0fb 793f
00000050: 180e 753f 699e 793f adc1 7d3f b139 803f
00000060: 061a 843f a932 813f 5e17 823f 9ea8 8a3f
00000070: 8b6a 7f3f 7595 813f 1910 823f 6428 813f
00000080: 8313 7d3f 48ec 803f b36e 803f e775 7b3f
00000090: 69cd 803f 216b 813f 589d 783f e211 7e3f
000000a0: 0310 833f ba16 7f3f e121 823f 49d0 823f
000000b0: 27e2 793f 6f11 7f3f 77b9 7d3f 34fc 813f
0.9888454 1.0560277 0.974129 1.0308659 1.0086838 1.0000781 1.0477096 0.9884129
0.9951583 1.0006175 0.9913036 0.98981756 0.98829234 0.9905425 1.00787 0.98783207
0.99067426 1.0384724 0.9946107 0.9765005 0.9572463 0.9750734 0.9912365 1.0017606
1.0320442 1.0093585 1.0163381 1.0832708 0.99771947 1.0123736 1.0161163 1.0090451
0.988579 1.0072107 1.0033783 0.9822678 1.0062686 1.0110818 0.9711509 0.99246037
1.0239261 0.99644053 1.0166589 1.0219814 0.97610706 0.99635977 0.9911112 1.0155091

layers.0.norm1.bias f4 [48]
00000000: af00 7b3c f9e1 2dbc c79d 243c 63f9 4039
00000010: 5631 073c 45fd 1d3c 698b 24bb 4c34 8bbc
00000020: c712 493c be1c 593c 8d64 7b3c f9f6 d43c
00000030: 97bc 123c 3323 90ba b8b3 ef38 fec7 a8bb
00000040: 7194 103c ef0b 1d3c 6361 6bbc f041 2a3b
00000050: 1bd8 1ebc b461 f8bc 50e7 f63b 3632 833a
00000060: 3ff9 7b3b ab6e e83a 7110 53bc b660 fa3a
00000070: 260c c63b c9c8 e13b 0f58 dc3a cf14 4b3b
00000080: 7055 54bc 7da3 a23b 243b 263c bb29 85bc
00000090: e3aa 81bc a7db d039 a81e 9e3b 01a2 f0bb
000000a0: 26f8 91bb da02 8dbc daca 663c f482 8d3b
000000b0: d026 363c 4dcf dabb f5eb 873b 7a7b 61bc
0.015319987 -0.010612958 0.010047383 0.0001840345 0.008251509 0.009642904 -0.002510751 -0.01699271
0.012272543 0.013251482 0.015343797 0.025996672 0.008956096 -0.0010996818 0.00011429883 -0.005150794
0.008824454 0.009585365 -0.0143664805 0.0025979243 -0.009695078 -0.030320026 0.007534899 0.0010009471
0.0038448123 0.0017733177 -0.012882338 0.0019102308 0.0060439287 0.0068903905 0.0016810911 0.0030987745
-0.012959823 0.004963337 0.010145936 -0.01625525 -0.015828555 0.00039836505 0.004825432 -0.007343531
-0.0044546304 -0.017213274 0.0140864495 0.0043185893 0.011117652 -0.006677544 0.0041480013 -0.013762349

layers.0.graph_attn.gat.att_src f4 [1, 4, 12]
00000000: 9273 afbe 63f3 c53e 7915 7c3d c398 24bd
00000010: 360d 22bd c731 093e 418f d13c 14cb 083f
00000020: 803a fb3e dee4 1b3f 2aae be3e b975 483c
00000030: ffd5 72be 73be 68be 372d be3e bc58 46bd
00000040: 5896 0cbf 97ac 9d3c 89af 13be e5a8 e2be
00000050: 91f3 edbe 994a 64bd bdb4 603e 58f2 a83e
00000060: 55ea e0be f2a5 04bf c2c3 eebe 9469 cebc
00000070: c54b 4fbd dacb 923e 3bf8 ffbe b1c8 0e3f
00000080: dac5 3bbe 32fe 13bf a395 c6be 95a6 183e
00000090: 9f8f f9bd 70c8 e23e a391 dbba 463d bd3e
000000a0: fe97 023f e906 6fbe c926 3b3d 47cc 42bd
000000b0: f280 90be b14c 0fbf 7c2b 98be 984b a23e
-0.3426786 0.38662252 0.061543915 -0.040184747 -0.03956338 0.13397895 0.025581004 0.5343487
0.4906807 0.608961 0.37242252 0.0122350985 -0.23714446 -0.227289 0.3714387 -0.048424467
-0.54916906 0.019247336 -0.1442243 -0.4426948 -0.4647489 -0.055735204 0.21943946 0.32997394
-0.4392878 -0.5181571 -0.46633726 -0.025196828 -0.05060937 0.2867115 -0.49994072 0.5577498
-0.18337193 -0.57809746 -0.3878604 0.14907296 -0.12185597 0.44293547 -0.0016751777 0.3696081
0.5101317 -0.2334248 0.045691285 -0.047558095 -0.28223377 -0.55976397 -0.29720676 0.31698298

layers.0.graph_attn.gat.att_dst f4 [1, 4, 12]
00000000: 7717 f1bd 6a28 0abf 3005 263e b0e6 643e
00000010: 1f69 e63d ec6c fe3e 2944 f0be a764 77be
00000020: 3750 11bd a3e1 cebe d15b 533e 3071 1dbe
00000030: a715 123f b66a 4fbe 6c9a ddbe d6a3 f03e
00000040: 2621 1a3f f6ff e63e 3f9d f2be d50f 9bbe
00000050: d7a0 933e 3efc 0f3f 42c0 d53e de0d 06bf
00000060: ea1d 53be bff6 10bd aee1 993e aa17 d9be
00000070: 2bd8 773e ffc5 12be 25b5 413e 8621 c8bd
00000080: 0fb3 173f 20ee 83bd d5f2 71be 49af cbbd
00000090: 2adf 9abe 6a93 01bf b759 ca3e 5d37 bebe
000000a0: 9572 88be ebb0 a1be 0674 c8bb 5f33 b03e
000000b0: b70e 29be 9c82 6c3b 5fa2 5ebe 8069 f53e
-0.11772054 -0.53967917 0.16212916 0.22353625 0.11250519 0.49692476 -0.46927002 -0.2415949
-0.03547689 -0.40406522 0.20640494 -0.15375209 0.5706429 -0.2025555 -0.43281877 0.46999997
0.6020683 0.45117158 -0.47385594 -0.30285516 0.2883365 0.56244266 0.41748244 -0.5236491
-0.2061688 -0.035391565 0.30054992 -0.42400867 0.24203555 -0.14333342 0.18916757 -0.09772019
0.59257597 -0.06441903 -0.2362779 -0.09945542 -0.30248386 -0.5061556 0.39521572 -0.37151614
-0.2664992 -0.3158029 -0.0061173467 0.34414193 -0.1650952 0.0036088591 -0.21741627 0.47932053

layers.0.graph_attn.gat.bias f4 [48]
00000000: 80d0 c83b 605a 8ebc b2c6 003c 0c46 3f3b
00000010: 7dc4 d439 cf43 63ba 5a57 d0bb 7541 5bbb
00000020: e442 4e3c 1224 d03b 6c9b 3e3c 0506 ae3b
00000030: 67b9 c53c 06c0 f1ba 6048 dabb 99b8 d3bb
00000040: ed02 ec3b 20ab f93b 712c f3bb 974b de3b
00000050: 81d2 8fbb 0d81 74bc 7e35 8d3b b705 68bb
00000060: 81e0 e03b ddb5 f4bb 852f f0bb acb7 ef3a
00000070: 324f 9239 2294 8c3b fe5e a9b9 e7b4 75bb
00000080: 28a3 373b 23cb a83b 9fe5 6b3c 8597 53bb
00000090: 4f81 3abb 4717 b5bb 8d08 dabb e2be 03bc
000000a0: dc21 5dbb 80cd debb dbf8 69ba c64b e63a
000000b0: ae24 fa3b 5ffb 5abc 99d1 c43a 3104 cebc
0.0061283708 -0.017377079 0.007859873 0.0029186038 0.00040582186 -0.0008669467 -0.0063580694 -0.0033455763
0.01258919 0.006351956 0.011633735 0.005310776 0.024136258 -0.0018444068 -0.00666146 -0.0064612147
0.007202497 0.0076192766 -0.0074210693 0.0067839134 -0.0043891077 -0.014923346 0.0043093553 -0.0035403797
0.0068627005 -0.007467969 -0.0073298835 0.0018288991 0.00027906295 0.0042901197 -0.00032304967 -0.003749186
0.0028020833 0.005151169 0.014398008 -0.0032286358 -0.0028458422 -0.0055264565 -0.0066538514 -0.0080411155
-0.0033742106 -0.0067994 -0.0008925327 0.001757019 0.007633767 -0.013365596 0.0015016078 -0.025148483

layers.0.graph_attn.gat.lin.weight f4 [48, 48]
00000000: ced8 7cbd f6ea 9d3e 4f9e 753e 5314 8c3d
00000010: d85b 41be 6d31 23bd 35ea 3d3e 3ed1 20be
00000020: 763c dcbd da1a d03d e8c9 733d 81c0 693e
00000030: d79a db3c 30d5 37bc 81d1 513d 0a95 b5bc
00000040: a7ba 69be 3273 07be ade5 5bbe 5100 1c3e
00000050: a5ff b93c 0516 013d 70d5 cc3c d525 16be
00000060: 8009 e5bd c2e3 54bd 683b 043e 698b 6dbe
00000070: 1fce 27be 475e 273e 50d7 fdbd 67b4 353e
00000080: 5693 6e3e 5c2a 573e 03be 62be 80ec cd3c
00000090: 69e1 60be 1090 9d3a 33d9 fc3c ac44 cfbd
000000a0: 4950 9f3d e6c3 afbd 4d31 0c3e 4646 d73b
000000b0: 84d3 293e d8be 233e 7afa 923d 1a12 8b3d
000000c0: 29fd b5bd 68a9 f8bd 6549 533e 7b3c 313e
000000d0: f064 5d3d 7863 353e df12 a23d 33f4 093e
000000e0: 4493 1bbd 3588 7e3d 3773 56be 6e8d 65be
000000f0: 1254 f33d da37 10be 2f92 513e 311a 63be
00000100: 58d5 3bbe d2c9 6dbe ac43 143e 7be8 1abe
00000110: 0505 7fbe 8c13 b33d 0487 8fbc 303d 87be
00000120: adb5 583e 3455 273e c33e 5e3e 20d5 b83d
00000130: affd 3ebe 7046 c5bd 9df2 b0bd cf4b 4fbe
00000140: 29c4 263e 4b85 03be c357 ca3d ffbf 13be
00000150: dee2 463e 8855 013e 9759 4b3e c6f9 d33d
00000160: 0d39 6e3e b768 893d 93e5 733d 9a2f e4bc
00000170: 7fcf 6b3e 85ce 85be 778d 423e 494e bebc
00000180: f477 eabc 2f0e 13be 6d0a 03be deec 873d
00000190: 0ba4 e1bd c2c3 933d 8047 4b3d ae1d 4dbe
000001a0: acbf ed3d 7d06 e4bd 8be6 c0bd 5d9f a6bd
000001b0: 9c79 bd3d 8495 83be b758 39be 6b36 023e
000001c0: 7c42 a9bd 55e8 92bd e8ec 5fbe 8e24 403c
000001d0: 74f9 033e 5e12 a6bd 176e 983c d198 6e3c
000001e0: b553 e3bc e03a 4c3e faa5 ad3d 9d89 7b3c
000001f0: 826f 4fbc 458b b9ba 0397 f13d 9d82 a73c
00000200: f0ea 6d3d 638c 4b3e 4cec 233e dc25 aebd
00000210: 3820 54be 9842 a33d dff2 2dbe 8b18 73be
00000220: b9b1 2b3e 8a0f 55be b11d 6e3e 280b 72be
00000230: 38b8 68be 8e7a 123e 4a38 ee3c 77b5 c1bd
00000240: 2312 ae3d 3bfd 50be 69cd 0cbe e252 5dbe
00000250: bfa6 0ebe 4b3d 64be 58ed 463e 9dc5 d7bd
00000260: 301c af3d 2c84 0cbe f348 8fbd 6982 1b3e
00000270: bc57 993d b621 113e adce 923d 12d8 51be
00000280: ba24 0d3e fc29 6b3e 2b8d cb3d 695f 6c3e
00000290: 8c3f bbbd eec9 1fbe b8bb 7dbe b1bd dcbc
000002a0: 5ec1 9ebd 6c59 35be 767d f6bd 3fe6 9bbd
000002b0: 59ca 743e e693 51bd 49b2 4a3e 9118 9dbc
000002c0: 5a94 e13d 5648 3b3e aca7 75be 7e61 d9bd
000002d0: 1640 6bbe 89a6 713e 39a7 bd3d a6c8 b6bd
000002e0: 3196 16be cb3e 293e 2c36 1e3d b27d 15be
000002f0: a971 eebd dedc d7bd ad87 5f3d 03a2 6abe
00000300: 84e9 f9bc eeaa 2d3e 794c 063e 3772 f63c
00000310: 917d c23c a30b 483d c2e8 ee3d dcca 503e
00000320: 6058 8f3d 018a 033e 63b2 213e b9ce 51be
00000330: 8981 d3bd 4857 fc3d 3ec0 443d 01cf 09be
00000340: 88be 983d fce0 62be 4efa a1bd 0df5 d13d
00000350: 986e 213c 93bd 27be 54c2 f33d d12d 723a
00000360: 86e1 cebc 35a8 81be 001a aebd 3e3f debc
00000370: 047f 0dbe b8fe 963d 5787 45be 3571 403e
00000380: 1882 513e 9a2a 243e ef05 19bd e5c2 72be
00000390: 1bd9 f3bd bbfb 92bc b140 5ebe 2b0c 4c3e
000003a0: eb00 ad3d 6035 373e 5b3a 7fbe c8f2 12be
000003b0: 9d1a 723d a935 2cbb 891d 1bbe 0b61 3e3e
000003c0: 5752 e63d ce27 803c d4ce 7a3e 02aa 88be
000003d0: b10d 74be 57c5 a73d 57cb 483e 24eb 073e
000003e0: 05dc 3cbe 6e38 513e 5d67 263e c6fb 343d
000003f0: a4f2 273e 53c3 4b3d f7ac 183d c67e 84bd
-0.0617302 0.30843323 0.23986171 0.06839814 -0.18882692 -0.039842058 0.18546374 -0.1570482
-0.107537195 0.101613715 0.059518725 0.2282734 0.026807232 -0.011220261 0.05122519 -0.022165794
-0.22825108 -0.13227537 -0.21474333 0.15234496 0.022704909 0.03151514 0.025004119 -0.1466287
-0.111834526 -0.05197502 0.12913287 -0.23197712 -0.16387223 0.16344558 -0.12394583 0.177446
0.23298392 0.21012253 -0.22142796 0.025137186 -0.21960987 0.0012021083 0.030865287 -0.1012052
0.07778985 -0.085822865 0.13690682 0.0065696565 0.16584593 0.1599077 0.07176681 0.06790562
-0.08886177 -0.12141687 0.20633467 0.17308228 0.05405134 0.17713726 0.079137556 0.13472061
-0.03798224 0.062141616 -0.20942388 -0.22417232 0.118812695 -0.14083806 0.20465921 -0.2217796
-0.18343103 -0.2322152 0.1447894 -0.15127747 -0.24904259 0.08743963 -0.017520435 -0.2641387
0.21163054 0.16341096 0.21703629 0.09025025 -0.1865146 -0.096325755 -0.08640025 -0.20243762
0.16285767 -0.12843816 0.098800205 -0.1442871 0.1942248 0.12630284 0.19858395 0.10350375
0.2326395 0.06709426 0.05954511 -0.02785473 0.23028372 -0.26134124 0.18999277 -0.023230689
-0.028621651 -0.1436088 -0.12796946 0.06636976 -0.11017617 0.07215072 0.049628735 -0.20030853
0.11608824 -0.1113405 -0.094189726 -0.08135865 0.09251711 -0.2570001 -0.18100248 0.12716071
-0.08264634 -0.0717322 -0.21867716 0.011727465 0.12888128 -0.08108972 0.018607182 0.014562801
-0.027749876 0.19944334 0.08478923 0.015352634 -0.012660863 -0.0014155885 0.11796381 0.020448023
0.058085382 0.19877772 0.16008109 -0.08503315 -0.20715415 0.07971686 -0.16987179 -0.23739831
0.16767015 -0.20806709 0.23253514 -0.23637068 -0.22726524 0.14304563 0.029079575 -0.0945844
0.08499553 -0.204091 -0.13750233 -0.21613649 -0.13930796 -0.22289006 0.19426477 -0.105357386
0.08550298 -0.13722295 -0.06996336 0.15186466 0.07487437 0.14173016 0.071683265 -0.2049258
0.13783541 0.22965235 0.09939035 0.23083271 -0.0914298 -0.15604374 -0.2477864 -0.02694592
-0.077517256 -0.17709893 -0.120356485 -0.07612275 0.23905315 -0.051166438 0.19794573 -0.019176753
0.11014624 0.18289313 -0.23989743 -0.10614298 -0.22973666 0.23598684 0.09260411 -0.089249894
-0.14705731 0.1652786 0.03862588 -0.1459873 -0.11642773 -0.10540174 0.05457275 -0.22913365
-0.030506857 0.16959736 0.1311511 0.030083759 0.023741515 0.048839223 0.11665489 0.20389885
0.06999278 0.12845613 0.15790705 -0.20489015 -0.10327441 0.12321335 0.0480349 -0.13457872
0.07458216 -0.22156137 -0.0790907 0.10251818 0.009853028 -0.1638091 0.119022995 0.00092383946
-0.025254022 -0.25323644 -0.08501053 -0.027129766 -0.13817984 0.073728025 -0.1928991 0.18793185
0.20459783 0.16031876 -0.037359174 -0.23707159 -0.11906644 -0.0179423 -0.21704365 0.19926517
0.08447441 0.17891455 -0.24924605 -0.14350426 0.05910741 -0.00262771 -0.15147986 0.18591706
0.11246174 0.01564398 0.24492961 -0.26692206 -0.23833348 0.081919365 0.19608818 0.13273293
-0.18443306 0.20431682 0.16250367 0.044185422 0.16401154 0.049746823 0.037274327 -0.064694926

layers.0.norm2.weight f4 [48]
00000000: c9b6 823f 928a 803f ec8b 7f3f d324 843f
00000010: ea61 833f a7f6 883f 60e2 853f b1d9 813f
00000020: fe32 823f dda9 853f d805 823f 9f90 813f
00000030: f533 813f e6df 7f3f 1c03 823f 4eb9 813f
00000040: 5db0 813f ccae 833f 0f53 823f 84fb 7c3f
00000050: 0a12 7e3f 542a 7e3f 8774 7e3f 6467 803f
00000060: c600 7e3f b46a 813f 0da1 813f aa77 853f
00000070: d3bd 813f 1aae 813f acc8 823f a36f 823f
00000080: bfa5 7f3f 5a73 823f 148b 823f 31db 833f
00000090: b2d0 833f 3bc6 803f 3053 823f 4867 823f
000000a0: 3607 853f 1639 843f 4325 843f ccc7 853f
000000b0: 9eb7 803f 77c5 813f 4ed0 7f3f 1b6c 863f
1.0212032 1.0042288 0.9982288 1.0323738 1.0264256 1.0700272 1.0459709 1.0144559
1.0171812 1.0442463 1.0158033 1.012226 1.0093981 0.99951017 1.0157199 1.0134676
1.0131947 1.0287719 1.0181597 0.9882128 0.99246275 0.9928334 0.99396557 1.0031552
0.9921993 1.0110688 1.0127274 1.0427144 1.0136055 1.0131257 1.021749 1.0190319
0.99862283 1.0191453 1.0198693 1.0301267 1.0298064 1.0060495 1.0181637 1.0187769
1.0392826 1.0329921 1.0323871 1.0451598 1.0056036 1.0138386 0.9992722 1.0501741

layers.0.norm2.bias f4 [48]
00000000: 0293 fabb b444 0ebc 7284 b2bb 2107 983b
00000010: cb09 3c3c bef2 8dbb 9e85 1ebc 2ad6 833b
00000020: 9552 0ebb 96bf 263c 0725 00bc 4ae7 ad39
00000030: cdd8 1aba b743 47b9 02d6 66bb 9dcc 3f3c
00000040: 3dfc 61bb 0024 84bb b09f 213c 8246 11bc
00000050: 4077 cc3b a0b4 95ba ce74 073c ca0d 9ebb
00000060: 1770 133c 80a0 c03b 224c aaba f1b1 cb3b
00000070: 2f9a 1fbc bcb1 c63b e270 ad39 1d76 21bc
00000080: 2d2b 393b c9a6 a039 445d 9e3a 5b72 673b
00000090: 433f 6b3b be2b 15bb f96b 563a a46e d63b
000000a0: 6507 00bb 07de aa3a c9de 063b c503 35bc
000000b0: e6fb 32bb c32a c4bb 359b 373b c60b 24bc
-0.007646919 -0.008683372 -0.0054479176 0.0046395217 0.011476944 -0.0043319156 -0.0096754115 0.004023333
-0.0021716703 0.010177514 -0.007821328 0.00033169455 -0.00059069396 -0.00019003345 -0.0035222773 0.011706498
-0.003448262 -0.004032612 0.009864733 -0.008866908 0.0062398016 -0.0011421628 0.0082675945 -0.004823421
0.008998892 0.005878508 -0.001299266 0.0062162806 -0.00974135 0.006063668 0.00033081236 -0.009854821
0.0028254495 0.00030641843 0.0012082239 0.0035315964 0.0035895861 -0.0022761668 0.00081795413 0.006543951
-0.0019535657 0.001303614 0.0020579568 -0.011048262 -0.0027310788 -0.005986543 0.0028016095 -0.010012573

layers.0.ffn.0.weight f4 [192, 49]
00000000: 6ca8 513d 14ad c23d f14c 4abd d394 9ebc
00000010: ab75 04bd 2100 45be 043a 603d 79b2 17be
00000020: 96f1 973d 2ded f53d f253 9bbd f8da 6a3d
00000030: 8f1f adbc 3c40 603d 5e0c 463e fc3a 08be
00000040: 72b8 d53d d47d 2bbd aa45 8f3d 274e 6e3d
00000050: 9be3 8fbb 53d0 1cbe a560 9e3d d3b4 0bbe
00000060: e210 debd 6ccb d53d 2cc7 5fbc 437c bdbd
00000070: 9306 abbb 2633 013e 4fe9 90bd a38d 0ebd
00000080: 7e73 673d 964d a6bd 8474 ce3d 40b0 0c3e
00000090: 70bb 093d 8ce3 24be 8cd8 aabd ecc2 30be
000000a0: 1b8d 0ebe a849 6bbd d70c 8bbd bfc6 e7bd
000000b0: b4ee 843b ca06 0cbe 352b 0fbe a4d3 6ebd
000000c0: 6ed8 04be 5b01 ae3c 5616 b13c 94be 263c
000000d0: 81a8 eb3d 3b3d 9a3d 4b85 1b3e e089 e93d
000000e0: c90a c5bd f8b9 0f3d 55d0 f9bc 9bb1 d4bd
000000f0: 067d 193e 8971 afbd 51a5 9cbd 2f22 38be
00000100: e8c9 ebbd 9553 f73d b8e3 95bd f956 df3d
00000110: 731c 8e3d 3a77 063e 0705 a0bd 79bc e4bd
00000120: 0d3a 2e3e 6267 553c 02b2 41bd 34e2 003e
00000130: 90cd aabd 68ce 5cbc 158d 7e3d 9e41 e53d
00000140: b9d1 113d 0faf aeba 6aae e83d 32c2 3fbd
00000150: 506d 253d 6a15 9d3d 7c0c 303c fdcd c7bd
00000160: 9bd2 d83d 5055 b5bc 9634 f4bd 8320 53bb
00000170: 0ebb 503d 5a58 0cbe e7c7 cf3c 0267 17bd
00000180: 41ac cabc 6871 19bc 84d7 d8bd 675a 18bd
00000190: 0f40 96bc d9a2 d83d 0397 0cbe b3d1 39bc
000001a0: a619 4a3e a34a 003d 8b8d bcbd 9530 a6bc
000001b0: cff8 3b3d 3ba5 933d 9587 22bc 8337 18be
000001c0: 20a7 d1bc 1944 89bc 169d 8e3d c20d e73d
000001d0: e14a 62bd b832 efbc 158e e53d d1c7 8abc
000001e0: 7606 9e3c 0a58 24bc 4519 a63d 7fd5 b3bd
000001f0: dc2f 04be 2532 c0bd 2e8a 7a3d 2dea 25bc
00000200: e0c1 8c3d f195 9e3d 6a2b 363d 3c2c 053e
00000210: 770c d53d e8aa 3ebe 51fe a53d 79e7 00be
00000220: 18a4 903d 943d 043c a239 fdbd 6c83 93bd
00000230: 0234 1a3e 04f1 babd 51e7 bdbd 1cc2 a63d
00000240: 626f 383d 6413 f13c 7a22 dfbd 43d3 3fbd
00000250: 2f8c d2bd cfc7 483d 1dfc 0a3d 9a3b 9abd
00000260: e634 92bd 4e45 be3d ad26 043a 27a1 f63c
00000270: 7726 9ebd c09c edbd 0b9c df3d d274 163e
00000280: fcb0 f03d 6161 e0bd 9047 8ebd bbc4 d1bd
00000290: 78bb 0d3e 4aeb d73d 021c 6fbd 64e2 0c3c
000002a0: 6567 cc3d 4365 f33d 1581 3cbd 1407 dcbc
000002b0: 82a3 f7bd 0d83 11be fd98 bfbc 8bb5 09bd
000002c0: cb01 913d 9acb 023e b939 11bd fce1 5e3d
000002d0: a3fa a9bb d041 be3d 2a18 1ebe 6063 15bd
000002e0: 5afb 30bd 3f7d cb3d d540 783d 12bd 7d3d
000002f0: eaa4 5e3d e3db 90bd e1da debd 6b4f b1bd
00000300: da39 00bd de8f a1bd c5ed 0c3d cb6d da3d
00000310: a0ef b73d 78d5 873d fb48 b13d 6d43 bd3b
00000320: 053b 51bd 33e8 54bd c032 173e 5f8f 293c
00000330: 15ff 80bc adc6 98bd 95f6 e2bd fb29 153d
00000340: 770e 0a3d e25a e83d 90af f0bc e551 213e
00000350: 2277 1d3c f6a3 fd3d 823d ebbd 3566 823c
00000360: 123d 0c3e 6c14 fe3c e2c6 bfbd 6fa8 e33d
00000370: aa87 d8bd 62da d63c 683b d4bd c37e 223e
00000380: 7d56 053d 9fd8 b83c 1a17 e43b f269 dcbc
00000390: bd8f e6bd fa19 f93d 21f2 f93d 9950 f4bd
000003a0: 9d4a c7bd 5d28 bb3d c3b5 d1bd 322a 243d
000003b0: cccf 90bd 7154 54bd 6fcd 053e 69b1 04bd
000003c0: 1f97 333d 4c94 d1bd caa0 ea3d ec9e 2bbe
000003d0: 6afe 01be 2fc3 16be 2f42 09be 981f 4ebc
000003e0: 3c6f eebd 9cfe a13c d061 52bd b3c7 3c3d
000003f0: 3b51 00ba b699 7f3d d31e 50bd e4b7 d6bd
0.05118601 0.09505668 -0.049389783 -0.019358074 -0.03233878 -0.1923833 0.054742828 -0.14814176
0.07419126 0.12008128 -0.07584371 0.05733773 -0.021133212 0.05474876 0.19340655 -0.13303751
0.10435571 -0.041868046 0.06995709 0.05818 -0.0043911464 -0.15313844 0.07733277 -0.13643198
-0.10843064 0.1043919 -0.013658326 -0.09252217 -0.0052192896 0.12617168 -0.0707575 -0.034803044
0.056506626 -0.08120267 0.10080817 0.13739109 0.03362602 -0.16102427 -0.08342084 -0.17261857
-0.13921015 -0.05744329 -0.067895584 -0.11317205 0.004056776 -0.13674465 -0.13981326 -0.058307305
-0.12973186 0.02124088 0.021617096 0.010177273 0.11506749 0.0753121 0.15187566 0.11403251
-0.09621198 0.035089463 -0.030494848 -0.10385438 0.14989099 -0.08566577 -0.07648719 -0.1798179
-0.1151312 0.12076489 -0.073188245 0.109052606 0.0693902 0.13131419 -0.07813459 -0.11168761
0.17014332 0.013025137 -0.047288902 0.1258629 -0.08339989 -0.013476945 0.062146265 0.11194156
0.035600398 -0.0013327318 0.11361392 -0.04681606 0.04038745 0.076701 0.010745164 -0.09756086
0.10587045 -0.022135407 -0.119240925 -0.0032215423 0.05095964 -0.13705578 0.025363876 -0.03696347
-0.02474034 -0.009365417 -0.10587981 -0.03719559 -0.018341092 0.10577936 -0.13729481 -0.0113415
0.19736347 0.03132118 -0.09206685 -0.020286838 0.04589158 0.072092496 -0.009920021 -0.14864926
-0.025592387 -0.016756104 0.069635555 0.11281921 -0.05524719 -0.02919899 0.112087406 -0.016940983
0.01929019 -0.010030756 0.081102885 -0.087809555 -0.12908882 -0.09384564 0.061166935 -0.010126633
0.06872916 0.07743443 0.044474997 0.13005155 0.10402768 -0.18619883 0.08105148 -0.125883
0.070625484 0.008071322 -0.12364508 -0.07202801 0.15058902 -0.09128001 -0.09272636 0.08142492
0.045028098 0.029428191 -0.10895248 -0.046832334 -0.10280644 0.049018677 0.03393184 -0.07530899
-0.07138996 0.092905626 0.00050411635 0.03010614 -0.0772218 -0.11602163 0.10918435 0.14693001
0.11752507 -0.109560736 -0.06947243 -0.102426015 0.13841045 0.10542925 -0.05837632 0.008598898
0.099806584 0.118845485 -0.04602154 -0.026858844 -0.120917335 -0.14210148 -0.02338838 -0.0336204
0.0708042 0.1277298 -0.03545544 0.054414734 -0.005187349 0.092898965 -0.15438905 -0.036471725
-0.043208458 0.09935998 0.060608704 0.06194789 0.054356493 -0.0707319 -0.108815916 -0.08657726
-0.03130517 -0.078887686 0.034406442 0.106654726 0.08981252 0.06632513 0.08656498 0.00577586
-0.051081676 -0.051979255 0.14765453 0.010349124 -0.015746633 -0.074597694 -0.11082188 0.03641699
0.0337052 0.113454595 -0.02938059 0.15753897 0.009610923 0.12384789 -0.11486341 0.015917877
0.13695171 0.031015597 -0.09364106 0.111161105 -0.10572751 0.02622718 -0.10362893 0.15868668
0.032553185 0.02256423 0.0069607617 -0.026905987 -0.11257885 0.12163158 0.122043855 -0.11929435
-0.09731028 0.09138558 -0.102397464 0.040079303 -0.07070884 -0.051838342 0.13066648 -0.032395754
0.043845292 -0.102333635 0.11456449 -0.16759843 -0.12694708 -0.14722894 -0.13404153 -0.012580775
-0.1164231 0.019774728 -0.051362813 0.046088886 -0.0004894917 0.06240245 -0.050810646 -0.10484293

layers.0.ffn.0.bias f4 [192]
00000000: d127 95bd a599 25be b5f9 263c 67c0 1cbd
00000010: a000 e9bd 709a 5e3d a296 913d 1fcd 9d3c
00000020: 56ab f1bd 2967 44bd 3cbc 11be 0233 38bd
00000030: eb14 973d 7eee 853d 9fc6 15be 283c b4bc
00000040: f29f 9cbd 0602 bc3d 42e2 093e 115e 0fbe
00000050: c459 97bd b9bd ec3c 39dc 08be 9c84 1ebe
00000060: bb23 a2bd 094f c23d 02ce d53c eebf c8bd
00000070: 31ab dfbc 4ce8 e53d bb5e 0ebe c2a1 3c3d
00000080: 90a1 77bd c54b 1ebe a029 d73d 25a2 bdbd
00000090: 7c6c dd3d 222e d73b 67e8 293d 7a9d bdbc
000000a0: e04c 13be 289c 883d 2fbf 89bd 9706 573d
000000b0: 5c58 f43d 8667 26bd 9df5 0fbc 741e 423d
000000c0: 869a a1bd 1d20 733d 2292 e4bd a776 8a3d
000000d0: 30db a1bd 09b6 32bc 05d1 80bd 432d cfbb
000000e0: 5e9c c73d ef89 f33b a530 74bd e2ef c03d
000000f0: 8a0f e73d 8127 a0bd c358 06be b80d f8bd
00000100: 1aa0 4b3c 774d 193e 5987 d63c 4bbc 373d
00000110: f1b6 11be b31f 2b3d 47a7 613d 5b5f 9dbd
00000120: c645 02be 71d7 a6bb 257b fdbd 2571 063e
00000130: 63ff cdbd 933b df3d 318d 09be 63f8 a53d
00000140: da4a a0bd de8c 04be cb2f 143d 59c7 da3d
00000150: c4fb bbbd 5038 84bb 4e90 01be d40a f23d
00000160: 198e db3d c276 06bd fc5f 033e 6b90 873d
00000170: 8871 ad3b 4272 b9bd ef04 b43d 2b70 0dbd
00000180: 26b7 b2bd 8b31 1fbe 814d 41be 1517 003e
00000190: 8ebe afbd 0f24 ecbd e6cb 8e3d a033 46bd
000001a0: 5ece 09be 9370 e33a d05a 3abd 67fa 093d
000001b0: addf 093e c55d 39bd 045d 963d 2cb9 19bd
000001c0: b4f2 7ebd 55d3 813d 1fdb 25bd 68b0 d53c
000001d0: 0504 323d b5ca 07be aafd 21bd e46a cb3d
000001e0: c27a 80bc d362 ec3d 45ab fe3d a684 6dbd
000001f0: 6f77 96bd 2e34 363d 95fe 03bd ca8d e1bc
00000200: 6e77 9abc f7c3 adbd 3910 963d 514d a8bd
00000210: 90f6 0abe a0cb 0ebe b3fd e6bd f16d c33b
00000220: e378 1bbe 2f37 9c3d 373c d9bd 50ab 8abb
00000230: c10c 6abd 687c 6fbd 89f4 b73d 59ac 8cbd
00000240: ca51 b13c 1559 9f3d eb1a 6d3d 73d1 813d
00000250: b148 e1bc a08e b4bd 69dc 7fbd d562 053e
00000260: 83cc 17be 5d89 82bd 6179 c93d 84b2 d7bc
00000270: 01fa 0dbe 54f6 fa3d c6e6 5cbd d91a 263d
00000280: 18f4 603d c3af a3bd 5ad4 08be 3f80 01bd
00000290: 3779 02be ebee d3bd 4d61 0dbe 7bdf 4d3d
000002a0: bfff 04be 98b0 3e3d 438c d53d 508b 703d
000002b0: 4693 4b3d 8302 79bc a480 a33d 7c39 263e
000002c0: aad5 df3c 6cc9 503d dfaa 643d f53b e03b
000002d0: ae6d cc3d 0107 d23c 9b34 b2bd db50 dbbd
000002e0: 6686 423c ac56 0abe 39b8 17be bfee f53d
000002f0: 202e c53d b9a8 5fbd 6e16 8e3d 2443 943c
-0.07282985 -0.16171892 0.010191371 -0.038269427 -0.11377072 0.0543465 0.07108809 0.019262848
-0.11800258 -0.047949944 -0.14231962 -0.04497052 0.07377037 0.065396294 -0.14626549 -0.022001341
-0.07647695 0.091800734 0.13465217 -0.14000727 -0.07390168 0.02889906 -0.13365258 -0.15480274
-0.07916971 0.09487731 0.026099209 -0.09802233 -0.02730331 0.11225948 -0.13903324 0.0460527
-0.060456812 -0.15458591 0.10505986 -0.09259442 0.108117074 0.0065667788 0.0414814 -0.02314638
-0.14384794 0.066704094 -0.067259185 0.05249652 0.11930916 -0.04062607 -0.008786586 0.047392324
-0.07890801 0.059356797 -0.11160685 0.067609124 -0.07903135 -0.010907658 -0.06289867 -0.0063225343
0.097466215 0.0074322145 -0.059616704 0.09420754 0.11282261 -0.07820035 -0.13119797 -0.12111992
0.012428308 0.14970957 0.026187586 0.044857305 -0.14229943 0.041778278 0.05509117 -0.07684203
-0.12721929 -0.0050916006 -0.123770036 0.13129099 -0.10058477 0.10900035 -0.13432766 0.08104017
-0.07826777 -0.12944362 0.03617839 0.10682554 -0.0917888 -0.0040350333 -0.12652704 0.118184716
0.10720462 -0.0328281 0.12829584 0.066193424 0.005293075 -0.09054996 0.087900035 -0.0345308
-0.08726339 -0.15546243 -0.18877222 0.12508805 -0.08581267 -0.11530315 0.06972484 -0.048389077
-0.13457629 0.0017352275 -0.04549676 0.033686068 0.13464232 -0.04525544 0.0734196 -0.03753011
-0.06224318 0.063391365 -0.040492173 0.026085094 0.043460865 -0.1326092 -0.039548554 0.09932497
-0.015683535 0.11542287 0.12435011 -0.05798783 -0.07346999 0.044483356 -0.03222521 -0.02753343
-0.018855777 -0.08484643 0.07327313 -0.08217872 -0.13570619 -0.13944864 -0.11278858 0.005964034
-0.15182833 0.07627713 -0.10607188 -0.004231848 -0.05714107 -0.058468252 0.08982188 -0.0686881
0.021645445 0.07780663 0.057887 0.063387774 -0.027500482 -0.08816266 -0.06246606 0.13025983
-0.14824109 -0.06373856 0.09837604 -0.02633024 -0.138649 0.122540146 -0.05393102 0.040552948
0.054920286 -0.07992508 -0.13362256 -0.031616446 -0.12741552 -0.10348304 -0.13806649 0.050261956
-0.12988184 0.04655513 0.104271434 0.05872661 0.049700998 -0.015198353 0.079835206 0.16232866
0.027323563 0.05097334 0.055827018 0.006843085 0.09981857 0.025638105 -0.0870144 -0.10708781
0.011872863 -0.13509625 -0.14816369 0.12008428 0.09627938 -0.054604266 0.06937872 0.018098421
