Checkpoints/expr3d_forward_hard_x/best_model.pth (torch, 526562 bytes, 76 tensors)

embedding.weight f4 [48, 16]
0.18861005 0.19932552 -0.055358164 0.22228004 -0.054330405 0.036540817 -0.12355764 0.1440631
0.23414016 -0.20120631 0.19352198 0.036657147 0.16741666 0.034585003 0.14641622 -0.054601982
0.20863026 0.050823655 -0.09866974 0.0759252 -0.098431244 -0.017364966 -0.08406578 0.18222222
-0.1762985 -0.11186458 -0.06358481 -0.13701893 0.02825606 -0.2331385 0.2438166 -0.22609127
0.17894043 0.028300414 -0.090625696 0.14471003 0.02797477 0.18591247 0.013975602 -0.08505221
0.06699529 -0.098731324 0.08063631 0.20051084 0.11939188 -0.12194392 0.15354665 0.028079545
0.13501321 -0.14635673 -0.23685594 -0.09241381 -0.18431424 0.20949984 0.083025366 0.11261249
0.092336275 -0.0054379264 0.20041063 -0.17076063 0.012176082 -0.1631682 0.09208589 -0.100197285
0.079144746 -0.06789616 0.2099814 -0.15484522 -0.16449714 -0.16130854 0.23105414 0.08353197
0.25364318 -0.21928924 -0.24814022 -0.1858049 -0.17301023 0.11613573 0.11420902 0.22801602
-0.14148307 -0.16601117 0.13494876 -0.09331093 0.16612351 -0.054867033 0.139921 -0.18946917
-0.12660185 0.087919556 0.04359586 -0.06809731 0.16113621 0.1687384 -0.19363904 -0.14822826
0.2302088 -0.07876393 -0.08815275 -0.23365983 -0.14281 0.06987006 -0.032366205 -0.17668882
0.0012193875 -0.1677547 -0.2058974 -0.1370706 -0.20797662 -0.15847309 0.24005315 0.051957857
0.09593547 -0.20343731 -0.14441292 -0.061638344 0.07092987 -0.18174373 -0.08733867 -0.13400388
-0.00406363 -0.029213026 0.034621116 -0.13753924 -0.13558863 -0.12830606 -0.07732802 -0.213506
0.1938114 -0.067189865 0.19830987 0.05925129 -0.2340999 0.15288672 -0.08922905 -0.11952849
-0.23404033 -0.25238606 0.06301504 -0.06855223 0.0870599 -0.22269164 0.15896675 -0.17710716
-0.063626714 0.034059357 0.11629159 0.18358135 0.21762906 -0.21299277 0.050372254 -0.12196792
-0.047786247 -0.21240245 0.21044113 -0.19717982 0.11012005 0.06430511 0.06948435 -0.13314253
0.2285675 0.054799963 0.03192788 -0.2260338 0.10760695 -0.04045135 -0.11430005 0.21476813
0.060927026 -0.15266083 -0.13884042 -0.015571165 0.12908013 -0.06879801 -0.14293405 -0.09426719
-0.20951775 0.08402628 0.17556077 -0.23635598 0.060639415 0.12050756 0.03041701 -0.08967642
0.1324383 0.11016381 0.05888282 -0.07093372 -0.07434857 0.014646291 -0.055662863 -0.06422746
0.14778663 0.20199463 -0.02627616 -0.061349828 -0.016150115 -0.030137923 0.051810496 0.06502822
-0.25396597 -0.13434142 0.18686548 0.0787399 -0.036997285 -0.1759107 -0.16607289 -0.2382693
-0.077540584 0.06474015 0.16018784 0.104965605 -0.24908753 -0.1715494 -0.040328976 0.2319446
0.039291892 -0.084454134 0.09998732 -0.0891991 -0.17191114 0.1856662 -0.11797632 -0.05209684
-0.24813105 0.16516672 0.19093746 0.086778454 -0.17654273 -0.24890298 -0.20086196 0.18673399
0.12275791 0.20639944 0.1342605 0.067568645 -0.00956217 -0.19190829 -0.21731608 -0.23752433
0.112954855 -0.1167778 -0.052977204 -0.14306575 -0.05401779 -0.1631339 -0.16014439 0.08014903
-0.091141194 0.17425598 -0.044453695 -0.16731416 -0.028774591 -0.1205458 -0.09427562 -0.21223937
00000000: fe22 413e fd1b 4c3e 3ebf 62bd 619d 633e
00000010: 8f89 5ebd d3ab 153d ca0b fdbd 4785 133e
00000020: 70c2 6f3e 0709 4ebe a02a 463e ce25 163d
00000030: 466f 2b3e 01a9 0d3d 22ee 153e 54a6 5fbd
00000040: 2ca3 553e 772c 503d 5c13 cabd ac7e 9b3d
00000050: 5296 c9bd f940 8ebc ae2a acbd 7698 3a3e
00000060: 9887 34be 4219 e5bd c138 82bd b14e 0cbe
00000070: 4179 e73c dcbb 6ebe 0fab 793e 7884 67be
00000080: 293c 373e 45d6 e73c f799 b9bd de2e 143e
00000090: 582b e53c d75f 3e3e ecf9 643c da2f aebd
000000a0: d434 893d a633 cabd a624 a53d b752 4d3e
000000b0: bb83 f43d bcbd f9bd 553b 1d3e 1307 e63c
000000c0: e740 0a3e 8ade 15be 5d8a 72be 7443 bdbd
000000d0: dfbc 3cbe 2087 563e 3409 aa3d 61a1 e63d
000000e0: cd1a bd3d a230 b2bb 7238 4d3e e0db 2ebe
000000f0: 307e 473c 9115 27be 8797 bc3d 3c34 cdbd
00000100: a416 a23d 240d 8bbd 5d05 573e bf8f 1ebe
00000110: f071 28be 112e 25be 7599 6c3e cf12 ab3d
00000120: 85dd 813e 5c8d 60be 7818 7ebe a443 3ebe
00000130: 9829 31be 92d8 ed3d 6be6 e93d 087d 693e
00000140: f0e0 10be d5fe 29be 0230 0a3e cd19 bfbd
00000150: 481c 2a3e 41bc 60bd 7347 0f3e 3504 42be
00000160: eaa3 01be 2b0f b43d 9391 323d 9a76 8bbd
00000170: e400 253e c2c9 2c3e 5049 46be 26c9 17be
00000180: dbbb 6b3e fc4e a1bd 6e89 b4bd 8644 6fbe
00000190: c93c 12be 0918 8f3d 6d92 04bd eaed 34be
000001a0: dbd3 9f3a e3c7 2bbe c5d6 52be 3c5c 0cbe
000001b0: d3f7 54be c546 22be 7ed0 753e c3d1 543d
000001c0: d179 c43d df51 50be fbe0 13be 7d78 7cbd
000001d0: ae43 913d 071b 3abe 9ede b2bd 5038 09be
000001e0: 3328 85bb 2850 efbc dfce 0d3d 16d7 0cbe
000001f0: bfd7 0abe aa62 03be 275e 9ebd 51a1 5abe
00000200: 7f76 463e d79a 89bd be11 4b3e 7bb1 723d
00000210: e2b7 6fbe 568e 1c3e b8bd b6bd 5acb f4bd
00000220: 45a8 6fbe bf38 81be 070e 813d 1d65 8cbd
00000230: 764c b23d 4709 64be 2ec8 223e 945b 35be
00000240: b94e 82bd d381 0b3d 492a ee3d c0fc 3b3e
00000250: 27da 5e3e c71a 5abe 2353 4e3d 51ca f9bd
00000260: 83bb 43bd 0780 59be e17d 573e 82e9 49be
00000270: 9f86 e13d 66b2 833d d04d 8e3d 8456 08be
00000280: 990d 6a3e ed75 603d cfc6 023d 6875 67be
00000290: 0861 dc3d 51b0 25bd 2516 eabd 2dec 5b3e
000002a0: 9e8e 793d 1f53 1cbe 2f2c 0ebe 331e 7fbc
000002b0: 952d 043e f9e5 8cbd 4e5d 12be 280f c1bd
000002c0: d28b 56be f815 ac3d 34c6 333e 4d07 72be
000002d0: 0961 783d abcc f63d 182d f93c 45a8 b7bd
000002e0: e89d 073e 909d e13d 1d2f 713d b345 91bd
000002f0: 1044 98bd fff6 6f3c befe 63bd b089 83bd
00000300: 6155 173e aed7 4e3e 1a41 d7bc f549 7bbd
00000310: 3f4d 84bc cee3 f6bc 3e37 543d 842d 853d
00000320: d407 82be cc90 09be aa59 3f3e 6242 a13d
00000330: 778a 17bd ef21 34be 030f 2abe defc 73be
00000340: 99cd 9ebd 7c96 843d 4808 243e 35f8 d63d
00000350: cd10 7fbe a5aa 2fbe ff2f 25bd e382 6d3e
00000360: 89f0 203d 4af6 acbd 27c6 cc3d 05ae b6bd
00000370: 7909 30be 481f 3e3e 929d f1bd 7f63 55bd
00000380: 1116 7ebe 7721 293e 1c85 433e e7b8 b13d
00000390: 9ec7 34be 6ce0 7ebe c2ae 4dbe 3237 3f3e
000003a0: 8068 fb3d 605a 533e 967b 093e 6e61 8a3d
000003b0: a6aa 1cbc 9b83 44be 1b88 5ebe 9439 73be
000003c0: e054 e73d 3329 efbd a0fe 58bd d47f 12be
000003d0: c241 5dbd 930c 27be e4fc 23be 2d25 a43d
000003e0: 3ca8 babd 2970 323e 1415 36bd 6754 2bbe
000003f0: b1b8 ebbc b7e0 f6bd 9413 c1bd 4755 59be

embedding.bias f4 [48]
-0.093308285 0.2934288 0.13200511 0.15301141 -0.1417629 -0.13475984 -0.088674895 -0.1356393
-0.19392283 0.0679164 0.065129586 -0.007490061 0.0399558 -0.060843665 0.117437646 0.070085995
-0.14703955 -0.28509223 0.13169378 0.091572404 -0.14909701 0.24810602 -0.10022963 0.13573642
0.15048657 -0.22701806 0.19326177 -0.2649504 -0.17299896 0.00627481 -0.20510031 0.2739245
-0.06375743 0.13465187 -0.2589313 0.1614064 -0.07990776 -0.22932363 0.069738165 0.07276496
0.26272526 -0.19129884 -0.16515437 0.0893667 0.09186021 0.120911166 0.17288327 -0.018665966
00000000: 6a18 bfbd 4d3c 963e 592c 073e 06af 1c3e
00000010: 4b2a 11be 7cfe 09be 2f9b b5bd 07e5 0abe
00000020: b593 46be c117 8b3d a962 853d 306f f5bb
00000030: b1a8 233d 3537 79bd 2683 f03d 3f89 8f3d
00000040: 8991 16be 9cf7 91be bcda 063e 508a bb3d
00000050: e3ac 18be 810f 7e3e 3145 cdbd 7dfe 0a3e
00000060: 2719 1a3e 6c77 68be 6ae6 453e 94a7 87be
00000070: a426 31be ec9c cd3b d105 52be d53f 8c3e
00000080: 4193 82bd 2ee2 093e a592 84be b847 253e
00000090: aea6 a3bd d0d3 6abe e2d2 8e3d cc05 953d
000000a0: ed83 863e d8e3 43be 3a1e 29be e305 b73d
000000b0: 3521 bc3d 46a0 f73d 5008 313e 5ee9 98bc

layers.0.self_attn.in_proj_weight f4 [144, 48]
0.13176784 0.018777546 0.16542232 0.17374627 0.15366828 -0.19856995 0.004135327 -0.05672699
0.049382836 -0.12306063 0.08493686 -0.0070089586 -0.07554653 -0.1612872 0.13441272 -0.05199703
0.13667929 -0.050127193 0.059091013 -0.03662975 -0.019313762 -0.055909492 -0.14787956 0.11686547
-0.020141723 0.0883318 -0.030585097 0.01148623 0.15923156 -0.14239773 0.12648156 0.077785745
-0.19248138 0.05717464 0.079501584 0.16924831 -0.23089461 0.13883393 0.14070849 0.17672643
0.100454286 -0.18625838 0.13398498 0.17004903 -0.038211763 -0.031250566 0.20239596 0.18960956
0.10389178 0.0658737 -0.12130559 -0.05767151 -0.04256954 0.12194784 0.068171844 -0.11410126
-0.0401181 -0.16930267 -0.21155293 0.14867374 -0.13723248 0.07147509 -0.09865102 -0.027286833
-0.014139884 0.19814983 -0.01496916 0.122239 0.12368195 0.13074733 -0.15890913 -0.08119456
-0.15184489 0.062712826 -0.030560898 0.14364688 0.18416905 0.085641176 -0.10636034 -0.195694
0.20768088 -0.023393238 0.056317307 -0.0815872 0.097399965 0.08466152 -0.15502004 0.13000564
0.021112794 0.0052337297 -0.061458785 -0.07011651 -0.0452899 -0.056509748 0.04598583 -0.19159397
-0.085927695 -0.0400176 0.06838568 0.02381607 -0.018452998 0.12539284 -0.16735794 0.04707375
-0.04353228 -0.015778124 -0.123277225 -0.15177692 -0.11484728 0.11163765 -0.06047083 0.084638774
-0.07856329 -0.013134322 0.014956928 0.15315458 -0.047598988 0.08800683 0.06695508 0.096737854
0.05133207 0.011651093 -0.06797756 -0.12234685 0.07437856 0.08573633 -0.024530718 0.13203755
-0.21824563 0.13375074 -0.014558772 -0.12710266 -0.18049529 -0.15756729 0.071549624 -0.11981932
0.013702517 -0.076656014 -0.090029575 0.024376063 0.036820408 0.056446195 0.22434458 -0.030188885
0.098369315 -0.056157116 -0.11594453 -0.11936747 0.08506994 0.042481057 0.0031242843 -0.08188795
0.09865441 0.018813891 -0.17932913 -0.062161345 -0.07692455 -0.051421404 -0.15020137 -0.14853548
0.17076287 -0.07022377 0.1647346 -0.15284628 -0.038634423 -0.07666427 -0.07944021 0.05345192
0.041545894 -0.05473793 -0.09271953 0.17355835 -0.0101078125 0.057092592 0.109921135 -0.12901045
-0.080386475 0.03545175 -0.043198407 -0.11742248 -0.0040986594 -0.065017566 0.16201249 0.03479941
0.061325528 0.13502453 -0.08428313 0.11358261 -0.06545364 -0.039652064 0.08243042 -0.08822152
0.023458933 -0.23574045 0.057381094 0.039137945 -0.121999174 0.13426451 0.042935405 -0.06870203
0.11983445 0.047816608 0.00077481207 -0.08471253 -0.1626984 -0.10223193 -0.001535059 0.05381226
-0.12415331 0.21463771 0.10907475 -0.09250047 0.11959381 -0.06499279 0.050020408 0.15299681
-0.17218445 0.012948639 -0.004398316 0.14298685 -0.14268516 -0.10505651 0.0018838175 -0.11540878
0.1257384 -0.030211492 0.043092784 0.019051388 0.17091218 0.028101422 0.019242264 0.13470641
-0.14278328 0.04362799 0.08592314 -0.15784189 0.042027302 0.092629015 -0.09200424 -0.1353289
0.0069307345 -0.23905078 -0.17422621 0.1256674 -0.14640316 -0.1290591 -0.06379886 0.014045684
0.009407925 -0.100951605 -0.063277036 -0.04203476 0.10510579 0.14479497 0.0013985799 -0.012761908
00000000: 26ee 063e 5ed3 993c 7864 293e 8bea 313e
00000010: 385b 1d3e ec55 4bbe a381 873b 8f5a 68bd
00000020: a845 4a3d 3607 fcbd 60f3 ad3d 68ab e5bb
00000030: 24b8 9abd 7928 25be 7da3 093e d6fa 54bd
00000040: a8f5 0b3e 2c52 4dbd 6b09 723d 1409 16bd
00000050: e537 9ebc 5a01 65bd bd6d 17be 2a57 ef3d
00000060: 4100 a5bc 4ee7 b43d 998d fabc be30 3c3c
00000070: 990d 233e b6d0 11be 6284 013e 224e 9f3d
00000080: d719 45be f52f 6a3d bad1 a23d 6e4f 2d3e
00000090: a36f 6cbe 7b2a 0e3e e315 103e c6f7 343e
000000a0: faba cd3d 84ba 3ebe 5c33 093e 5521 2e3e
000000b0: f083 1cbd 9800 00bd e340 4f3e 0229 423e
000000c0: 37c5 d43d cae8 863d 116f f8bd f638 6cbd
000000d0: 665d 2ebd cabf f93d ae9d 8b3d ecad e9bd
000000e0: e052 24bd ae5d 2dbe 55a1 58be ee3d 183e
000000f0: ac86 0cbe 8861 923d 8c09 cabd a388 dfbc
00000100: f9aa 67bc cae7 4a3e 3541 75bc 7158 fa3d
00000110: f64c fd3d a1e2 053e 13b9 22be 5549 a6bd
00000120: 3a7d 1bbe 956f 803d d95a fabc 2b18 133e
00000130: d096 3c3e a464 af3d 73d3 d9bd 0264 48be
00000140: 4caa 543e 2da3 bfbc faac 663d 3117 a7bd
00000150: a279 c73d 0563 ad3d 93bd 1ebe 3320 053e
00000160: bdf4 ac3c b57f ab3b 35bc 7bbd 3f99 8fbd
00000170: e781 39bd c476 67bd a35b 3c3d 3631 44be
00000180: dcfa afbd 7fe9 23bd cb0d 8c3d eb19 c33c
00000190: be2a 97bc fb66 003e e15f 2bbe 68d0 403d
000001a0: e74e 32bd 2041 81bc c578 fcbd 696b 1bbe
000001b0: 0d35 ebbd 48a2 e43d 43b0 77bd 1857 ad3d
000001c0: cae5 a0bd 5731 57bc e70d 753c 8ed4 1c3e
000001d0: 28f7 42bd ed3c b43d bf1f 893d 7f1e c63d
000001e0: 9441 523d 3ae4 3e3c d237 8bbd fc90 fabd
000001f0: c953 983d 8796 af3d a5f4 c8bc da34 073e
00000200: c87b 5fbe f4f5 083e ea87 6ebc 3327 02be
00000210: c2d3 38be 5259 21be 9c88 923d d563 f5bd
00000220: 8680 603c d4fd 9cbd 6d61 b8bd 4fb0 c73c
00000230: ffd0 163d 2034 673d 96ba 653e ae4e f7bc
00000240: da75 c93d 0105 66bd 5374 edbd ef76 f4bd
00000250: 2639 ae3d 9e00 2e3d cbc0 4c3b dfb4 a7bd
00000260: 530b ca3d 971f 9a3c 0ea2 37be e59c 7ebd
00000270: 9e8a 9dbd 409f 52bd 63ce 19be af19 18be
00000280: 76dc 2e3e 7bd1 8fbd 30b0 283e bc83 1cbe
00000290: 213f 1ebd 2802 9dbd 8cb1 a2bd 67f0 5a3d
000002a0: 072c 2a3d e134 60bd bde3 bdbd 48b9 313e
000002b0: 3d9b 25bc ecd9 693d 551e e13d 511b 04be
000002c0: aaa1 a4bd db35 113d d0f0 30bd 327b f0bd
000002d0: 0c4e 86bb ee27 85bd 9ae6 253e d389 0e3d
000002e0: 7a30 7b3d df43 0a3e a29c acbd 009e e83d
000002f0: 8f0c 86bd 346a 22bd 48d1 a83d 7cad b4bd
00000300: f32c c03c f265 71be 7008 6b3d 1c4f 203d
00000310: b4da f9bd a37c 093e 09dd 2f3d a6b3 8cbd
00000320: c46b f53d 59db 433d c21c 4b3a c37d adbd
00000330: 699a 26be f95e d1bd 0834 c9ba 3f6a 5c3d
00000340: 1744 febd fdc9 5b3e 9562 df3d e370 bdbd
00000350: 99ed f43d f11a 85bd 33e2 4c3d 32ab 1c3e
00000360: 1f51 30be 8726 543c c01f 90bb 256b 123e
00000370: 0f1c 12be de27 d7bd 6dea f63a 705b ecbd
00000380: 91c1 003e 177e f7bc 0f82 303d a811 9c3c
00000390: 9a03 2f3e f434 e63c f4a1 9d3c 7af0 093e
000003a0: c835 12be 43b3 323d 79f8 af3d 4ea1 21be
000003b0: d224 2c3d 48b4 bd3d b86c bcbd a993 0abe
000003c0: 371b e33b bac9 74be 5b68 32be f4ae 003e
000003d0: b6ea 15be 1228 04be faa8 82bd de1f 663c
000003e0: b323 1a3c b7bf cebd 6497 81bd a42c 2cbd
000003f0: b441 d73d 2245 143e 8e50 b73a 5217 51bc

layers.0.self_attn.in_proj_bias f4 [144]
0.04130992 -0.05303446 0.026330087 -0.050324976 -0.05116782 -0.04680823 0.05215974 0.047524706
-0.057584457 -0.054993264 0.04180843 0.038079236 -0.055337723 -0.0056255055 0.031538762 0.03102556
0.023342842 -0.024130365 -0.013650832 0.07936187 -0.017515216 -0.0010578745 0.0024775334 0.024605354
-0.02421536 0.019216035 0.010148959 -0.004299659 -0.010903751 0.051931787 0.011331304 -0.0068706525
-0.0015679639 -0.04780646 0.032039423 -0.017069343 0.012346366 0.031087378 -0.009624594 -0.03562938
0.008150972 0.02672493 0.01566497 -0.036744002 0.033029716 -0.03254139 0.037106954 -0.03897129
3.289267e-05 -9.3690205e-06 8.537484e-05 -0.00011610388 -4.5796933e-05 -6.181885e-05 3.9597457e-05 6.1987295e-05
0.0002572153 0.00020893059 -0.00016039981 0.00010865572 -0.00023902116 -1.35636255e-05 -1.5222403e-05 -8.504671e-05
7.110613e-07 -1.3139743e-05 6.208962e-05 0.0004012982 9.909577e-05 -2.6466401e-05 -6.236311e-05 0.0001136005
-7.992987e-05 9.853762e-05 -2.2036358e-05 0.00040087267 0.00012362201 0.00019999887 0.0003757727 -0.00019153455
-5.8851252e-05 -1.8735584e-05 8.922258e-05 -8.250034e-05 0.00010720823 -6.8695704e-06 -4.6064182e-05 -0.00055026164
2.3886327e-05 -0.00017286206 4.9267222e-05 0.00014853808 0.00024033707 -0.00014437913 9.3788985e-05 1.873852e-05
0.050270922 0.03610651 0.02068603 -0.003702568 -0.021874502 0.0030386073 -0.022364596 0.031415347
-0.04552957 -0.021065142 -0.025546685 0.049277097 0.04390518 -0.00465136 -0.005347981 -0.022502365
-0.030656798 0.029048705 -0.0051472355 0.039447166 -0.0035998556 0.037160356 -0.00024799167 -0.0062635643
0.0001405925 -0.00974902 0.006803854 -0.01916249 -0.029167702 0.023072442 -0.0328752 0.013876896
-0.008058269 -0.03356927 -0.023849688 0.016955504 0.0015354321 0.026312275 -0.050803296 0.0006872533
-0.02753484 0.03891871 0.022281956 0.011365632 -0.03017845 -0.050274003 0.0385827 -0.02341037
00000000: 9734 293d a93a 59bd 32b2 d73c 9021 4ebd
00000010: 5995 51bd fdb9 3fbd 74a5 553d 44a9 423d
00000020: aedd 6bbd 9e40 61bd 513f 2b3d f9f8 1b3d
00000030: cfa9 62bd 2956 b8bb ca2e 013d 5129 fe3c
00000040: 7d39 bf3c 0bad c5bc bda7 5fbc 7a88 a23d
00000050: 127c 8fbc 61a8 8aba 1d5e 223b 2b91 c93c
00000060: 4a5f c6bc f26a 9d3c d247 263c 27e4 8cbb
00000070: a5a5 32bc 6db6 543d efa6 393c 3623 e1bb
00000080: 2384 cdba b5d0 43bd c53b 033d 02d5 8bbc
00000090: 6a48 4a3c f5aa fe3c 79b0 1dbc 1df0 11bd
000000a0: a88b 053c 3eee da3c d353 803c e180 16bd
000000b0: 2b4a 073d 1f4a 05bd 76fd 173d 5ca0 1fbd
000000c0: 3cf6 0938 a32f 1db7 450b b338 cc7c f3b8
000000d0: 1516 40b8 bea4 81b8 7215 2638 2dff 8138
000000e0: dada 8639 6114 5b39 ff30 28b9 18de e338
000000f0: c1a1 7ab9 548f 63b7 b963 7fb7 1b5b b2b8
00000100: c3df 3e35 c472 5cb7 1c36 8238 5565 d239
00000110: a3d1 cf38 2a04 deb7 f1c8 82b8 ce3c ee38
00000120: 06a0 a7b8 fba5 ce38 b8da b8b7 382c d239
00000130: 88a0 0139 cab6 5139 5c03 c539 aad6 48b9
00000140: 0dd7 76b8 5c2a 9db7 021d bb38 0804 adb8
00000150: fbd4 e038 2981 e6b6 0a35 41b8 6f3f 10ba
00000160: 7f5f c837 4e42 35b9 47a4 4e38 e3c0 1b39
00000170: fe02 7c39 7a64 17b9 94b0 c438 aa30 9d37
00000180: e2e8 4d3d 6be4 133d c075 a93c c8a6 72bb
00000190: 2832 b3bc 5f23 473b f535 b7bc 61ad 003d
000001a0: 377d 3abd ce90 acbc 4847 d1bc c8d6 493d
000001b0: ebd5 333d 706a 98bb 1e3e afbb e156 b8bc
000001c0: f723 fbbc 8df7 ed3c 24aa a8bb 5a93 213d
000001d0: 8eeb 6bbb 7535 183d e104 82b9 963e cdbb
000001e0: 036c 1339 5bba 1fbc ddf2 de3b a7fa 9cbc
000001f0: 1bf1 eebc 6b02 bd3c 25a8 06bd ec5b 633c
00000200: d406 04bc ee7f 09bd 6c60 c3bc 45e6 8a3c
00000210: 8d40 c93a d78c d73c 1e17 50bd ca28 343a
00000220: bf90 e1bc 3a69 1f3d a688 b63c ea36 3a3c
00000230: cc38 f7bc 1dec 4dbd e508 1e3d 1bc7 bfbc

layers.0.self_attn.out_proj.weight f4 [48, 48]
0.057889085 0.14485507 -0.028175019 0.1024522 0.046376094 0.124678575 -0.10247463 -0.0108230235
-0.026476117 -0.032654725 0.13333324 -0.021137428 0.09915509 0.006121244 0.087489285 -0.010616679
-0.14131732 -0.03160148 -0.05932259 0.06652966 -0.12408608 -0.04694118 0.05270443 -0.117120564
0.094946794 -0.19695653 -0.081223235 -0.13636273 -0.024153164 -0.024324965 -0.025418475 0.027808554
0.10593677 0.09567404 0.009236794 -0.084639646 -0.094305165 0.08697836 -0.13762353 0.104329415
0.06858246 0.08021916 0.20195094 0.121794164 0.049000837 -0.08023902 0.16825674 -0.12731382
-0.060313657 0.12661988 0.12926935 0.082639255 0.01689478 -0.104922585 -0.010273218 0.17464253
0.032356977 -0.0009338004 -0.026622385 -0.002958674 0.088600606 0.05281804 0.11063638 -0.043605555
0.047411114 0.0766367 0.033849765 0.08202937 0.08688477 0.08495621 0.09368569 -0.057328828
-0.10229242 0.015998801 0.016375871 -0.02963079 -0.021567948 0.0033708008 0.09571082 0.06754848
-0.05366823 -0.067345284 -0.047527183 -0.068938866 0.1448838 0.07695292 0.11125374 0.02625989
0.031098314 0.052835815 -0.10282488 0.024655782 0.0076127504 -0.07422011 -0.11504528 0.113403864
0.11689162 0.07142612 0.1452614 -0.027409405 -0.0230781 0.06127383 -0.023234542 -0.011672453
-0.1169921 0.028793463 -0.07731713 0.023723954 0.14300676 -0.022874745 -0.034417834 0.07240601
-0.064410724 0.002095296 0.14154354 -0.054661036 -0.10687603 -0.12177629 -0.066964485 -0.07195952
-0.0699448 0.052076135 0.027084442 -0.039540052 -0.10960493 -0.048609998 -0.06814284 -0.029145695
-0.13121305 0.025426699 -0.108504005 -0.119478524 -0.10226847 0.059498988 -0.10547314 -0.046096
0.111410126 0.07852116 0.09799038 -0.12635966 -0.09437068 -0.050795626 0.118728235 0.003665958
-0.106966026 0.008294754 -0.10731747 -0.021974636 -0.029135883 0.12652306 0.045164537 -0.001170783
0.030769834 -0.055665463 0.070663296 0.09119841 0.050521508 -0.03208513 0.12340143 -0.022540439
-0.0675992 0.10920146 0.12877408 0.12964883 0.030435918 -0.095250145 0.06597288 0.12173287
-0.11677585 -0.021494105 -0.11165318 0.03846087 0.075613365 -0.024095073 -0.02941732 0.08473726
-0.017377732 -0.1266559 0.09938747 -0.0761041 -0.00990342 0.016165074 -0.03883412 -0.12895215
0.058236897 -0.05531747 -0.06532873 0.031234542 -0.06310646 -0.046586588 -0.038234066 -0.0753725
-0.040367033 -0.019453816 0.017123917 -0.102171324 -0.07716489 -0.0017368272 0.0084120035 0.097453326
-0.10032958 0.031109111 0.056724377 0.07475805 -0.12890165 -0.04197675 -0.13263324 -0.091909625
0.037146866 -0.011311777 0.054358672 -0.105200164 0.017386481 -0.12801096 0.060883187 -0.062509
-0.040858362 -0.10919686 -0.0069601177 0.12360603 0.079441324 -0.08261866 0.007525411 -0.001964564
-0.13260426 0.11982242 -0.017350744 0.06101878 -0.07797929 -0.08058212 0.039668098 0.058530197
0.040875554 -0.06578051 0.1378533 -0.017583907 -0.09168493 -0.057789225 0.1240954 0.009782451
-0.05040164 -0.060548928 -0.05252327 -0.07975031 -0.1243224 0.08876475 0.11856984 0.13087961
-0.095866986 0.06907003 -0.0841719 0.07418113 0.08227714 0.13859788 0.13846873 0.05274756
00000000: 1b1d 6d3d e354 143e 4ccf e6bc 76d2 d13d
00000010: dcf4 3d3d 7b57 ff3d 38de d1bd 0d53 31bc
00000020: 71e4 d8bc f6c0 05bd 8288 083e 6628 adbc
00000030: d311 cb3d b794 c83b 952d b33d 94f1 2dbc
00000040: 7db5 10be 8e70 01bd 3efc 72bd b440 883d
00000050: d820 febd 6545 40bd 9ae0 573d e8dc efbd
00000060: 7773 c23d f9ae 49be 5e58 a6bd aca2 0bbe
00000070: dbdc c5bc 2645 c7bc 683a d0bc c4ce e33c
00000080: 61f5 d83d c0f0 c33d ec55 173c 8d57 adbd
00000090: 1123 c1bd b621 b23d 2fed 0cbe a9aa d53d
000000a0: f674 8c3d f149 a43d 3acc 4e3e 386f f93d
000000b0: 1ab5 483d 5b54 a4bd 7f4b 2c3e 8e5e 02be
000000c0: 740b 77bd a4a8 013e 2f5f 043e c53e a93d
000000d0: ec66 8a3c a7e1 d6bd 0051 28bc 7ed5 323e
000000e0: c088 043d 49ca 74ba 3017 dabc 50e6 41bb
000000f0: 3c74 b53d bb57 583d 5495 e23d bd9b 32bd
00000100: 2832 423d b4f3 9c3d 0da6 0a3d 04ff a73d
00000110: a4f0 b13d 85fd ad3d 48de bf3d a2d1 6abd
00000120: b07e d1bd eb0f 833c b126 863c 45bc f2bc
00000130: 44af b0bc a7e8 5c3b 0904 c43d dc56 8a3d
00000140: 38d3 5bbd 53ec 89bd ddab 42bd d22f 8dbd
00000150: 6b5c 143e 7e99 9d3d 00d9 e33d fb1e d73c
00000160: e4c1 fe3c 5e6a 583d da95 d2bd ecfa c93c
00000170: 6174 f93b b700 98bd dc9c ebbd 4940 e83d
00000180: e064 ef3d dc47 923d 68bf 143e b089 e0bc
00000190: 490e bdbc 44fa 7a3d 5e56 bebc d13d 3fbc
000001a0: 8e99 efbd 45e0 eb3c 7258 9ebd bd58 c23c
000001b0: 5d70 123e d163 bbbc b7f9 0cbd 9a49 943d
000001c0: c5e9 83bd 3c51 093b caf0 103e 40e4 5fbd
000001d0: d2e1 dabd d965 f9bd ad24 89bd 835f 93bd
000001e0: 383f 8fbd c94d 553d 31e0 dd3c c0f4 21bd
000001f0: 8d78 e0bd 471b 47bd 798e 8bbd f4c2 eebc
00000200: b75c 06be a74b d03c 5937 debd 28b1 f4bd
00000210: 2272 d1bd 36b5 733d 4d02 d8bd 29cf 3cbd
00000220: fe2a e43d b4cf a03d 2eaf c83d 6d64 01be
00000230: 6a45 c1bd 130f 50bd ca27 f33d 9240 703b
00000240: 0111 dbbd b8e6 073c 43c9 dbbd 2704 b4bc
00000250: 60ae eebc 438f 013e 73fe 383d f574 99ba
00000260: 0511 fc3c 7801 64bd ebb7 903d 3bc6 ba3d
00000270: a4ef 4e3d b36b 03bd e4b9 fc3d baa6 b8bc
00000280: 7371 8abd 04a5 df3d 5add 033e aac2 043e
00000290: bf54 f93c 8212 c3bd ca1c 873d 154f f93d
000002a0: 2d28 efbd 6814 b0bc 6caa e4bd 2589 1d3d
000002b0: 2edb 9a3d 0863 c5bc 97fc f0bc bb8a ad3d
000002c0: bf5b 8ebc 16b2 01be a88b cb3d 77dc 9bbd
000002d0: f441 22bc 9e6c 843c 8710 1fbd 080c 04be
000002e0: d089 6e3d 9294 62bd 12cb 85bd 95df ff3c
000002f0: f63d 81bd 94d1 3ebd 539b 1cbd e65c 9abd
00000300: e757 25bd 9c5d 9fbc 7547 8c3c 333f d1bd
00000310: a008 9ebd 40a6 e3ba 80d2 093c 9c95 c73d
00000320: 9879 cdbd 89d8 fe3c d257 683d c01a 993d
00000330: cbfe 03be d0ef 2bbd 02d1 07be 1d3b bcbd
00000340: 5027 183d 0855 39bc 33a7 5e3d 2f73 d7bd
00000350: 186e 8e3c 4e15 03be a660 793d b804 80bd
00000360: 195b 27bd 9aa2 dfbd b311 e4bb 2925 fd3d
00000370: 22b2 a23d f933 a9bd b997 f63b eabf 00bb
00000380: 69c9 07be 7565 f53d 2623 8ebc d4ee 793d
00000390: 9bb3 9fbd 3d08 a5bd 047b 223d 5cbd 6f3d
000003a0: 206d 273d efb7 86bd 6a29 0d3e 200c 90bc
000003b0: 4fc5 bbbd 65b4 6cbd bb25 fe3d 9346 203c
000003c0: f371 4ebd 2702 78bd a422 57bd 2154 a3bd
000003d0: be9c febd 4bca b53d bfd4 f23d 4e05 063e
000003e0: e955 c4bd 9674 8d3d 5162 acbd 47ec 973d
000003f0: eb80 a83d 9aec 0d3e bfca 0d3e d30d 583d

layers.0.self_attn.out_proj.bias f4 [48]
0.085056834 0.04492928 0.035461064 0.03909482 -0.012144696 -0.0036590192 -0.05087602 -0.058740813
-0.0020129948 0.019389959 0.019447785 -0.006447875 0.006230837 0.019599153 0.036743436 -0.022748476
-0.01757424 -0.01941482 0.016163077 0.020851037 0.015925035 -0.020531856 0.048490923 -0.034881707
0.019605033 -0.013659758 0.026277712 -0.037033085 -0.029144544 0.045489386 -0.039259702 0.01663761
0.005795595 0.03668056 -0.03999314 0.014627294 0.010356044 -0.033321988 0.004745111 -0.0512887
0.051462803 -0.025886094 -0.04747472 0.0101876585 0.032205533 0.024778826 0.016563255 0.023749197
00000000: 4732 ae3d c407 383d 9f3f 113d e421 203d
00000010: 8cfa 46bc 28cc 6fbb 6063 50bd 359a 70bd
00000020: 73ec 03bb b1d7 9e3c f650 9f3c b248 d3bb
00000030: 0d2c cc3b 678e a03c 4980 163d 035b babc
00000040: daf7 8fbc d40b 9fbc 6e68 843c cbcf aa3c
00000050: 3875 823c 6c32 a8bc 6b9e 463d 1fe0 0ebd
00000060: bc9a a03c 2dcd 5fbc 5b44 d73c 01b0 17bd
00000070: 8ac0 eebc 1453 3a3d c8ce 20bd 994b 883c
00000080: f9e8 bd3b 5b3e 163d d9cf 23bd 51a7 6f3c
00000090: 66ac 293c a37c 08bd e07c 9b3b 1a14 52bd
000000a0: a9ca 523d 130f d4bc da74 42bd 23ea 263c
000000b0: f3e9 033d f7fc ca3c aaaf 873c ad8d c23c

layers.0.norm1.weight f4 [48]
0.9900991 1.0651461 0.98074025 1.01351 1.0254818 1.0034679 1.0406805 0.99492335
0.9780357 0.99393564 1.0064234 0.9820809 0.99120945 1.0215219 1.0164022 0.97970283
0.9844065 1.0525097 0.98938715 0.9651916 0.93330157 0.96289474 0.9913531 1.0002539
1.0051181 1.000007 1.0079428 1.0934186 0.99332374 0.9836187 1.0099664 1.0182186
1.0037501 1.0066259 1.0027071 0.97365683 1.0224295 0.9804136 0.9805755 0.9932582
1.0331026 0.99825674 1.0206472 1.0300933 0.9708946 0.99686825 0.9953578 1.0126076
00000000: 2277 7d3f b556 883f cb11 7b3f b2ba 813f
00000010: fd42 833f a371 803f 0535 853f 4cb3 7e3f
00000020: 8c60 7a3f 9172 7e3f 7bd2 803f a769 7b3f
00000030: e7bf 7d3f 3bc1 823f 7819 823f cecd 7a3f
00000040: 1002 7c3f a3b8 863f 7a48 7d3f cc16 773f
00000050: daec 6e3f 4580 763f 51c9 7d3f 5208 803f
00000060: b6a7 803f 3b00 803f 4504 813f 24f5 8b3f
00000070: 774a 7e3f 6fce 7b3f 9446 813f fd54 823f
00000080: e27a 803f 1ed9 803f b558 803f 9341 793f
00000090: f8de 823f 63fc 7a3f ff06 7b3f 2b46 7e3f
000000a0: b53c 843f c18d 7f3f 91a4 823f 19da 833f
000000b0: 8c8c 783f c232 7f3f c5cf 7e3f 209d 813f

layers.0.norm1.bias f4 [48]
0.020418588 -0.007825664 0.006226409 -0.005384558 0.008882173 0.015411425 -0.0034757354 -0.01986604
0.018101072 0.009721844 0.023228725 0.02341282 0.010367019 -0.012871716 -0.0018382438 -0.008768023
0.0113365175 0.003914009 -0.023410825 0.0056873797 -0.0014567415 -0.045220356 0.008335636 -0.0016898896
0.005231969 -2.3044313e-06 -0.01735131 0.0029817636 0.00652563 0.006074933 0.0012460046 0.0014269758
-0.021800349 0.0059483745 0.013381554 -0.015841344 -0.026589364 -0.0039385324 0.008691399 -0.006408026
-0.00465002 -0.011173283 0.013441434 0.0083165895 0.021168517 -0.0069626593 0.0028864092 -0.015457833
00000000: e244 a73c 3737 00bc e806 cc3b f270 b0bb
00000010: 8986 113c 3480 7c3c 2ac9 63bb 1bbe a2bc
00000020: b348 943c 5f48 1f3c 2b4a be3c 3ecc bf3c
00000030: 6eda 293c e4e3 52bc 3af1 f0ba c1a7 0fbc
00000040: cdbc 393c 1641 803b 0fc8 bfbc 335d ba3b
00000050: 22f0 beba fb38 39bd 3192 083c 497f ddba
00000060: f070 ab3b d4a5 1ab6 5624 8ebc b169 433b
00000070: f4d4 d53b 3b10 c73b fa50 a33a 5d09 bb3a
00000080: a596 b2bc 95ea c23b 4e3e 5b3c b5c5 81bc
00000090: f0d1 d9bc ce0e 81bb 5f66 0e3c 6bfa d1bb
000000a0: 325f 98bb 2510 37bc 7639 5c3c 4e42 083c
000000b0: 9969 ad3c 0527 e4bb e929 3d3b da42 7dbc

layers.0.graph_attn.gat.att_src f4 [1, 4, 12]
-0.33668336 0.38799486 0.060936633 -0.04423096 -0.037029315 0.13385405 0.024476677 0.53417283
0.4930342 0.6086702 0.3742698 0.0072877845 -0.23477598 -0.22698599 0.3661731 -0.046643924
-0.54048777 0.017939018 -0.14559461 -0.43825758 -0.46141145 -0.058064796 0.21391693 0.33438742
-0.44269574 -0.5158597 -0.46731067 -0.028620837 -0.051814925 0.28741917 -0.50686496 0.5583637
-0.18411675 -0.5735689 -0.3933891 0.15082574 -0.09165671 0.44282967 0.01433004 0.3538789
0.50696605 -0.22904834 0.028192788 -0.053535905 -0.2835769 -0.57377094 -0.30281553 0.3431944
00000000: c361 acbe 43a7 c63e b198 793d 862b 35bd
00000010: 0dac 17bd 0911 093e 5083 c83c 8dbf 083f
00000020: fb6e fc3e cfd1 1b3f 4ba0 bf3e 5ece ee3b
00000030: 1d69 70be 046f 68be 0a7b bb3e b30d 3fbd
00000040: 685d 0abf d9f4 923c c116 15be 4c63 e0be
00000050: 1f3e ecbe 5ad5 6dbd 0a0d 5b3e d434 ab3e
00000060: 04a9 e2be 620f 04bf 5843 efbe 3f76 eabc
00000070: e33b 54bd 9b28 933e e7c1 01bf ecf0 0e3f
00000080: 1a89 3cbe 69d5 12bf 4c6a c9be 1072 1a3e
00000090: 83b6 bbbd 92ba e23e 8bc8 6a3c 9d2f b53e
000000a0: 87c8 013f a68b 6abe 90f4 e63c 7748 5bbd
000000b0: fe30 91be a7e2 12bf a30a 9bbe 2db7 af3e

layers.0.graph_attn.gat.att_dst f4 [1, 4, 12]
-0.11772059 -0.5396812 0.16212973 0.22354005 0.112502895 0.49692485 -0.46926534 -0.24159302
-0.035472646 -0.4040658 0.20640735 -0.15374964 0.5756956 -0.20159303 -0.43440354 0.4745125
0.60583586 0.4505532 -0.47641417 -0.2995079 0.29246986 0.5632038 0.41689578 -0.5156667
-0.2061667 -0.035392765 0.3005484 -0.42400852 0.24203715 -0.14333375 0.18916647 -0.09772092
0.59257615 -0.06441882 -0.23627934 -0.09945813 -0.30084488 -0.507498 0.3983024 -0.3719581
-0.26636097 -0.31531549 -0.008329175 0.34222424 -0.16660593 0.004177639 -0.21474293 0.48072526
00000000: 7e17 f1bd 8c28 0abf 5605 263e afe7 643e
00000010: eb67 e63d ef6c fe3e 8c43 f0be 2964 77be
00000020: c44b 11bd b6e1 cebe 735c 533e 8c70 1dbe
00000030: c960 133f 676e 4ebe 246a debe 4df3 f23e
00000040: 0f18 1b3f e9ae e63e 8fec f3be 1959 99be
00000050: 9cbe 953e 202e 103f 5d73 d53e bc02 04bf
00000060: 5d1d 53be 01f8 10bd 7be1 993e a517 d9be
00000070: 96d8 773e 15c6 12be dbb4 413e e821 c8bd
00000080: 12b3 173f 04ee 83bd 36f3 71be b4b0 cbbd
00000090: 5708 9abe 64eb 01bf 4bee cb3e 4b71 bebe
000000a0: 7760 88be 0871 a1be 1877 08bc 0438 af3e
000000b0: bf9a 2abe 93e4 883b 92e5 5bbe 9f21 f63e

layers.0.graph_attn.gat.bias f4 [48]
0.0053783148 -0.018145636 0.007898833 -0.0028370118 -0.003099302 0.0028216536 -0.006974031 0.001383012
0.021722298 0.002948845 0.013795101 0.00564882 0.013117164 -0.014125501 -0.013304487 -0.016419685
0.0052518724 0.0036200369 -0.010544983 0.013109483 -0.002504283 -0.007032611 0.010145056 -0.0033175382
0.005477059 -0.010113438 -0.01407076 0.0013852358 0.0027942848 0.002337946 0.0014867744 -0.0023177704
-5.1516006e-05 0.0064474707 0.01193063 -0.002639378 -0.0060029454 -0.009036411 -0.008004288 -0.010367844
0.0017594539 0.0036143167 0.0040264623 0.0010864922 0.011766372 -0.010784499 0.0029374838 -0.019435752
00000000: 933c b03b 28a6 94bc 1b6a 013c 29ed 39bb
00000010: a91d 4bbb 7eeb 383b 6a86 e4bb 2f46 b53a
00000020: f6f2 b13c 6941 413b d904 623c bd19 b93b
00000030: 60e9 563c a56e 67bc 10fb 59bc 9382 86bc
00000040: e617 ac3b 243e 6d3b ddc4 2cbc 28c9 563c
00000050: e61e 24bb d171 e6bb 7337 263c 0e6b 59bb
00000060: e778 b33b d5b2 25bc 0c89 66bc cd90 b53a
00000070: 5220 373b 3a38 193b dfdf c23a bce5 17bb
00000080: e412 58b8 4e45 d33b b078 433c 6af9 2cbb
00000090: 5bb4 c4bb 740d 14bc 6b24 03bc e4dd 29bc
000000a0: 7a9d e63a 2cde 6c3b 6af0 833b a168 8e3a
000000b0: bec7 403c 78b1 30bc cd82 403b ba37 9fbc

layers.0.graph_attn.gat.lin.weight f4 [48, 48]
-0.057074714 0.34286845 0.25131983 0.08529653 -0.19551773 -0.038226727 0.16268751 -0.17331816
-0.10790129 0.097413816 0.066039085 0.22310108 0.03911369 -0.012650587 0.07843791 -0.028954802
-0.22655466 -0.16596684 -0.21121033 0.1577288 0.012862923 0.033246182 0.032730024 -0.17383216
-0.09655751 -0.07156759 0.11510532 -0.29454443 -0.16070068 0.16859257 -0.123064466 0.18302587
0.24264437 0.20638077 -0.21574944 0.02553999 -0.24588454 -0.00681267 0.0427584 -0.103038155
0.11692354 -0.09541307 0.12091489 0.008508081 0.16462797 0.15339467 0.08753491 0.07533109
-0.08675764 -0.12736632 0.20487836 0.17208982 0.05401933 0.18777661 0.059038747 0.13214624
-0.04003637 0.061216418 -0.18983406 -0.22168845 0.13023645 -0.14494167 0.19859016 -0.21304442
-0.18078113 -0.23844148 0.14793272 -0.1564941 -0.25653943 0.08448728 -0.010593277 -0.27636322
0.20374143 0.16355377 0.20262006 0.06759971 -0.18763492 -0.097582884 -0.08024546 -0.19691291
0.16597898 -0.11870789 0.096791334 -0.14589663 0.1988732 0.12337074 0.20757706 0.105697945
0.23780747 0.06474006 0.061958842 -0.026916848 0.23275754 -0.26235658 0.17982101 -0.029714145
-0.02386168 -0.09030155 -0.1221671 0.07877874 -0.11188502 0.056019615 0.042902302 -0.20436552
0.12662114 -0.11100144 -0.092875145 -0.09372697 0.09960572 -0.26077157 -0.16233234 0.1278764
-0.07984482 -0.08361742 -0.21473095 -0.010264635 0.12440925 -0.08082168 0.033348136 0.0072332527
-0.024426365 0.18268695 0.0846041 -0.02766615 -0.015402697 -0.01133064 0.10977059 0.032428715
0.052698933 0.19082457 0.16126269 -0.083311595 -0.22343375 0.06683283 -0.16318697 -0.23768768
0.1820582 -0.20802315 0.23310362 -0.23485482 -0.2177419 0.14209086 0.035368502 -0.1023315
0.094397776 -0.18190423 -0.10958479 -0.19148342 -0.15453906 -0.2481963 0.15336595 -0.1199811
0.09531299 -0.12241965 -0.09415278 0.12201046 0.066666774 0.19324872 0.07469888 -0.2044325
0.13156739 0.21857968 0.11739207 0.2510325 -0.10591917 -0.14494157 -0.2608995 -0.038285878
-0.070592836 -0.20470184 -0.12040406 -0.11744996 0.22247447 -0.058377013 0.20748018 -0.024153035
0.119690165 0.20074469 -0.2527344 -0.104285404 -0.2693112 0.2098614 0.11149536 -0.089433074
-0.10709899 0.17158028 0.018361242 -0.14586347 -0.09581724 -0.080558866 0.08392321 -0.22473072
-0.028837422 0.18082161 0.13551605 0.039810788 0.049859412 0.048275422 0.1387892 0.19572851
0.060296293 0.14499186 0.12810677 -0.18587744 -0.14913169 0.10924795 -0.0175853 -0.13782978
0.08036036 -0.27276486 -0.08979162 0.084781215 0.009369681 -0.16076544 0.105508596 0.003514694
0.005109254 -0.22601853 -0.0571233 -0.09971029 -0.13121778 0.063639574 -0.1855962 0.20093094
0.21677296 0.14889118 -0.03330096 -0.22722831 -0.082943745 -0.01750989 -0.23410556 0.19355622
0.08699387 0.16106106 -0.25125456 -0.1436284 0.019608181 0.0047053415 -0.13223329 0.20489535
0.11265062 -0.012721429 0.2374391 -0.2758281 -0.23893991 0.07228236 0.20212503 0.12953934
-0.17772439 0.19828077 0.1730771 0.038862523 0.16425171 0.03679729 0.09676396 -0.06849631
00000000: 2dc7 69bd 748c af3e feac 803e f2af ae3d
00000010: cd35 48be a193 1cbd 8e97 263e 517a 31be
00000020: 5afb dcbd e580 c73d 803f 873d 9c74 643e
00000030: ad35 203d 6844 4fbc 0ea4 a03d 9f32 edbc
00000040: f2fd 67be 36f3 29be 8547 58be a983 213e
00000050: 02bf 523c 262d 083d eb0f 063d 0f01 32be
00000060: f2bf c5bd 0792 92bd 57bc eb3d 87ce 96be
00000070: b88e 24be 88a3 2c3e 3909 fcbd 226b 3b3e
00000080: c477 783e 7b55 533e 6ced 5cbe 3e39 d13c
00000090: 28c9 7bbe d13c dfbb 6f23 2f3d ab05 d3bd
000000a0: 9c75 ef3d ed67 c3bd 3aa2 f73d 7a65 0b3c
000000b0: 3c94 283e 7e13 1d3e 8145 b33d 3047 9a3d
000000c0: fdad b1bd 516c 02be a2cb 513e 5038 303e
000000d0: 5f43 5d3d 8348 403e 9dd2 713d 5851 073e
000000e0: 2dfd 23bd 11be 7a3d dc63 42be 4c02 63be
000000f0: b45c 053e 976b 14be 385b 4b3e 5128 5abe
00000100: b01e 39be 012a 74be ad7b 173e fd3f 20be
00000110: 2359 83be ab07 ad3d 6d8f 2dbc 7b7f 8dbe
00000120: 98a1 503e a47a 273e a27b 4f3e b771 8a3d
00000130: 5e23 40be 89d9 c7bd bb57 a4bd 8aa3 49be
00000140: 65f6 293e 1f1d f3bd 893a c63d ed65 15be
00000150: 6ba5 4b3e cca9 fc3d 158f 543e 2a78 d83d
00000160: cd83 733e 7096 843d 8ec8 7d3d b980 dcbc
00000170: fe57 6e3e 9a53 86be 0023 383e 146b f3bc
00000180: 9279 c3bc 05f0 b8bd bf32 fabd bf56 a13d
00000190: f923 e5bd d374 653d 53ba 2f3d 3245 51be
000001a0: f9a8 013e b954 e3bd 5335 bebd edf3 bfbd
000001b0: 15fe cb3d da83 85be 733a 26be 08f2 023e
000001c0: ae85 a3bd 9c3f abbd 6ee2 5bbe 002d 28bc
000001d0: 47ca fe3d d685 a5bd 0e98 083d ec04 ed3b
000001e0: cd19 c8bc 4a12 3b3e ea44 ad3d 1fa4 e2bc
000001f0: 985b 7cbc 26a4 39bc 67cf e03d f9d3 043d
00000200: d6da 573d 8467 433e 0c22 253e 459f aabd
00000210: d1cb 64be a7df 883d 7c1a 27be 6664 73be
00000220: 776d 3a3e 0504 55be b7b2 6e3e c87d 70be
00000230: bcf7 5ebe 4480 113e 90de 103d 2d93 d1bd
00000240: 9f53 c13d 1a45 3abe fe6d e0bd 3b14 44be
00000250: 7d3f 1ebe 2c27 7ebe f70b 1d3e a7b8 f5bd
00000260: 7533 c33d 27b7 fabd 2cd3 c0bd 9fe0 f93d
00000270: 9788 883d fee2 453e bafb 983d c156 51be
00000280: 9ab9 063e 5ad3 5f3e 416b f03d 5587 803e
00000290: 26ec d8bd 906b 14be 9f94 85be a7d1 1cbd
000002a0: fa92 90bd 5c9d 51be 6796 f6bd 9b89 f0bd
000002b0: 59d0 633e bc1c 6fbd af75 543e 96dc c5bc
000002c0: 1e20 f53d 0490 4d3e 6766 81be 9693 d5bd
000002d0: 28e3 89be e8e5 563e ae57 e43d b028 b7bd
000002e0: b756 dbbd beb2 2f3e 516a 963c 3c5d 15be
000002f0: d43b c4bd 0cfc a4bd efdf ab3d cf1f 66be
00000300: 753c ecbc 4d29 393e b8c4 0a3e a310 233d
00000310: 6239 4c3d 73bc 453d c21e 0e3e 0e6d 483e
00000320: 3ff9 763d bf78 143e 6c2e 033e a856 3ebe
00000330: fab5 18be 64bd df3d 0c0f 90bc 4023 0dbe
00000340: f993 a43d d6a7 8bbe abe4 b7bd c6a1 ad3d
00000350: 4a83 193c b29f 24be e414 d83d c856 663b
00000360: 876b a73b 6771 67be 1ffa 69bd e934 ccbd
00000370: f45d 06be 7755 823d ee0c 3ebe d7c0 4d3e
00000380: bbf9 5d3e ee76 183e 9666 08bd 8aae 68be
00000390: 69de a9bd e770 8fbc 5eb9 6fbe 9a33 463e
000003a0: d829 b23d 31ed 243e 70a4 80be 5313 13be
000003b0: 56a1 a03c 442f 9a3b 2a68 07be 16d0 513e
000003c0: 5eb5 e63d 8a6d 50bc 3c23 733e 5739 8dbe
000003d0: aaac 74be c608 943d ddf9 4e3e f6a5 043e
000003e0: 62fd 35be 1d0a 4b3e 203b 313e 4f2e 1f3d
000003f0: 9a31 283e c1b8 163d 2f2c c63d cb47 8cbd

layers.0.norm2.weight f4 [48]
1.0264226 1.001641 0.99797326 1.0370332 1.0563005 1.0752821 1.0445715 1.0190365
1.0136641 1.039625 0.99339503 1.0100986 1.0259607 1.034223 1.0197 0.98986024
1.0091543 1.0616393 1.0220269 1.0004137 0.98092985 0.9977336 1.0188048 1.0113708
0.9685567 1.0091985 1.0121285 1.0468501 1.009231 0.99614424 1.0284846 1.013077
1.017435 1.0197856 1.0196494 1.0104411 1.0634077 0.9983386 1.0212097 1.0210643
1.0554181 1.0126528 1.0529008 1.0526874 1.0019841 1.0311134 1.037803 1.0246794
00000000: d161 833f c635 803f 2d7b 7f3f 81bd 843f
00000010: db34 873f d8a2 893f 85b4 853f ca6f 823f
00000020: bfbf 813f 6f12 853f 234f 7e3f e94a 813f
00000030: ae52 833f 6b61 843f 8885 823f 7b67 7d3f
00000040: f82b 813f cce3 873f c7d1 823f 8e0d 803f
00000050: 381e 7b3f 786b 7f3f 3268 823f 9974 813f
00000060: 55f3 773f 6b2d 813f 6d8d 813f 2fff 853f
00000070: 7b2e 813f 4f03 7f3f 62a5 833f 82ac 813f
00000080: 4f3b 823f 5688 823f df83 823f 2256 813f
00000090: be1d 883f 1e93 7f3f 00b7 823f 3cb2 823f
000000a0: f117 873f 9b9e 813f 74c5 863f 76be 863f
000000b0: 0441 803f 86fb 833f bbd6 843f b228 833f

layers.0.norm2.bias f4 [48]
-0.0029093153 -0.0081488555 -0.005538364 0.00023753147 0.0033284053 -0.0004371884 -0.009929107 0.0064607374
0.0071703414 0.005180061 -0.009982838 0.003102686 -0.011654555 -0.0064857574 -0.011752096 0.01619848
-0.005034448 -0.0029029578 0.0069013485 -0.001860877 0.00831705 0.011745219 0.017804433 -0.002730081
0.0053041107 0.0066902526 -0.00416068 0.0034477501 -0.0076486873 0.0022661944 0.003479733 -0.00982653
-0.0016263559 0.0028080645 0.0020966867 0.0030369689 0.0047606356 -0.0018976196 -3.9283655e-05 0.006983016
0.00410076 0.012635164 0.004729573 -0.0116241155 0.0040084994 -0.0054162233 0.0063963416 -0.012586899
00000000: 36aa 3ebb c782 05bc 2a7b b5bb de11 7939
00000010: 6021 5a3b 6f36 e5b9 b1ad 22bc 98b4 d33b
00000020: 2ff5 ea3b 80bd a93b 0f8f 23bc 6f56 4b3b
00000030: bff2 3ebc 7a86 d4bb dd8b 40bc adb2 843c
00000040: 03f8 a4bb 8d3f 3ebb b524 e23b ace8 f3ba
00000050: 3c44 083c 056f 403c 9ada 913c 29eb 32bb
00000060: 1bce ad3b e839 db3b 5056 88bb a6f3 613b
00000070: d7a1 fabb 6f84 143b 3b0c 643b 74ff 20bc
00000080: 732b d5ba 8107 383b 9168 093b e207 473b
00000090: 1bff 9b3b 8cb9 f8ba 81c4 24b8 c9d1 e43b
000000a0: ab5f 863b b803 4f3c 89fa 9a3b 1373 3ebc
000000b0: bb59 833b 937a b1bb 6798 d13b 4839 4ebc

layers.0.ffn.0.weight f4 [192, 49]
0.049846962 0.10255419 -0.0399707 -0.034628745 -0.048413925 -0.09003196 0.03342996 -0.14954749
0.083451435 0.15116277 -0.06424641 0.043086357 0.037647266 0.06900746 0.17420879 -0.18607989
0.11842805 -0.021476153 0.06734336 0.054890174 -0.0021789777 -0.15940432 0.05421978 -0.15847452
-0.13953462 0.080995694 -0.019133847 -0.09981879 -0.01832369 0.11998322 -0.07764242 -0.013713726
0.073393755 -0.069310546 0.08005862 0.20117694 0.03119941 -0.17463696 -0.05214871 -0.2362138
-0.14430189 -0.06870661 -0.09142308 -0.042800676 0.0053961007 -0.13039298 -0.1627653 -0.0636431
-0.15354067 0.022245424 0.028595157 0.018916339 0.12401539 0.07667422 0.13998269 0.10971038
-0.096416235 0.019563701 -0.007307971 -0.11954419 0.13547766 -0.090535805 -0.1302733 -0.1272293
-0.14704476 0.11662263 -0.09157456 0.11995299 0.09409181 0.12553032 -0.08281824 -0.14206855
0.22583231 0.0065834178 -0.044282008 0.13472919 -0.0827275 -0.0028924423 0.039021607 0.113614075
0.0278886 0.03178289 0.09993137 -0.032688245 0.018478334 0.09320418 0.0029887555 -0.11511392
0.10844624 0.002624034 -0.17383459 -0.021246936 0.05151175 -0.14442028 0.0075818147 -0.02469036
-0.018337332 -0.016568042 -0.095211856 -0.007750531 -0.00043917637 0.08219538 -0.12471323 0.033338916
0.21042389 0.007563396 -0.10999197 -0.01505024 0.0322105 0.055397935 0.005786726 -0.17199962
-0.012300071 -0.06169209 0.053333748 0.13812459 -0.044222515 0.025190964 0.092919655 -0.004127052
0.0137347225 -0.012459041 0.068996415 -0.10027896 -0.103643276 -0.10316737 0.050357964 -0.030874375
0.055620573 0.07282263 0.029651789 0.15235463 0.10437216 -0.18335977 0.15868793 -0.14019123
0.08059422 0.0050329743 -0.11035428 -0.06488679 0.13128127 -0.06724246 -0.09416304 0.09579644
0.05411917 0.0107373865 -0.13475578 -0.051625837 -0.10996923 0.040818933 0.04593538 -0.07659217
-0.0653169 0.09572268 0.0069723376 0.034909945 -0.08656317 -0.103474215 0.11427141 0.14910084
0.12148536 -0.11556337 -0.07367027 -0.0938443 0.13206096 0.09802632 -0.05621432 0.017731667
0.09366705 0.12222968 -0.04415415 -0.011058729 -0.11427554 -0.14631113 -0.016147967 -0.029150674
0.06834004 0.12565777 -0.031239606 0.05038155 -0.027622968 0.09344127 -0.13139582 -0.035352476
-0.040550962 0.09199038 0.058076534 0.024332624 0.059106153 -0.057783466 -0.1078762 -0.081642725
-0.040889014 -0.089337915 0.040425137 0.106533505 0.11372288 0.07791425 0.09750739 -0.017507287
-0.06321069 0.036701396 0.17060095 -0.008095525 -0.028104115 -0.06812265 -0.11939476 0.044246774
0.06994179 0.061603777 0.0006116722 0.09011625 -0.0023851164 0.13121785 -0.12646994 0.040536832
0.12571703 0.0372744 -0.10983409 0.113651335 -0.070685856 0.014873512 -0.091630876 0.13829821
0.032549545 0.031980567 -0.023541091 -0.022771755 -0.0724729 0.13129064 0.13559018 -0.14296447
-0.07351465 0.074345 -0.1082891 0.015776666 -0.05860176 -0.073339604 0.13819762 0.023616903
0.05393639 -0.09369471 0.12638205 -0.18518238 -0.14794655 -0.12967774 -0.13443334 0.009298114
-0.1606333 0.007484529 -0.040522348 0.045242704 -0.031629417 0.06674161 -0.067378156 -0.08947537
00000000: 542c 4c3d ee07 d23d 51b8 23bd dfd6 0dbd
00000010: ae4d 46bd ad62 b8bd dbed 083d fa22 19be
00000020: 96e8 aa3d 6aca 1a3e 9f93 83bd 527b 303d
00000030: 0534 1a3d c853 8d3d ca63 323e ba8b 3ebe
00000040: 688a f23d c2ee afbc 51eb 893d 85d4 603d
00000050: 2ecd 0ebb e33a 23be 8f15 5e3d 2547 22be
00000060: 2ae2 0ebe 12e1 a53d 96be 9cbc cb6d ccbd
00000070: 901b 96bc c3b9 f53d fd02 9fbd 89af 60bc
00000080: 774f 963d b0f2 8dbd c6f5 a33d 5401 4e3e
00000090: e895 ff3c 08d4 32be e399 55bd 08e2 71be
000000a0: e0c3 13be 0db6 8cbd 063c bbbd c34f 2fbd
000000b0: c6d1 b03b bd85 05be f2ab 26be 5057 82bd
000000c0: c439 1dbe 093c b63c 6440 ea3c 70f6 9a3c
000000d0: c8fb fd3d 6007 9d3d 9f57 0f3e d6af e03d
000000e0: e075 c5bd 0e44 a03c b477 efbb 96d3 f4bd
000000f0: a8ba 0a3e d66a b9bd 5d66 05be 6648 02be
00000100: e792 16be d8d7 ee3d 718b bbbd eaa9 f53d
00000110: 35b3 c03d 058b 003e 9c9c a9bd 6b7a 11be
00000120: 9640 673e b6b9 d73b 0d61 35bd 73f6 093e
00000130: 096d a9bd 218f 3dbb 1fd5 1f3d 7fae e83d
00000140: a276 e43c c72e 023d d1a8 cc3d 1ce4 05bd
00000150: e05f 973c d5e1 be3d ffde 433b d9c0 ebbd
00000160: 1019 de3d fcf7 2b3b b201 32be 0e0e aebc
00000170: fcfd 523d e9e2 13be df70 f83b 7043 cabc
00000180: 2c38 96bc b4b9 87bc 6ffe c2bd 2bf8 fdbb
00000190: 4141 e6b9 0d56 a83d a669 ffbd 638e 083d
000001a0: 5c79 573e 5dd6 f73b 7843 e1bd 4895 76bc
000001b0: 28ef 033d f2e8 623d 939e bd3b ab20 30be
000001c0: 3d86 49bc d8b0 7cbd 7d74 5a3d 8870 0d3e
000001d0: ab22 35bd 485d ce3c a94c be3d 393c 87bb
000001e0: 9a07 613c 0121 4cbc fe4d 8d3d 0e5f cdbd
000001f0: ed42 d4bd 6a49 d3bd 2744 4e3d 42ec fcbc
00000200: 66d2 633d 0824 953d 4fe8 f23c da02 1c3e
00000210: 12c1 d53d aac2 3bbe 177f 223e 4a8e 0fbe
00000220: 950e a53d a6eb a43b 6d01 e2bd 5ee3 84bd
00000230: 996e 063e 6ab6 89bd 8dd8 c0bd ed30 c43d
00000240: 10ac 5d3d ddeb 2f3c 6bfd 09be 9d75 53bd
00000250: 8c37 e1bd c131 273d bd26 3c3d 5bdc 9cbd
00000260: dec4 85bd 410a c43d 3578 e43b bbfd 0e3d
00000270: 0848 b1bd 4aea d3bd 2107 ea3d e4ad 183e
00000280: 51cd f83d 7dac ecbd 70e0 96bd 7131 c0bd
00000290: fd3a 073e 06c2 c83d fd40 66bd 0042 913c
000002a0: 83d4 bf3d 8e53 fa3d fbda 34bd ac2f 35bc
000002b0: 4b09 eabd 96d2 15be be48 84bc 65cd eebc
000002c0: ddf5 8b3d 6eac 003e 34ea ffbc e25c 4e3d
000002d0: 9049 e2bc 235e bf3d a08c 06be c2cd 10bd
000002e0: c418 26bd 7465 bc3d a9e1 6d3d 3655 c73c
000002f0: 4b19 723d 5bae 6cbd 32ee dcbd 4d34 a7bd
00000300: 3d7b 27bd ccf6 b6bd d494 253d 3d2e da3d
00000310: 8be7 e83d 8291 9f3d f4b1 c73d 716b 8fbc
00000320: 9b74 81bd 3454 163d 04b2 2e3e 18a3 04bc
00000330: 9a3a e6bc e383 8bbd 3d85 f4bd 1b3c 353d
00000340: a43d 8f3d 3e54 7c3d a058 203a de8e b83d
00000350: 9d4f 1cbb f95d 063e 5681 01be f309 263d
00000360: f7bb 003e 0bad 183d b2f0 e0bd 08c2 e83d
00000370: bfc3 90bd 08b0 733c f8a8 bbbd 0c9e 0d3e
00000380: ac52 053d 0efe 023d 3fd9 c0bc d58b babc
00000390: ac6c 94bd 0e71 063e 27d8 0a3e 4765 12be
000003a0: d98e 96bd 3142 983d adc6 ddbd 113e 813c
000003b0: 6608 70bd 1333 96bd ad83 0d3e 3c78 c13c
000003c0: 67ec 5c3d 03e3 bfbd 4c6a 013e 73a0 3dbe
000003d0: 4d7f 17be 3eca 04be e5a8 09be 1e57 183c
000003e0: 0e7d 24be c840 f53b c3fa 25bd 6a50 393d
000003f0: d98d 01bd d3af 883d 8ffd 89bd dd3e b7bd

layers.0.ffn.0.bias f4 [192]
-0.06542799 -0.1513527 0.020749837 -0.041412868 -0.10671403 0.04789765 0.08351057 0.034143746
-0.12251845 -0.050795026 -0.13258545 -0.035183538 0.06888202 0.06022204 -0.13650762 -0.015537899
-0.066935375 0.09373615 0.14051233 -0.12557241 -0.061110977 0.0024320292 -0.13932906 -0.15219654
-0.07983898 0.099379234 0.010503213 -0.06535854 -0.022040388 0.11947065 -0.14027953 0.03477159
-0.07917096 -0.15422207 0.117680445 -0.10498335 0.08847214 -0.0011587298 0.02647402 -0.02598619
-0.13433391 0.030699642 -0.06893087 0.04251895 0.1296478 -0.0039037922 -0.011509239 0.028268816
-0.03199293 0.08119505 -0.13082492 0.07926577 -0.08845603 -0.013664699 -0.05669282 -0.007307914
0.09681528 0.001926839 -0.06854374 0.08944494 0.12700424 -0.054801427 -0.1434248 -0.12169936
0.006578767 0.13776737 0.018000389 0.033468027 -0.13967164 0.038801312 0.03940433 -0.0839975
-0.13302161 -0.013654286 -0.1348563 0.131278 -0.10000031 0.12533857 -0.13872243 0.060587417
-0.075486645 -0.10173639 0.020283528 0.10128568 -0.07983368 -0.01200641 -0.13388948 0.09231453
0.10833213 -0.028266748 0.1221529 0.05543937 -0.0051171943 -0.08739813 0.080364324 -0.012167834
-0.09260933 -0.1624929 -0.18597955 0.1124646 -0.095979385 -0.11454569 0.08314223 -0.046193726
-0.1363107 0.00376591 -0.03630781 0.051692527 0.1312999 -0.04889336 0.07469689 -0.02806878
-0.06402471 0.07361699 -0.032507382 0.03261563 0.041213337 -0.14117688 -0.029992824 0.100721024
-0.011327413 0.11132562 0.12162542 -0.06963901 -0.06521933 0.044991504 -0.056325786 -0.04042769
-0.017293561 -0.09672386 0.08146436 -0.07503176 -0.14749062 -0.14209756 -0.121261336 0.005380315
-0.16602914 0.06563596 -0.12255786 -0.0069791824 -0.013001905 -0.068418056 0.095152505 -0.091050535
-0.0022773147 0.0630415 0.044806715 0.066146605 -0.029408539 -0.09229912 -0.070128195 0.11789417
-0.15419269 -0.0482544 0.094448745 -0.040018708 -0.14534499 0.110598475 -0.05246069 0.037890162
0.024149427 -0.07074128 -0.124785595 -0.013072866 -0.11978363 -0.085101284 -0.14265238 0.061514493
-0.1305547 0.04966688 0.11955505 0.059129715 0.054266073 -0.020230837 0.07115531 0.119449556
0.01931636 0.050930172 0.057873845 -0.0008414764 0.09110649 0.046118606 -0.09948322 -0.13077366
-0.0017149496 -0.15299916 -0.14192204 0.113555394 0.06358988 -0.042106383 0.06509414 0.018683758
00000000: 1cff 85bd 34fc 1abe 90fb a93c 8aa0 29bd
00000010: e38c dabd 5430 443d 9707 ab3d 50da 0b3d
00000020: f4ea fabd 720e 50bd 7bc4 07be 9d1c 10bd
00000030: 0412 8d3d 63ab 763d a7c8 0bbe ac92 7ebc
00000040: 6a15 89bd bdf8 bf3d 77e2 0f3e 0e96 00be
00000050: 814f 7abd ae62 1f3b 47ac 0ebe 69d9 1bbe
00000060: 9f82 a3bd 5787 cb3d ab15 2c3c b3da 85bd
00000070: 0b8e b4bc 07ad f43d 70a5 0fbe a86c 0e3d
00000080: 6224 a2bd 64ec 1dbe 7202 f13d 8301 d7bd
00000090: e230 b53d 85e0 97ba 0be0 d83c fee0 d4bc
000000a0: d48e 09be d17d fb3c a12b 8dbd 5a28 2e3d
000000b0: 65c2 043e c4d6 7fbb 3f91 3cbc 0194 e73c
000000c0: 050b 03bd 9749 a63d f8f6 05be 1856 a23d
000000d0: 6f28 b5bd e7e1 5fbc bb36 68bd 3a77 efbb
000000e0: 1747 c63d fd8d fc3a a960 8cbd e92e b73d
000000f0: 660d 023e 7677 60bd f3dd 12be 843d f9bd
00000100: b392 d73b e412 0d3e 8d75 933c c515 093d
00000110: 1506 0fbe 20ee 1e3d 6f66 213d e206 acbd
00000120: d136 08be 3ab6 5fbc c517 0abe bd6d 063e
00000130: f6cc ccbd c158 003e 410d 0ebe 832a 783d
00000140: be98 9abd 2b5b d0bd a429 a63c de6e cf3d
00000150: d77f a3bd 89b6 44bc 531a 09be 660f bd3d
00000160: 3cdd dd3d ab8f e7bc 4d2b fa3d 6514 633d
00000170: 23ae a7bb cafd b2bd 0d96 a43d 985b 47bc
00000180: f6a9 bdbd 8a64 26be 6c71 3ebe d753 e63d
00000190: d790 c4bd ee96 eabd 7946 aa3d a235 3dbd
000001a0: 0895 0bbe 7ccd 763b 80b7 14bd 8bbb 533d
000001b0: 7b73 063e 6744 48bd affa 983d 80f0 e5bc
000001c0: 631f 83bd 81c4 963d 7626 05bd f897 053d
000001d0: 51cf 283d ac90 10be 83b3 f5bc d346 ce3d
000001e0: 9d96 39bc b0fe e33d c016 f93d e69e 8ebd
000001f0: b691 85bd 0349 383d deb5 66bd 8197 25bd
00000200: 3aab 8dbc 2917 c6bd c9d6 a63d 40aa 99bd
00000210: c807 17be 0682 11be dd57 f8bd 5a4d b03b
00000220: 8b03 2abe 256c 863d 9eff fabd a0b1 e4bb
00000230: f105 55bc c41e 8cbd 51df c23d b478 babd
00000240: 003f 15bb e71b 813d 3f87 373d df77 873d
00000250: 2dea f0bc 5207 bdbd 5f9f 8fbd 8072 f13d
00000260: b0e4 1dbe 68a6 45bd 586e c13d a8ea 23bd
00000270: 51d5 14be 7481 e23d 05e1 56bd b732 1b3d
00000280: 05d5 c53c cee0 90bd 978f ffbd 932f 56bc
00000290: 1f51 f5bd 9549 aebd 7713 12be 9ff6 7b3d
000002a0: 22b0 05be 806f 4b3d 47d9 f43d 0032 723d
000002b0: 1a46 5e3d 24bb a5bc e0b9 913d f8a1 f43d
000002c0: 583d 9e3c 289c 503d 200d 6d3d 8696 5cba
000002d0: 0a96 ba3d dde6 3c3d dcbd cbbd 88e9 05be
000002e0: 29c8 e0ba d0ab 1cbe 0354 11be bb8f e83d
000002f0: 693b 823d be77 2cbd 1450 853d ae0e 993c
